NCA Parameters/CLIP Guidance/A painting in the style of Lisa Frank.pt (torch, 65431 bytes, 6 tensors)

weight f4 [90, 72, 1, 1]
0	0x3cfa5e6f	0.030562608
1	0x3c867612	0.016413722
2	0x3c3cc74f	0.011522128
3	0x3b462547	0.0030234621
4	0x3c9cc1ac	0.019135319
5	0x3ce6ce1f	0.028174458
6	0x3b40a9e6	0.0029398142
7	0x3c618674	0.013764966
8	0x3d248fbf	0.04017615
9	0x3da226d8	0.07917565
10	0x3e02a823	0.12759452
11	0x3e050ca8	0.12993109
12	0xbcbb6550	-0.022875458
13	0xbd221252	-0.039568253
14	0x3d9e5dba	0.07732721
15	0x3d3255ab	0.04353873
16	0xbcc5af0f	-0.024131326
17	0x3caa191b	0.020763924
18	0x3ccad9ef	0.024762122
19	0x3ca4adf2	0.020102475
20	0x3cc3f82a	0.023922045
21	0x3d41d65c	0.04732357
22	0xbb32dd91	-0.0027292708
23	0x3cfcbc2b	0.030851444
24	0x3c443c7e	0.011977313
25	0xbc0d0cbe	-0.008608995
26	0x3d3c7b65	0.046016116
27	0xbd1635c7	-0.03667238
28	0xbd087f72	-0.033324666
29	0x3c7a6ef2	0.0152852405
30	0xbbe2585b	-0.0069075054
31	0xbbec9794	-0.007220218
32	0x3b3bde9d	0.0028666623
33	0xbd1ad0d8	-0.037796825
34	0x3be1740c	0.006880289
35	0x3c27d890	0.010244504
36	0x3a4a506f	0.0007717674
37	0xbc04862a	-0.008088628
38	0xbc3662f5	-0.011131992
39	0xbd0b7262	-0.03404463
40	0x3cf884ce	0.030336764
41	0xbc1e8f98	-0.00967779
42	0xbd22c0e2	-0.03973473
43	0xbca40f4f	-0.020026831
44	0x3b995523	0.0046793385
45	0x3d03fd4a	0.032223977
46	0x3b8df796	0.004332493
47	0xbd2e9e4a	-0.042631425
48	0xbd08f9d2	-0.033441372
49	0xbd26cc6c	-0.040722296
50	0xbd14f8da	-0.036370136
51	0xbd1f9447	-0.038959768
52	0x3ce1aeef	0.027549235
53	0xbd5d0cbc	-0.053967223
54	0xbd5e1910	-0.05422312
55	0x3abfb84a	0.0014627066
56	0xbcffbd9c	-0.031218342
57	0x3c85a909	0.016315954
58	0x3b16e5f3	0.0023025244
59	0xbcc0a6cb	-0.023517033
60	0xbcd36355	-0.025804201
61	0xbd0ba39e	-0.034091584
62	0xbd610be9	-0.054943
63	0xbbe7187e	-0.0070524802
64	0xbd20b86a	-0.03923837
65	0x3c93e9bd	0.018055791
66	0xbda1ff89	-0.079100676
67	0xbd4a41de	-0.049379222
68	0x3c5d9db7	0.013526372
69	0x3d837ed2	0.064206734
70	0x3cecf9bc	0.028927676
71	0x3bf9a223	0.007618205
72	0x3d0451c2	0.032304533
73	0xbcaf1d8b	-0.021376392
74	0x3d8da994	0.0691711
75	0x3cb6f54c	0.022333764
76	0x3cea614d	0.02861085
77	0x3daab034	0.08334389
78	0x3c84847f	0.01617646
79	0x3d406576	0.04697176
80	0xbce6e14e	-0.028183606
81	0xbc520276	-0.01281797
82	0x3e11d558	0.1424154
83	0x3dfc1eed	0.12310586
84	0xbc2e4fea	-0.01063917
85	0x3d7c8a8b	0.061655562
86	0x3cf9f1fa	0.030510891
87	0xbce53fc0	-0.0279845
88	0xbcc224cb	-0.023699185
89	0xbd38929f	-0.045061704
90	0x3c829310	0.015939265
91	0xbd0d383b	-0.034477454
92	0x3ce6837d	0.02813887
93	0x3c329966	0.010900831
94	0x3d5087c8	0.05091074
95	0x3d857953	0.065172814
96	0xbbe4f7a2	-0.006987528
97	0x3c6f5932	0.014608668
98	0x3c4944e9	0.012284496
99	0x3cb9941e	0.022653636
100	0xbc2fee8b	-0.010738025
101	0x3c6b4cf2	0.014361607
102	0xbc8798ae	-0.016552296
103	0xbd327643	-0.043569814
104	0x3cae9b75	0.021314362
105	0x3d79f237	0.06102201
106	0x3c52f680	0.012876153
107	0x3bab9a28	0.0052368827
108	0xbd1ec160	-0.038758636
109	0xbcdaa4e5	-0.026689956
110	0xbb8d3f81	-0.004310549
111	0x3bbf203e	0.005832701
112	0x3cda9490	0.026682168
113	0x3b848855	0.0040445724
114	0xbcfc043c	-0.030763738
115	0xbcd3d464	-0.025858112
116	0xbb069365	-0.0020534631
117	0x3d80d9b2	0.06291522
118	0x3d206af7	0.03916451
119	0x3d19d716	0.037558638
120	0xbd1929c7	-0.037393358
121	0xbccfdffa	-0.025375355
122	0x3a9ea2ff	0.001210302
123	0xbd1baf1f	-0.038008805
124	0x3c19db96	0.009390732
125	0xbceeb19d	-0.029137427
126	0xbcf3e930	-0.029774278
127	0xbbaf9c4a	-0.0053592073
128	0xbd04a1a2	-0.032380708
129	0x3d3e1855	0.046409924
130	0x3a3a66f9	0.0007110681
131	0xbbecd62c	-0.0072276797
132	0xbcf2ce1a	-0.029639293
133	0x3d1a1a90	0.03762299
134	0xbc787e29	-0.015166798
135	0x3cd6e38d	0.026231552
136	0xbd7b7703	-0.061392795
137	0x3ca38778	0.019962057
138	0xbd4703b3	-0.048587512
139	0xbd821157	-0.063509636
140	0x3c99f017	0.018791242
141	0xbdb097de	-0.08622716
142	0xbd86942b	-0.065712295
143	0xbb9bf10c	-0.0047589596
144	0x3daf1299	0.08548469
145	0xbd05526d	-0.03254931
146	0xbde0edeb	-0.10982879
147	0x3c884ef0	0.016639203
148	0xbc96c89f	-0.01840621
149	0x3b46f852	0.0030360413
150	0x3d1528a6	0.03641572
151	0x3d204ca2	0.039135583
152	0x3d0da718	0.03458318
153	0xbe2c962d	-0.16854163
154	0xbe2a9053	-0.16656618
155	0x3d4f600d	0.05062871
156	0xbb7be593	-0.0038436397
157	0x3cee9ca0	0.029127419
158	0xbcefacb4	-0.029257156
159	0xbd7343a9	-0.059390698
160	0xbd95d246	-0.07315497
161	0xbd64dfcf	-0.055877503
162	0xbb9f3011	-0.004858025
163	0xbad3f839	-0.0016171999
164	0xbd5d7de3	-0.054075133
165	0x3d3cca80	0.046091557
166	0x3c13b6e0	0.009015769
167	0xbc774667	-0.015092469
168	0x3d22b748	0.039725572
169	0x3c9f0a0f	0.019413976
170	0x3cd4dd2f	0.025984375
171	0xbc22a197	-0.009926221
172	0x38d95f4c	0.00010365117
173	0x3b662c21	0.0035121518
174	0x3d737003	0.059432995
175	0x3cd00b82	0.025396112
176	0x3cfa824b	0.030579707
177	0xbd0a60d8	-0.033783764
178	0x3d5b9e62	0.053617842
179	0xbb8df5b3	-0.004332268
180	0x3cfaa985	0.030598411
181	0x3ce77ef0	0.02825877
182	0x3944a8bb	0.00018754874
183	0x3c4877c3	0.012235585
184	0x3cc6019b	0.024170687
185	0x3ba6b8a6	0.00508793
186	0xbb804c2a	-0.0039153295
187	0x3b0bfcc3	0.0021360375
188	0x3ba7b387	0.005117837
189	0x3d8e9df4	0.06963721
190	0xbbac5f9c	-0.005260421
191	0x3e18eada	0.14933339
192	0x3cc3ad6f	0.02388641
193	0x3cb8aeda	0.022544313
194	0xbb5cd486	-0.003369601
195	0x3d5eff55	0.054442722
196	0x3b3e83a9	0.0029070175
197	0xbded74fe	-0.1159458
198	0x3d2092e9	0.039202604
199	0xbc8ec1c3	-0.017426377
200	0x3c9faf39	0.019492732
201	0x3d493e0c	0.049131438
202	0x3ccb1101	0.024788382
203	0xbc2ab9fc	-0.010420319
204	0xbc03f6c1	-0.008054436
205	0xbcd2aaaf	-0.025716154
206	0x3c2dcb9e	0.010607628
207	0xbde5ec94	-0.11226764
208	0xbc2d22d0	-0.010567382
209	0x3b1d16c3	0.0023969866
210	0xbbc62af7	-0.0060476023
211	0xbc2405cd	-0.010011149
212	0xbd1691d0	-0.03676015
213	0xbd0ba4a7	-0.03409257
214	0x3cf6945d	0.030100042
215	0x3b0aa443	0.0021155037
216	0x3d927821	0.07151819
217	0xbd1228f9	-0.035683606
218	0x3d20a754	0.039222077
219	0xbaf182e3	-0.0018425848
220	0x3c03a6dd	0.008035389
221	0xbd9ddc55	-0.077080406
222	0xbd4dfa93	-0.050287794
223	0xbd9d4c0e	-0.07680522
224	0xbd57c5cf	-0.05267888
225	0xbdab8cbf	-0.083764546
226	0x3d10fb25	0.03539576
227	0xbdd08b5c	-0.10182831
228	0x3d684d02	0.056714065
229	0xbd2e74b9	-0.042591784
230	0xbe0af17d	-0.13568683
231	0x3df32842	0.11872913
232	0x3d3283a8	0.04358259
233	0x3da1e389	0.07904727
234	0xbc70dfff	-0.014701842
235	0x3c937bb0	0.018003315
236	0xbcdbfcb4	-0.026853897
237	0xbb89bfe5	-0.004203784
238	0xbd074baa	-0.033031143
239	0xbcafba69	-0.021451192
240	0x3d18c8b6	0.037300788
241	0xbcae328f	-0.021264343
242	0x3cc37142	0.023857716
243	0xbd726f0e	-0.05918794
244	0xbcbf03cb	-0.023317238
245	0xbc506ba9	-0.012720981
246	0xbdbad368	-0.09122354
247	0x3c81c91b	0.015842965
248	0xbc81910f	-0.01581624
249	0xbb442cb2	-0.0029933867
250	0xbc542d40	-0.012950242
251	0xbc844edb	-0.016150882
252	0x3d3708bd	0.044686068
253	0x3bd60528	0.0065313764
254	0x3a3c8876	0.0007191965
255	0xbcc607f1	-0.024173709

bias f4 [90]
0	0xbda6c8d4	-0.08143774
1	0xbd8d5672	-0.06901254
2	0xbd0beabd	-0.03415941
3	0x3c61cdfe	0.0137820225
4	0xbd8b5f9e	-0.06805347
5	0xbd408492	-0.04700143
6	0xbdd18ede	-0.10232328
7	0xbd82fa2c	-0.06395373
8	0xbce21763	-0.027599042
9	0xbd963a25	-0.07335309
10	0x3c9e4a9b	0.019322684
11	0xbcdc4303	-0.026887422
12	0x3cdec296	0.027192395
13	0xbd8e5439	-0.06949658
14	0xbd549474	-0.05189939
15	0xbc35d64b	-0.011098455
16	0xbd90e6ae	-0.07075249
17	0x3d5dea78	0.054178685
18	0xbcfe2cdf	-0.031027256
19	0xbda4ed3d	-0.08053062
20	0xbd115796	-0.03548392
21	0x3cd78141	0.02630675
22	0xbd8d79a4	-0.06907967
23	0xbd481e5a	-0.04885707
24	0xbd8c0db8	-0.06838554
25	0xbda1646e	-0.078804836
26	0xbc3746ba	-0.011186296
27	0xbd696f97	-0.056991186
28	0xbd7a6b29	-0.061137352
29	0x3d14add7	0.0362986
30	0x3d82da2f	0.063892715
31	0xbdd49605	-0.103801765
32	0x3c622187	0.013801939
33	0xbda91d98	-0.08257598
34	0xbc304abe	-0.010760007
35	0xbe16a05d	-0.14709611
36	0xbddbbdd4	-0.10729566
37	0x3c15b4ed	0.009137374
38	0xbd565b42	-0.052333124
39	0xbd2dc556	-0.042424522
40	0xbd3e0b46	-0.04639747
41	0x3cdb804a	0.026794571
42	0x3da26fec	0.07931504
43	0x3d990e27	0.074734025
44	0x3d89b844	0.06724599
45	0xbc7460cd	-0.014915657
46	0x3d4eef98	0.050521463
47	0xbd977a4f	-0.073963754
48	0x3ccf5a18	0.025311515
49	0xbd0bb6a7	-0.034109738
50	0xbd9e5846	-0.077316806
51	0xbd4287b8	-0.047492713
52	0x3d84a841	0.064774044
53	0xbd91a0af	-0.07110726
54	0x3cebb3ce	0.028772261
55	0x3c8603b4	0.016359188
56	0xbd0889db	-0.033334594
57	0xbcb2a867	-0.021808816
58	0xbc800cc9	-0.015631096
59	0xbc209a16	-0.009802362
60	0x3d800fdc	0.06253025
61	0xbdd6e1fc	-0.10492322
62	0xbd5a0b47	-0.05323341
63	0xbd5291d1	-0.051408593
64	0x3d97b489	0.07407481
65	0xbd450901	-0.04810429
66	0x3c951386	0.018197786
67	0xbd42e163	-0.047578227
68	0x3b7fa122	0.0039005955
69	0xbd38c7fc	-0.045112595
70	0x3c9f7a62	0.019467536
71	0xbd6e0e18	-0.05811891
72	0xbd6214f5	-0.055195767
73	0xbd67f92a	-0.056634106
74	0x3d53d8a2	0.05172027
75	0xbd28faf7	-0.041254964
76	0xbd90c57a	-0.07068916
77	0xbd4dd7d5	-0.05025466
78	0xbd653e0f	-0.055967387
79	0xbdcf6800	-0.10127258
80	0xbcddacbe	-0.027059909
81	0xbd4ea109	-0.050446544
82	0xbc26dce9	-0.010184505
83	0xbd9097c9	-0.07060201
84	0xbd884945	-0.066546
85	0x3c408907	0.01175142
86	0x3d305931	0.04305381
87	0xbd11ce6d	-0.035597254
88	0xbdc8caed	-0.0980433
89	0xbc8a2b98	-0.01686649

weight f4 [90, 90, 1, 1]
0	0xbcb6bc80	-0.02230668
1	0xbca7f406	-0.020502102
2	0xbcb6fa07	-0.02233602
3	0xbc193004	-0.009349827
4	0xbc03dda5	-0.00804845
5	0x3c0c66d3	0.008569437
6	0xbc380df0	-0.011233792
7	0xbcb909d4	-0.022587694
8	0xbba093c3	-0.004900427
9	0xbc0c840e	-0.008576406
10	0xbc32f7bd	-0.010923323
11	0xbac6abe0	-0.0015157424
12	0x3c234fb3	0.009967732
13	0x3bc27e88	0.005935494
14	0x3c1cbea1	0.009566934
15	0xbbaa3c5a	-0.0051951827
16	0x38d9fa96	0.000103940416
17	0xbcda1bf0	-0.02662465
18	0x3aa5579e	0.0012614613
19	0xbc079e0e	-0.008277429
20	0x3c08ba99	0.00834527
21	0xbc262115	-0.010139723
22	0x3bd0ec9a	0.0063758614
23	0xbba2eed0	-0.0049723163
24	0xbce8cffb	-0.028419485
25	0x3c3a5eec	0.01137517
26	0x3c427dce	0.0118708145
27	0xbccbb0e6	-0.024864625
28	0x3b0e1122	0.0021677692
29	0xbbd479d2	-0.0064842487
30	0x3acc52d9	0.0015588655
31	0xbb19c18f	-0.0023461317
32	0xbbccaa94	-0.0062459204
33	0xbccaf6c7	-0.024775876
34	0x3bf8ea76	0.0075963093
35	0xbbdf4e35	-0.006814743
36	0x3c2632c5	0.01014394
37	0xbc60c33b	-0.013718422
38	0xba6bc46a	-0.00089938066
39	0x3c3c76d7	0.011502943
40	0xbc395f76	-0.011314264
41	0xbcbe0a5d	-0.023198301
42	0x3b0bc1cf	0.0021325236
43	0x3a2d6ccb	0.00066156377
44	0xbcdb7a89	-0.026791828
45	0xbbab401d	-0.0052261488
46	0xbb8bb5c3	-0.004263611
47	0xbc08a637	-0.00834041
48	0x39da3c87	0.00041625297
49	0xbc768003	-0.015045169
50	0xbc11eb5a	-0.00890621
51	0xbcdf9688	-0.027293459
52	0xba908d6c	-0.0011028475
53	0xbb7710d3	-0.0037699237
54	0xb99a1fcf	-0.00029396868
55	0xbc79f047	-0.0152550405
56	0xbb40611a	-0.0029354752
57	0xbcef0ed3	-0.029181873
58	0x3c07674f	0.008264377
59	0xbc89cb42	-0.016820554
60	0x3b963a6e	0.004584602
61	0xbbe0d240	-0.0068610013
62	0xbb83c7f1	-0.0040216376
63	0xbc92e7d8	-0.017932817
64	0xbb5cff2e	-0.0033721435
65	0x3bda38c3	0.0066595986
66	0xbcaf355c	-0.021387748
67	0xbc8a9805	-0.016918192
68	0x3a32cd89	0.0006820788
69	0xbcb10ed9	-0.021613525
70	0xbca0f54d	-0.019648219
71	0xbb4bd0be	-0.0031099762
72	0xbcc122f7	-0.023576243
73	0xbc5eb2ad	-0.013592404
74	0x3a7123af	0.00091987377
75	0x3c1b114a	0.009464571
76	0x3c000863	0.0078145
77	0xbc93cd8d	-0.01804235
78	0xbcd24aa4	-0.025670357
79	0x3b0b7257	0.0021277869
80	0x3c283caf	0.010268374
81	0xbc831c0a	-0.016004581
82	0xbcc4ffcb	-0.024047753
83	0xbc8580ca	-0.016296763
84	0xbba9a4ae	-0.005177102
85	0xbc6ce4ef	-0.014458879
86	0x3b9e2631	0.00482633
87	0xbc1d64fd	-0.009606597
88	0xbcc2bb59	-0.023770975
89	0x3ba8875b	0.0051430888
90	0xbcbc3e73	-0.022978997
91	0xbc2269c8	-0.0099129155
92	0x3bf62b2c	0.0075124707
93	0xbc131df2	-0.0089793075
94	0xbc8c202a	-0.01710518
95	0x3c4ebe99	0.012618684
96	0xbc039488	-0.008031018
97	0xbc0f4a0f	-0.008745684
98	0x3bb94e1a	0.0056550624
99	0xbce5fd4b	-0.028074881
100	0x3a501b9b	0.0007938684
101	0x3c779129	0.0151102925
102	0x3ad64b14	0.0016349279
103	0xbc1aadfb	-0.009440894
104	0x3c9fbf25	0.019500325
105	0xbcca9eea	-0.02473398
106	0xbc3b759f	-0.011441617
107	0xbbc32114	-0.005954871
108	0x3c41118b	0.011783968
109	0xbc8e3054	-0.017357029
110	0x3b351df4	0.0027636262
111	0xbbd3236a	-0.0064434307
112	0x3c403f4d	0.011733842
113	0xbc521d0e	-0.01282431
114	0xbca83310	-0.020532161
115	0xbc8ecd03	-0.017431742
116	0x3911b010	0.00013893866
117	0x3c9d774f	0.01922193
118	0xbca0009b	-0.019531539
119	0xbbe02354	-0.006840149
120	0xbcecad21	-0.028891148
121	0x3b51a449	0.003198879
122	0x3ce2bc5e	0.027677711
123	0xbb444589	-0.0029948673
124	0x3c5dc8e3	0.013536665
125	0xbc079f88	-0.008277781
126	0xbbc1bdf3	-0.0059125363
127	0xbb0f8c73	-0.0021903783
128	0xbd03896c	-0.032113478
129	0x3ca98cbf	0.020696996
130	0x3b43eddd	0.0029896416
131	0xbc702f75	-0.014659752
132	0xbc4a60c4	-0.012352172
133	0x3c816d95	0.015799323
134	0xbbc1255b	-0.0058943457
135	0x3b8c9563	0.004290269
136	0xbadb6bc5	-0.0016740492
137	0x3cb08628	0.021548346
138	0x3b097a2e	0.0020977366
139	0xbb4f96fc	-0.0031675687
140	0xbcc35987	-0.0238464
141	0xbcac6df1	-0.021048518
142	0xbc4c990f	-0.012487664
143	0xbb13b0e0	-0.0022535846
144	0xbcd4ad15	-0.025961438
145	0xbc4ae595	-0.012383838
146	0x3c7b24f3	0.015328634
147	0x3cb2137e	0.02173781
148	0x3c0c181f	0.008550673
149	0x3b9e3a93	0.00482876
150	0xbc95e830	-0.018299192
151	0xba65bb89	-0.00087636017
152	0x3bc3718b	0.005964463
153	0xbcb34e7e	-0.021888014
154	0x3b64c515	0.003490751
155	0x3adcfaa7	0.0016859368
156	0x3af1a9fc	0.00184375
157	0xba837c56	-0.0010031562
158	0xbcd35e5a	-0.025801826
159	0xbc100b4b	-0.008791755
160	0x3c854d8d	0.01627233
161	0x3bb5f305	0.005552652
162	0xbb3b77e8	-0.0028605405
163	0xbc7658a2	-0.01503578
164	0xbaa1dee7	-0.0012349755
165	0x3c26121b	0.010136153
166	0xbcc06f74	-0.023490645
167	0x3c97df38	0.018539056
168	0xbd11321b	-0.035448175
169	0xbae4ae04	-0.001744688
170	0xbb1dbf74	-0.0024070414
171	0x3c4f10ec	0.012638312
172	0x3bfd86eb	0.0077370307
173	0xbc27d8f3	-0.010244596
174	0xb8fe5dba	-0.00012129122
175	0x3c63a9a9	0.013895431
176	0xbc8c55b1	-0.017130705
177	0x3baaba6e	0.0052102124
178	0xbc5eaa0b	-0.013590346
179	0x3bc63794	0.006049106
180	0xbc0dae66	-0.008647537
181	0x3ca3e803	0.020008093
182	0xbd1a3fc4	-0.037658468
183	0x3c8a7935	0.0169035
184	0x3cc7f794	0.024410047
185	0x3c4fc01f	0.012680083
186	0x3ca594a3	0.020212477
187	0xbc70e488	-0.014702924
188	0xbc406fbb	-0.011745389
189	0xbd18bc66	-0.037289046
190	0x3d5f9884	0.05458881
191	0xbca9558e	-0.020670678
192	0x3d73ae0f	0.059492167
193	0x3d3dd2d9	0.046343658
194	0xbcf11999	-0.029431151
195	0xbc8380bf	-0.016052602
196	0xbd230022	-0.03979505
197	0xbd7b861a	-0.061407186
198	0xbcb869d6	-0.022511404
199	0xbcf84826	-0.03030784
200	0x3bc23100	0.0059262514
201	0x3c3301f7	0.010925761
202	0x3bc75988	0.006083671
203	0xbcb0392a	-0.021511633
204	0xbcfb336c	-0.030664168
205	0x3c750414	0.014954586
206	0x3c02f07c	0.007991906
207	0x3d7353df	0.059406158
208	0xbcb03e01	-0.02151394
209	0xbbe67c27	-0.007033843
210	0xbd4da5b8	-0.05020687
211	0x3d14ca63	0.036325824
212	0x3d289905	0.041161556
213	0x3cfff8ff	0.03124666
214	0xbd3a94b6	-0.045551978
215	0x3c9c2139	0.01905881
216	0x3c85dddd	0.016341144
217	0xbc02f0bf	-0.007991969
218	0x3d1c59e2	0.038171656
219	0x3c68968b	0.0141960485
220	0x3d396b9f	0.04526865
221	0x3d2a10cd	0.04151993
222	0x3ce11e40	0.027480245
223	0x3d2c9b42	0.042140253
224	0x3cad6d0a	0.021170158
225	0xbcbf35e0	-0.02334112
226	0xbc76d3e4	-0.015065167
227	0xbc952b65	-0.018209169
228	0x3d91e68f	0.07124054
229	0x3ce01368	0.027353004
230	0xbd8a286d	-0.06745992
231	0x39e55592	0.00043742039
232	0x3d346ffb	0.044052105
233	0x3d7b70dd	0.06138693
234	0x3c8de740	0.017322183
235	0xbc0a4975	-0.008440365
236	0x3c804a5a	0.015660454
237	0xbcf9f6b8	-0.030513152
238	0x3c903ef3	0.017608142
239	0x3d26d8c8	0.040734082
240	0x3d9ce613	0.07661071
241	0xbb0b77e2	-0.0021281173
242	0xbd2a3a76	-0.04155966
243	0xbe093325	-0.13398416
244	0x3d5d3057	0.05400118
245	0x3cb4e89a	0.02208357
246	0x3cc7ffa2	0.024413887
247	0x3c3afc67	0.0114127165
248	0x3d6ad4db	0.0573319
249	0xbd18c6f1	-0.0372991
250	0x3d749bd4	0.05971892
251	0x3d08ac13	0.033367228
252	0x3ac3a328	0.0014925944
253	0x3ca0b7fc	0.01961898
254	0xbd2c81e7	-0.042116072
255	0xbd00ff26	-0.03149333

bias f4 [90]
0	0xbca1d867	-0.019756509
1	0xbcc63e79	-0.024199711
2	0x3b8ddc55	0.004329244
3	0x3d564e1f	0.052320596
4	0x3c195453	0.009358483
5	0xbcd49c5f	-0.02595347
6	0xbc9ed811	-0.019390138
7	0xbc618bc4	-0.013766233
8	0x3b60e5be	0.0034316625
9	0xbc1690f1	-0.00918983
10	0xbc55736e	-0.013028009
11	0xbc146cda	-0.009059155
12	0xbce5f480	-0.028070688
13	0xbba02fe5	-0.004888522
14	0xbc80b6e7	-0.015712215
15	0xbbc03885	-0.0058661127
16	0xbad09d9c	-0.0015916112
17	0xbc314e71	-0.010821925
18	0xbcb38a86	-0.021916639
19	0xbc90a094	-0.017654695
20	0xbc0d8593	-0.008637804
21	0xbc60b0d2	-0.013714032
22	0xb9821851	-0.0002481365
23	0xbcb03a7e	-0.021512266
24	0xba2ce2e4	-0.00065950886
25	0xbd4c0bca	-0.04981593
26	0xba459a1d	-0.0007537918
27	0xbc81ce8a	-0.015845556
28	0xbceb1958	-0.028698608
29	0x3c8c4d58	0.017126724
30	0x3c49e1b2	0.012321876
31	0xbc5ed285	-0.013599996
32	0x3d070037	0.03295919
33	0x3c8a7a76	0.016904097
34	0xbb93c31e	-0.0045093438
35	0x3d5f35d8	0.05449471
36	0xbb90296d	-0.0043994696
37	0xbc5ba719	-0.013406538
38	0x3cd3e114	0.025864162
39	0x3beb450d	0.0071798624
40	0xbc8ad378	-0.01694654
41	0xbc99a07d	-0.018753285
42	0xbcc2716b	-0.023735723
43	0x3d3799b0	0.044824302
44	0xbccfea80	-0.025380373
45	0x3bc07e0d	0.0058744014
46	0xba4a5a4c	-0.0007719144
47	0xbad0a98e	-0.0015919672
48	0xbca1caee	-0.019750085
49	0x3d246b5c	0.04014145
50	0x3a97e2f1	0.001158802
51	0xbc16d739	-0.0092065865
52	0x3bbaa628	0.005696077
53	0xbc24ab18	-0.010050558
54	0xbb6aaaf2	-0.0035807458
55	0xbd096398	-0.033542246
56	0xbc97fa44	-0.018551953
57	0xbbb03fb7	-0.005378689
58	0xbc86af6a	-0.016441066
59	0x3d990b7a	0.07472892
60	0x3cd707e4	0.02624888
61	0x3d1dcb14	0.03852375
62	0xbcd6909e	-0.026192006
63	0xbc020ab4	-0.007937122
64	0xbc6c598e	-0.014425648
65	0xbcc7f99f	-0.02441102
66	0xbbbee9bc	-0.005826203
67	0x3d3fe980	0.046853542
68	0xbbc43ffe	-0.005989074
69	0xbb6c6ea0	-0.003607668
70	0x3d1bddc6	0.038053297
71	0x3b7250d1	0.003697444
72	0x3cc2699e	0.023732003
73	0xbc8ec5d7	-0.017428322
74	0x3b43e387	0.0029890256
75	0xbcc04a89	-0.023473041
76	0xbcb154b8	-0.021646842
77	0xbc537e76	-0.012908569
78	0xbca45e06	-0.020064365
79	0xbb01d26a	-0.0019809254
80	0x3cc13d1a	0.023588706
81	0xbd1bf704	-0.03807737
82	0xbcf6e068	-0.030136302
83	0x3bb827d5	0.0056199827
84	0xba40fc17	-0.0007361783
85	0x3be50f46	0.006990346
86	0xbcbc6fd5	-0.023002544
87	0xbc6fde0f	-0.014640345
88	0xbcd225e1	-0.025652828
89	0xbca2b2ed	-0.01986071

weight f4 [9, 90, 1, 1]
0	0xbc6d1bd8	-0.0144719705
1	0x3b58ead5	0.0033098955
2	0xbc66e8f2	-0.014093624
3	0x3dcd25ee	0.10017
4	0x3a5b0b15	0.00083558384
5	0x3c9b6f32	0.01897392
6	0x3c029519	0.007970118
7	0xbc73c904	-0.014879469
8	0xba955960	-0.0011394434
9	0xbcc57c59	-0.024107145
10	0x3c51f031	0.012813614
11	0xbc0dd039	-0.008655601
12	0x3d575d18	0.052579015
13	0xbd8eee72	-0.069790736
14	0xbc2809b8	-0.010256223
15	0xbc1ad143	-0.009449306
16	0xbd9b83d8	-0.075935066
17	0xbcde2191	-0.027115615
18	0xbc7c8d54	-0.015414555
19	0xb986a18c	-0.00025678833
20	0xbc8017d1	-0.015636357
21	0xbb7710d6	-0.0037699244
22	0x3bffb629	0.0078036976
23	0x3bf511d8	0.007478934
24	0x3ca1f954	0.01977221
25	0xbcf9b4f1	-0.030481787
26	0xbb50aa15	-0.0031839658
27	0xbcd8a8d8	-0.026447698
28	0x3b85a66d	0.0040786774
29	0x3d758b74	0.059947446
30	0x3cbda0a8	0.023147896
31	0x39da6d25	0.0004166152
32	0x3affe531	0.001952326
33	0xbd00f354	-0.031482056
34	0xbc883476	-0.016626578
35	0xbc8406be	-0.016116496
36	0x3c046354	0.008080322
37	0xbc985124	-0.018593378
38	0xb950070a	-0.00019839048
39	0x3d40b6fb	0.047049504
40	0x3bac6929	0.0052615595
41	0xbb37234e	-0.0027944627
42	0x3bb07606	0.0053851632
43	0xbbdb0a5a	-0.0066845836
44	0x3b866735	0.0041016587
45	0xbce7f2bf	-0.028313993
46	0x3c88971b	0.016673615
47	0x3cda5fe1	0.026657047
48	0x3bebd8e8	0.007197488
49	0xbd32d1ad	-0.043656994
50	0x3cf1fc86	0.029539358
51	0x3b193622	0.0023378213
52	0xbc984889	-0.018589275
53	0x3bf37a65	0.007430362
54	0xbcd11cfd	-0.025526518
55	0x3b873f4b	0.004127418
56	0xbb214a30	-0.002461087
57	0xbd237230	-0.03990382
58	0xbcb29014	-0.021797217
59	0x3df52a8e	0.11971007
60	0xbcda037f	-0.026612995
61	0x3c49ccfd	0.012316939
62	0x3c010be0	0.007876366
63	0xbcbe4c28	-0.023229674
64	0xbb865413	-0.004099378
65	0x39d0aa9b	0.00039799963
66	0xbaf5b083	-0.0018744621
67	0xbc554144	-0.013016049
68	0xbcc4ab05	-0.02400733
69	0x3c1e3200	0.009655476
70	0xbe0252c9	-0.12726893
71	0xba789b7a	-0.0009483617
72	0xbd977010	-0.07394421
73	0xbc0baf8b	-0.008525739
74	0xbc9b64cd	-0.018968964
75	0x3c5613f9	0.013066285
76	0x3af89656	0.0018965702
77	0x3b719279	0.0036860986
78	0xbd2c1225	-0.04200949
79	0xbcb01a50	-0.021496922
80	0x3d50bcb6	0.05096122
81	0xbd3a3aa1	-0.04546607
82	0xbbd96fd6	-0.0066356463
83	0x3bc6926c	0.0060599353
84	0x3c1cd910	0.009573236
85	0x3ca284f5	0.01983879
86	0x3dcb823a	0.09936948
87	0x3c4907de	0.012269942
88	0x3bdfc971	0.0068294336
89	0x3b1ef83a	0.0024256841
90	0x3b265670	0.002538111
91	0xba8ed03a	-0.0010895797
92	0xbcea928c	-0.028634332
93	0x3d81b558	0.06333417
94	0x3b24d4bf	0.002515122
95	0x3c59028b	0.013245235
96	0x3cc3e8b6	0.023914676
97	0x3c158245	0.009125297
98	0xbc4d3271	-0.012524233
99	0x3bc37713	0.0059651225
100	0xbab98f91	-0.0014157166
101	0xbccdffae	-0.025146332
102	0xbd896b2c	-0.067098945
103	0xbbae1f72	-0.005313807
104	0xbc797c0d	-0.01522733
105	0xbcab4068	-0.020904735
106	0x3d3b725a	0.04576335
107	0xbc1a3223	-0.009411368
108	0x3bf036e2	0.0073307613
109	0x3c41233c	0.011788186
110	0x3bc30c5f	0.0059524025
111	0xbbe962b7	-0.0071223634
112	0xbd15f3cd	-0.03660946
113	0xbc5c5549	-0.013448068
114	0x3b4db99f	0.0031391156
115	0x3baa3c79	0.005195197
116	0xbb9ea76c	-0.0048417356
117	0x3d7b8ef1	0.061415616
118	0x3b3dd3aa	0.0028965273
119	0x3de51461	0.111855276
120	0xbce65c80	-0.02812028
121	0xbc5c38c9	-0.013441273
122	0x3d6740c0	0.056458235
123	0xb9b343bd	-0.0003419201
124	0xbcb54232	-0.022126291
125	0xbcfa7ee0	-0.030578077
126	0x3aea9e8d	0.0017900035
127	0xba7160b8	-0.00092078326
128	0xbd429700	-0.047507286
129	0x3d6a6cbc	0.057232603
130	0xbc9e636d	-0.01933452
131	0x3d29d638	0.04146406
132	0xbc067ffe	-0.008209227
133	0xbced085a	-0.028934646
134	0xbc62eeae	-0.013850851
135	0x3d38ddcb	0.045133393
136	0x3d388d32	0.04505653
137	0xbdb97ee4	-0.090574056
138	0x39b4c98d	0.00034482442
139	0x3d6cf20b	0.057848018
140	0x3c9c6fdb	0.019096306
141	0x3c5f4af3	0.013628709
142	0x3d5b26b2	0.0535037
143	0x3c6e0d4b	0.0145295365
144	0xbca76e09	-0.020438211
145	0xbccef062	-0.025261108
146	0xbc9a4a50	-0.018834263
147	0xbb7d2d9a	-0.0038631917
148	0x3c19d891	0.009390012
149	0xbe47442e	-0.19459602
150	0x3d7c9fe1	0.06167591
151	0x3d215b01	0.03939343
152	0xbcabd361	-0.020974817
153	0xbc2da6a2	-0.01059881
154	0xbb3c1c30	-0.0028703324
155	0xba0fa7fb	-0.0005480048
156	0xbba7df23	-0.0051230355
157	0xbd8b5e7d	-0.068051316
158	0x3d2a8ade	0.04163634
159	0x3b411f44	0.0029468099
160	0x3d24ef42	0.040267237
161	0x3c5a828b	0.013336788
162	0xbd82a9f3	-0.063800715
163	0x3c83d265	0.016091535
164	0x3c0e7915	0.00869586
165	0xbc5be59e	-0.013421444
166	0xbc0fad22	-0.008769305
167	0xbcb74c0a	-0.022375125
168	0xbbd4d971	-0.0064956476
169	0x3cbd681b	0.02312093
170	0xbd98974a	-0.07450731
171	0xbdfa22c2	-0.12213661
172	0xbc96b4ab	-0.018396696
173	0xbc2da6d3	-0.010598856
174	0x3c03c66f	0.008042916
175	0xbc72bdee	-0.014815791
176	0x3d4b8a90	0.04969269
177	0xbba56f5b	-0.005048675
178	0xbce77d67	-0.028258039
179	0xbbb5bfb2	-0.0055465335
180	0xbccd558a	-0.025065202
181	0xbc54064f	-0.012940957
182	0xbc57bb8f	-0.013167276
183	0x3dd33c6e	0.103142604
184	0xbc850760	-0.016238868
185	0xbc38e5dd	-0.011285272
186	0x3c12493c	0.008928593
187	0xbbf270b1	-0.007398688
188	0xbc315173	-0.010822642
189	0xbd851aea	-0.06499274
190	0x3b28b350	0.0025741644
191	0xbd6e2260	-0.05813825
192	0x3d08e39d	0.033420194
193	0x3cdbd6d5	0.026835838
194	0xbc6aa5ec	-0.014321785
195	0xbc5ed6cd	-0.013601017
196	0xbd36096f	-0.04444259
197	0x3b92a9e4	0.004475819
198	0x3ba4057b	0.005005536
199	0xba8222d8	-0.0009928597
200	0xbcca47ef	-0.024692504
201	0x3a3ef1ea	0.0007283973
202	0x3d8fdc0f	0.07024395
203	0x3c27cf2d	0.010242266
204	0xbde50657	-0.1118285
205	0x3c74de08	0.0149455145
206	0x3bf896d6	0.0075863404
207	0xbccce97e	-0.025013682
208	0x3c616147	0.013756103
209	0xbba37c54	-0.0049891863
210	0x3da01f39	0.07818455
211	0xbd86e956	-0.06587474
212	0x3dcd3788	0.10020357
213	0x3c9a6d7f	0.01885104
214	0x38d9c9f6	0.000103849845
215	0x3e086e12	0.13323238
216	0xbc63a4de	-0.013894288
217	0xbca07d9b	-0.019591143
218	0xbbb8abb2	-0.005635702
219	0xbb092077	-0.0020923892
220	0xbc02f58f	-0.007993116
221	0x3c788cd4	0.015170295
222	0x3b8f22c6	0.004368159
223	0x3cf41d39	0.02979909
224	0xbc26a201	-0.010170461
225	0xbd233891	-0.039848868
226	0xbdaaf2bf	-0.083470814
227	0xbcf87470	-0.03032896
228	0x3bcf8e03	0.006334068
229	0x3d903c15	0.0704271
230	0x3d83632d	0.06415401
231	0xbbd5e7f7	-0.0065278965
232	0xbd455a70	-0.04818195
233	0x3c2a49c2	0.010393562
234	0x3b111a58	0.0022140946
235	0x3a107164	0.00055100606
236	0xb9997d89	-0.00029275965
237	0xbd0444d3	-0.0322922
238	0xbc0555f0	-0.008138165
239	0x3df87f29	0.12133629
240	0xbd56e507	-0.05246451
241	0x3b894d3b	0.004190115
242	0xbcad4f8b	-0.021156093
243	0xbbf01e00	-0.007327795
244	0xb9d8236b	-0.0004122512
245	0xbc0ed457	-0.008717618
246	0x3bbf7929	0.005843301
247	0x3dd68499	0.1047451
248	0xbd35b1b5	-0.044358928
249	0x3be7c7af	0.0070733647
250	0x3d9c80c4	0.076417476
251	0xbcbe3d48	-0.02322258
252	0xbdb78252	-0.089604035
253	0x3c216b0a	0.00985218
254	0xbc7c175a	-0.015386427
255	0xbc9d8c34	-0.019231893

bias f4 [9]
0	0x3c197959	0.00936731
1	0x3c123e6f	0.008926018
2	0x3c5d0aad	0.013491315
3	0x3c0c06b8	0.008546524
4	0xbb850338	-0.0040592216
5	0x3bf409e3	0.0074474677
6	0x3c626627	0.0138183
7	0xbc1fc02f	-0.00975041
8	0xbc1a6230	-0.009422824
