NCA Parameters/CLIP Guidance/A painting drawn with crayon.pt (torch, 65431 bytes, 6 tensors)

weight f4 [90, 72, 1, 1]
-0.11777843 -0.0015120076 0.08796917 0.0016340462 0.001565813 -0.001322565 0.018014085 -0.023349732
0.020457447 0.13739446 -0.015244157 -0.1343925 0.05465913 0.014836184 0.051699873 -0.07604872
-0.018997343 -0.024070904 -0.0024091965 0.04848428 0.072885044 0.013751655 -0.014535299 -0.020290986
-0.018239811 -0.012428633 -0.054723866 0.04579582 -0.0062848246 -0.018917691 0.020594103 -0.012896095
0.0056970026 0.020840468 0.017522195 0.0003484486 -0.008696405 0.0018661185 0.0020852701 0.020633971
-0.023659421 0.0018827022 -0.0035738628 -0.024698535 0.0017279857 0.0142537365 -0.010440178 -0.19282712
-0.034467384 -0.011699664 -0.010732558 0.018159308 -0.036108218 0.2174058 -0.03728066 0.012559104
-0.053807408 -0.019855376 -0.071212016 -0.0014566906 -0.015283761 -0.106672764 0.016599236 -0.02402362
0.015608898 0.025054295 0.030971268 0.055281494 0.00047242598 0.026994737 0.043185096 0.0153736
0.090931945 0.041742418 -0.017023945 0.002855102 0.007030796 0.022723082 -0.029914644 0.014783125
0.0059161447 -0.114558 -0.12376033 -0.05995132 0.08020222 0.01607941 0.08520555 -0.100653484
-0.06766073 -0.0008517173 0.004955476 0.03455199 -0.053551413 -0.021129815 0.022749389 -0.07493154
0.009219909 -0.018772569 -0.01856505 -0.058886368 0.007882464 -0.003004597 -0.012300803 -0.04803541
0.024934266 -0.010727901 0.013331734 0.014395489 -0.0009329329 0.011030702 0.014004805 0.004522408
0.023867514 0.0029079807 -0.026836885 -0.0046530436 0.012039696 0.033559736 -0.039233446 0.06910184
-0.0029095022 0.023800073 0.021068024 0.059711 0.004999431 0.041862182 0.08413223 0.029101074
-0.054717872 -0.0059743063 0.010990772 -0.06509169 -0.027025547 -0.043121047 -0.05410295 -0.051672786
0.009970607 0.011108363 0.04510585 0.10937522 0.03353291 -0.026158944 -0.0070512514 -0.0170871
-0.020125289 -0.10150488 -0.059383485 -0.0076001226 -0.0058633643 0.01113399 0.059870694 0.05743526
-0.01711433 0.009403538 0.055870116 -0.021050734 -0.0007400864 -0.015097465 -0.04661768 -0.056763154
0.04277144 0.057086207 -0.006215336 -0.006721038 0.057476055 -0.0008636137 -0.0075804396 0.075944684
0.008806924 -0.0076776617 0.045263514 0.0005999339 0.0976646 -0.03852688 0.032005806 0.11663278
-0.021616926 0.01869732 0.0038671333 0.0055478476 -0.0859283 0.0014456298 -0.03551094 0.050475083
-0.013764369 -0.03669244 -0.0798544 -0.15627213 0.01071266 -0.0037531944 0.024233617 0.073192745
-0.01814498 -0.044997893 -0.012586251 -0.030027015 -0.033166673 0.040759724 0.022284726 -0.011828259
-0.028587276 0.005482337 -0.02558126 -0.0064595942 -0.045641642 -0.018490886 -0.05321245 -0.045644708
-0.06886991 0.016734732 -0.09770818 -0.03607439 -0.012538876 0.034815162 -0.019640666 -0.026019027
0.0037143833 0.07834745 0.014186264 0.03890317 0.038121495 0.040255893 -0.0019653854 -0.021858744
-0.039482307 -0.0022095088 -0.1825909 -0.05348458 0.030332047 0.046538576 -0.0018771482 0.007611183
-0.025610043 0.05161874 -0.033386365 0.06697378 -0.03314774 -0.01370174 0.005621995 -0.06479829
0.020105675 -0.035009835 -0.021861402 -0.043536358 0.03865336 0.027833812 0.04571285 0.036132995
-0.00457661 -0.047083925 -0.043130916 -0.019409792 -0.020234449 -0.020931818 -0.0060825897 -0.044988606
00000000: d135 f1bd 8e2e c6ba 2e29 b43d 7e2d d63a
00000010: f73b cd3a eb59 adba 4692 933c f047 bfbc
00000020: 6096 a73c 22b1 0c3e a1c2 79bc 309e 09be
00000030: 40e2 5f3d 7713 733c 3fc3 533d 6ebf 9bbd
00000040: 51a0 9bbc 5830 c5bc 9ce3 1dbb 7497 463d
00000050: c144 953d 9f4e 613c 7625 6ebc 4839 a6bc
00000060: a86b 95bc 77a1 4bbc 2226 60bd 6694 3b3d
00000070: eef0 cdbb 46f9 9abc f7b4 a83c 254a 53bc
00000080: ecad ba3b a1b9 aa3c b58a 8f3c fbaf b639
00000090: 5e7b 0ebc 8c98 f43a 07a9 083b 9308 a93c
000000a0: 67d1 c1bc 01c5 f63a 7837 6abb 9554 cabc
000000b0: 947d e23a 8188 693c 480d 2bbc 7974 45be
000000c0: ac2d 0dbd f3af 3fbc 9cd7 2fbc d4c2 943c
000000d0: 36e6 13bd a09f 5e3e 9bb3 18bd b3c4 4d3c
000000e0: 2865 5cbd bea7 a2bc 9bd7 91bd 6dee beba
000000f0: bd68 7abc 4077 dabd 1ffb 873c 2fcd c4bc
00000100: 77bc 7f3c aa3e cd3c 75b7 fd3c d96e 623d
00000110: f1af f739 1124 dd3c dbe2 303d 8de1 7b3c
00000120: 873a ba3d 19fa 2a3d cd75 8bbc aa1c 3b3b
00000130: 9762 e63b c225 ba3c 8e0f f5bc ec34 723c
00000140: 38dc c13b 629d eabd 0e76 fdbd 848f 75bd
00000150: 1041 a43d f8b8 833c 3f80 ae3d 6a23 cebd
00000160: b591 8abd c845 5fba 8c61 a23b 6386 0d3d
00000170: ba58 5bbd 6f18 adbc ed5c ba3c b575 99bd
00000180: 1a0f 173c eec8 99bc bb15 98bc d532 71bd
00000190: 7325 013c c6e8 44bb 4f89 49bc c7c0 44bd
000001a0: f242 cc3c 14c4 2fbc 586d 5a3c 0fdb 6b3c
000001b0: 1190 74ba 1eba 343c 6974 653c b530 943b
000001c0: ce85 c33c d293 3e3b 07d9 dbbc 8f78 98bb
000001d0: 2542 453c ef75 093d 40b3 20bd 4485 8d3d
000001e0: 59ad 3ebb 5ff8 c23c d996 ac3c 8693 743d
000001f0: 44d2 a33b ae77 2b3d 854d ac3d 6065 ee3c
00000200: d91f 60bd 1dc4 c3bb a412 343c cb4e 85bd
00000210: ae64 ddbc b29f 30bd 0e9b 5dbd d8a6 53bd
00000220: c25b 233c daff 353c e9c0 383d 1e00 e03d
00000230: ce59 093d 484b d6bc 2f0e e7bb 3ffa 8bbc
00000240: cadd a4bc cae1 cfbd 193c 73bd 730a f9bb
00000250: 7721 c0bb 576b 363c f93a 753d 3c41 6b3d
00000260: 5a33 8cbc 4c11 1a3c 10d8 643d 9772 acbc
00000270: 5c02 42ba 5c5b 77bc 2ef2 3ebd 7b80 68bd
00000280: 1b31 2f3d 3ad3 693d 04aa cbbb 273c dcbb
00000290: 036c 6b3d 2264 62ba 5665 f8bb e388 9b3d
000002a0: eb4a 103c e594 fbbb 3c66 393d e244 1d3a
000002b0: 6104 c83d 5dce 1dbd 8518 033d 2bdd ee3d
000002c0: fb15 b1bc 1f2b 993c bb6f 7d3b b8ca b53b
000002d0: 2dfb afbd 497b bd3a eb73 11bd f6be 4e3d
000002e0: f383 61bc d04a 16bd b48a a3bd cd05 20be
000002f0: 2784 2f3c 27f8 75bb 9485 c63c 14e6 953d
00000300: c8a4 94bc b64f 38bd 9036 4ebc 37fb f5bc
00000310: c7d9 07bd abf3 263d 758e b63c 50cb 41bc
00000320: dd2f eabc 2da5 b33b ca8f d1bc 01ab d3bb
00000330: bbf2 3abd 337a 97bc 4cf5 59bd f2f5 3abd
00000340: ab0b 8dbd 4717 893c 3a1b c8bd bdc2 13bd
00000350: dc6f 4dbc 589a 0e3d 76e5 a0bc db25 d5bc
00000360: 036d 733b a174 a03d 816d 683c ee58 1f3d
00000370: 4925 1c3d 5de3 243d b2cd 00bb 1c11 b3bc
00000380: 33b8 21bd 68cd 10bb 1cf9 3abe a612 5bbd
00000390: ea7a f83c 3c9f 3e3d a40a f6ba 3b67 f93b
000003a0: 27cc d1bc 2c6e 533d 24c0 08bd 8d29 893d
000003b0: edc5 07bd 437d 60bc b638 b83b f7b4 84bd
000003c0: a8b4 a43c 7966 0fbd af16 b3bc 2e53 32bd
000003d0: fc52 1e3d bc03 e43c 663d 3b3d 3100 143d
000003e0: 63f7 95bb 13db 40bd 0baa 30bd 4901 9fbc
000003f0: b7c2 a5bc 3479 abbc 7650 c7bb f945 38bd

bias f4 [90]
0.070840895 -0.055583946 -0.13122615 -0.019128285 0.09075313 -0.04979161 -0.0009069103 -0.0012371044
-0.017056346 -0.082168534 -0.002468473 -0.043155573 0.06391885 -0.09326088 -0.011720101 0.037902363
-0.0568567 -0.02260302 0.06939944 0.06996952 0.07334604 -0.0050317612 0.044899844 0.008799248
-0.003576645 -0.077291206 0.060407385 -0.10437482 -0.071038954 0.025421634 0.008541316 0.013696717
-0.033388566 -0.08126074 -0.07131264 -0.013264015 0.039252687 -0.01011649 -0.03902856 -0.060089715
-0.074207775 -0.008050854 -0.01320418 -0.056049466 -0.028311204 -0.072614715 -0.025744641 -0.16690238
-0.037290096 -0.094051085 -0.044426538 -0.0207583 -0.05161901 -0.029723043 -0.038409762 -0.0071998565
0.026813174 -0.025773495 0.018549046 0.06338913 0.070146464 0.029926714 0.023922378 -0.04741459
0.009859121 -0.0037850284 -0.09413565 -0.013814785 -0.027208168 -0.011055466 0.043278903 -0.036131147
-0.04770327 -0.031976137 0.02000304 -0.008803278 0.042607393 0.02350517 -0.004171371 -0.06649139
-0.021246318 -0.0118982885 0.023000568 -0.05725191 -0.043520264 -0.035726808 0.021677848 0.0066364836
-0.04865501 0.019837992
00000000: 0815 913d feab 63bd 2660 06be ecb2 9cbc
00000010: c7dc b93d 4af2 4bbd b8bd 6dba 5626 a2ba
00000020: c0b9 8bbc fa47 a8bd 1bc6 21bb e6c3 30bd
00000030: e3e7 823d 8fff bebd ab05 40bc 823f 1b3d
00000040: 92e2 68bd f829 b9bc 4b21 8e3d 2e4c 8f3d
00000050: 7336 963d 79e1 a4bb e6e8 373d b92a 103c
00000060: 2566 6abb da4a 9ebd bc6d 773d 77c2 d5bd
00000070: df7c 91bd 0841 d03c e0f0 0b3c 3268 603c
00000080: 73c2 08bd 086c a6bd 5d0c 92bd 5051 59bc
00000090: 6dc7 203d a2bf 25bc 69dc 1fbd a220 76bd
000000a0: 3ffa 97bd bbe7 03bc 5856 58bc 2094 65bd
000000b0: e6ec e7bc 06b7 94bd 6de6 d2bc 75e8 2abe
000000c0: 80bd 18bd db9d c0bd 9af8 35bd 4f0d aabc
000000d0: 746e 53bd bd7d f3bc 8e53 1dbd c6ec ebbb
000000e0: 4da7 db3c f022 d3bc 2bf4 973c 29d2 813d
000000f0: f3a8 8f3d de28 f53c ddf8 c33c cd35 42bd
00000100: 2788 213c 3d0e 78bb 31ca c0bd 6857 62bc
00000110: aae3 debc fc21 35bc 3845 313d 41fe 13bd
00000120: 8164 43bd 69f9 02bd 6add a33c a03b 10bc
00000130: 1785 2e3d ea8d c03c ffaf 88bb a32c 88bd
00000140: c20c aebc 0af1 42bc b06b bc3c fb80 6abd
00000150: 4e42 32bd 4656 12bd be95 b13c dc76 d93b
00000160: 7a4a 47bd 4983 a23c

weight f4 [90, 90, 1, 1]
-0.0038319696 0.0062003043 -0.0046954565 -0.018914144 0.0017236718 -0.0070968145 -0.017930131 0.019114241
0.007545763 -0.004126035 0.0023740726 -0.012655149 0.0004879628 0.009449526 -0.0057094055 -0.00014557251
-0.01690095 -0.011160568 -0.0043672924 0.009652094 0.007724435 -0.014504807 -0.0075635416 0.007195639
-0.02489663 0.0006706583 -0.019784039 0.000524053 0.010220318 -0.010699219 -0.025758632 0.01733266
0.0029164567 -0.024445137 -0.007036877 -0.014877227 0.012607592 -0.019760676 -0.013776214 0.0018528538
-0.025774159 0.009911617 -0.015632268 0.0030497154 0.0073725423 -0.0030267024 -0.0049862545 -0.012984956
-0.015119116 -0.009476841 -0.02443124 -0.009268085 -0.024093594 -0.024264965 0.0049302657 -0.010295133
0.0031169131 0.013463729 -0.0034916888 -0.0036334915 -0.02224145 0.003902104 -0.023144215 -0.023557886
-0.02825424 -0.015116626 -0.0017160274 -0.016792765 -0.0008830897 -0.015336901 -0.025029926 -0.016941845
-0.029085862 -0.017068315 0.004595742 -0.025289202 -0.00057848793 -0.026018746 0.0133156665 0.007825897
0.0011576912 -0.008783258 -0.009417961 -0.01698196 -0.011254213 -0.016462853 -0.0008320425 -0.012376527
0.015485666 -0.02382803 -0.026970366 0.005530114 -0.05174959 -0.02579425 0.056930926 0.04858014
0.043149844 0.004657928 0.002455558 -0.00030963361 -0.0074212668 -0.06929972 0.01640078 -0.022077255
-0.01047044 0.028196683 -0.039866544 -0.028100532 -0.029270101 -0.0039265924 0.02727581 0.037375137
-0.015424099 -0.036277037 -0.0040087337 -0.014735121 -0.027316319 -0.053009808 -0.040802404 -0.014365966
-0.0137177035 -0.009734068 0.02746328 -0.008996233 0.0116089955 0.009078256 0.045757666 -0.018438132
-0.032035187 -0.020036535 0.014697103 -0.034663383 0.03978645 0.03405584 0.0048681456 0.018242674
0.030178292 -0.020313857 -0.034704946 -0.049179904 -0.01863437 0.026948053 -0.014246188 -0.00268064
-0.011633433 0.033183128 -0.027352963 -0.010079557 0.009407015 -0.011347787 0.017781693 -0.008298441
-0.043013558 -0.029612945 0.03118295 0.002321794 -0.042855456 0.06864143 0.0012663017 -0.015668923
-0.062759124 0.0039888676 0.0027197283 0.019906944 0.0033906072 -2.7814393e-05 0.019173207 -0.018809473
-0.010682239 -0.037992235 0.043828785 -0.01569188 0.009950957 -0.06087751 0.00218927 0.00011826867
0.007704405 -0.020273807 -0.031258896 -0.041500095 0.012349237 -0.024775688 -0.010716396 0.00072250766
-0.010154201 0.007932015 -0.014953195 -0.009332779 -0.015345589 -0.022835623 0.009047798 0.010328699
-0.006441283 0.008641464 -0.0031857663 -0.017176423 0.0013943155 0.009121111 -0.021956012 -0.019526623
-0.010045535 0.0076511083 0.008990454 -0.018827733 -0.007291711 -0.02189184 0.0009822244 -0.026335048
0.008541654 0.0026521976 -0.02250095 0.0038317612 0.005031626 -0.026244177 0.0021159898 0.008261327
-0.023429787 0.0067532323 0.0034199613 -0.017805962 -0.018388897 -0.015739484 0.0018429055 0.014532879
-0.021235868 -0.014936552 -0.0035988877 -0.00664038 -0.008069335 0.00077327125 -0.0036896807 -0.011270607
0.0110757975 0.01176019 0.004725437 -0.016325213 -0.005625914 0.0040242295 -0.011110482 -0.008023797
-0.026466088 -0.01716942 0.00857941 0.0043283585 0.013932396 -0.010212269 0.0012117901 -0.025999416
0.003968973 -0.025982842 -0.012353657 -0.019498216 0.001796929 -0.012326376 -0.0050159623 0.0036400484
00000000: c821 7bbb ec2b cb3b 58dc 99bb d6f1 9abc
00000010: d4ec e13a 658c e8bb 36e2 92bc 7895 9c3c
00000020: 7342 f73b b133 87bb 5496 1b3b 8b57 4fbc
00000030: 42d5 ff39 2fd2 1a3c f715 bbbb d3a4 18b9
00000040: dc73 8abc d1da 36bc 811b 8fbb d123 1e3c
00000050: 421d fd3b 92a5 6dbc 96d7 f7bb 65c9 eb3b
00000060: 04f4 cbbc 1ecf 2f3a 2312 a2bc 9a60 093a
00000070: 1f73 273c c74b 2fbc c403 d3bc 39fd 8d3c
00000080: 0622 3f3b 2b41 c8bc 9a95 e6bb 9dbf 73bc
00000090: 1390 4e3c 24e1 a1bc a1b5 61bc 75db f23a
000000a0: 5424 d3bc 5664 223c 3e0f 80bc bcdd 473b
000000b0: 5e95 f13b a45b 46bb bc63 a3bb dabe 54bc
000000c0: 2bb6 77bc c144 1bbc 0624 c8bc 2ad9 17bc
000000d0: ee5f c5bc 52c7 c6bc 118e a13b ebac 28bc
000000e0: 2045 4c3b f996 5c3c d1d4 64bb df1f 6ebb
000000f0: b433 b6bc 71ba 7f3b f098 bdbc 78fc c0bc
00000100: 7075 e7bc baab 77bc 53ec e0ba fb90 89bc
00000110: 267f 67ba a047 7bbc 8f0b cdbc a0c9 8abc
00000120: 7945 eebc dad2 8bbc e197 963b 4d2b cfbc
00000130: aba5 17ba 4425 d5bc f429 5a3c 3138 003c
00000140: acbd 973a a7e7 0fbc cb4d 1abc c01d 8bbc
00000150: 9763 38bc 1bdd 86bc 6d1d 5aba ebc6 4abc
00000160: 97b7 7d3c 0033 c3bc f5f0 dcbc f535 b53b
00000170: 61f7 53bd 774e d3bc 6730 693d f8fb 463d
00000180: e4bd 303d 88a1 983b 6ded 203b 5256 a2b9
00000190: 192e f3bb 03ed 8dbd ee5a 863c 5cdb b4bc
000001a0: 358c 2bbc bbfc e63c 1a4b 23bd 1633 e6bc
000001b0: dac7 efbc a5aa 80bb 8571 df3c ac16 193d
000001c0: 5cb5 7cbc 3b97 14bd b25b 83bb 946b 71bc
000001d0: 79c6 dfbc d020 59bd 6c20 27bd 3b5f 6bbc
000001e0: 38c0 60bc a47b 1fbc acfa e03c f064 13bc
000001f0: a833 3e3c f7bc 143c 646c 3b3d 910b 97bc
00000200: 5437 03bd a923 a4bc 1ecc 703c 31fb 0dbd
00000210: 1ef7 223d 237e 0b3d f784 9f3b a971 953c
00000220: 7738 f73c 3f69 a6bc c626 0ebd de70 49bd
00000230: 1ba7 98bc 2ac2 dc3c d868 69bc adad 2fbb
00000240: 289a 3ebc 08eb 073d 5213 e0bc ba24 25bc
00000250: e11f 1a3c 12ec 39bc eaaa 913c 2ff6 07bc
00000260: fc2e 30bd d996 f2bc 6373 ff3c 3d29 183b
00000270: 3489 2fbd e193 8c3d 09fa a53a 1d5c 80bc
00000280: db87 80bd 0cb5 823b 783d 323b e313 a33c
00000290: f334 5e3b f452 e9b7 2111 9d3c 5316 9abc
000002a0: 8f04 2fbc bf9d 1bbd d085 333d 428c 80bc
000002b0: 5709 233c b25a 79bd db79 0f3b 0207 f838
000002c0: 3c75 fc3b 4115 a6bc 5409 00bd 01fc 29bd
000002d0: 7454 4a3c 62f6 cabc d393 2fbc ab66 3d3a
000002e0: ce5d 26bc 48f5 013c 3ffe 74bc 83e8 18bc
000002f0: 116c 7bbc c611 bbbc 373d 143c b439 293c
00000300: 6611 d3bb ed94 0d3c 4ac8 50bb 92b5 8cbc
00000310: 77c1 b63a b670 153c 18dd b3bc 4cf6 9fbc
00000320: 0796 24bc 26b6 fa3b b24c 133c 9e3c 9abc
00000330: 4eef eebb 8456 b3bc fbbd 803a 99bc d7bc
00000340: 4bf2 0b3c 7ed0 2d3b ea53 b8bc 491e 7b3b
00000350: 57e0 a43b 07fe d6bc 6bac 0a3b 845a 073c
00000360: d3ef bfbc 384a dd3b 6e21 603b cfdd 91bc
00000370: 50a4 96bc 17f0 80bc a68d f13a 501b 6e3c
00000380: d8f6 adbc 71b8 74bc 51db 6bbb 8b97 d9bb
00000390: 3e35 04bc 5bb5 4a3a 92ce 71bb 5aa8 38bc
000003a0: 4377 353c d0ad 403c d7d7 9a3b 74bc 85bc
000003b0: 9659 b8bb afdd 833b bd08 36bc 3e76 03bc
000003c0: 69cf d8bc e2a6 8cbc a790 0c3c e7d4 8d3b
000003d0: b444 643c 5c51 27bc eed4 9e3a bafc d4bc
000003e0: 290e 823b f8d9 d4bc fe66 4abc b9ba 9fbc
000003f0: ef86 eb3a 91f4 49bc f15c a4bb e18d 6e3b

bias f4 [90]
-0.005863584 0.0126815075 -0.021682456 -0.011709316 0.011975404 -0.0037667083 0.040782228 0.022112124
0.039517075 0.007479957 -0.02000155 -0.0060751303 -0.0037953206 -0.020106953 0.0010829206 0.005592776
-0.0010009569 0.0076119797 -0.037047416 -0.016009571 -0.005999419 -0.04980128 -0.015185301 0.0026455554
0.013892155 -0.0038544154 0.025899706 -0.01828115 -0.025926467 0.031227069 0.038876526 -0.015377828
-0.043703858 -0.025272895 0.021330722 -0.0231722 0.05172139 -0.02790511 -0.013398904 -0.0053060194
-0.015509505 0.0027677827 -0.031670358 -0.011453212 -0.011898159 0.003256231 -0.0059604784 -0.0014005206
-0.019113682 0.011749494 0.0024623608 0.0507971 -0.009615764 -0.01370588 -0.017951284 -0.014081035
-0.016722688 -0.0018165751 -0.00014321768 -0.02214101 -0.022711396 -0.005002383 0.005090724 0.017496856
-0.010631323 -0.016877532 -0.021786995 0.0027788675 -0.04185195 0.040453993 0.02297472 -0.059730627
-0.0344833 0.035788253 0.06504725 0.020188075 -0.011772434 0.0151487505 0.0048552966 -0.01670261
0.0015791621 -0.02662093 -0.013894153 -0.0039391285 0.0002076421 -0.00015101845 -0.0024060768 -0.025813423
-0.015330596 -0.034189545
00000000: 4f23 c0bb 19c6 4f3c 689f b1bc 6ed8 3fbc
00000010: 7c34 443c e1da 76bb 440b 273d 7c24 b53c
00000020: a8dc 213d 6d1a f53b 4ada a3bc e311 c7bb
00000030: eaba 78bb 56b7 a4bc c9f0 8d3a 9b43 b73b
00000040: 8a32 83ba ea6d f93b 08bf 17bd 8126 83bc
00000050: c696 c4bb 6dfc 4bbd c5cb 78bc 0e61 2d3b
00000060: ec9b 633c 5c9a 7cbb 9f2b d43c 5ac2 95bc
00000070: be63 d4bc e9cf ff3c fe3c 1f3d 49f3 7bbc
00000080: d102 33bd 1a09 cfbc c4bd ae3c a0d3 bdbc
00000090: cfd9 533d 4299 e4bc 1487 5bbc 1ede adbb
000000a0: 941b 7ebc b063 353b c7b8 01bd 41a6 3bbc
000000b0: 7ff0 42bc 7e66 553b 1e50 c3bb ac91 b7ba
000000c0: 4c94 9cbc f380 403c 8f5f 213b 9f10 503d
000000d0: 708b 1dbc a18e 60bc 920e 93bc 24b4 66bc
000000e0: 05fe 88bc 251a eeba b42c 16b9 1061 b5bc
000000f0: 400d babc 08eb a3bb 17d0 a63b 9155 8f3c
00000100: 002f 2ebc c042 8abc a47a b2bc a91d 363b
00000110: f36c 2bbd 16b3 253d 7b35 bc3c 1aa8 74bd
00000120: 5c3e 0dbd b496 123d 7e37 853d 7661 a53c
00000130: 2be1 40bc 7732 783c 2e19 9f3b e9d3 88bc
00000140: e3fb ce3a 2314 dabc 4da4 63bc ce13 81bb
00000150: 80ba 5939 b55a 1eb9 45af 1dbb ac76 d3bc
00000160: 2e2d 7bbc 560a 0cbd

weight f4 [9, 90, 1, 1]
0.008583543 -0.02576855 -0.00453433 0.0017630697 0.050068345 0.0057913074 0.003857826 0.0302825
0.018996522 -0.014731159 -0.0051081874 0.009247633 0.0053391056 0.0045767417 0.012330626 0.01284572
0.00026623474 0.018533068 -0.040512368 -0.001144153 0.010895133 -0.0010785818 0.017473496 0.05304927
-0.018231025 -0.022961108 0.071167104 -0.006317149 -0.013384269 0.08045697 0.05464214 0.018999798
0.039834216 -0.03784414 0.013403804 0.0035168277 0.10823155 -0.003019772 0.0055234805 -0.0047124764
-0.017406862 0.007665451 -0.02868892 -0.015118498 -0.081722036 -0.007706249 -0.0012752538 -0.0016430079
0.008504246 -0.06586164 0.009052977 0.056580637 0.009855315 -0.059748314 0.010118328 -0.041325234
0.0015096208 -0.05352502 -0.058217656 -0.0064234575 0.02133515 0.013113107 -0.0031211409 0.027826844
-0.007667474 0.009484552 0.0043171635 -0.007173996 -0.005819518 0.0625267 0.018626455 0.13133092
-0.046925496 -0.072758585 0.07584116 0.039015833 -0.0149682695 0.02114413 -0.012196719 -0.03809058
-0.0024030702 0.007770325 0.016581362 -0.002016437 0.031871796 0.003494437 -0.056468047 -0.023373539
-0.07423061 0.0062585734 0.0050447406 0.018949233 0.0019729575 -0.009952751 -0.033214238 0.0035958095
-0.07485528 0.027262993 0.011838746 0.017704308 0.008945971 -0.0058443 -0.06485901 -0.003748437
-0.010443857 -0.0071763513 0.005753812 0.038479842 -0.008318159 0.01592596 0.0014819672 -0.010754657
-0.009443041 -0.026452368 -0.074896954 0.0007563764 0.04129328 0.008072978 0.027138473 0.07518403
-0.06753737 0.011732579 -0.01827092 0.008942347 0.029808 -0.0009045883 0.006802115 0.0035208892
-0.004767728 -0.002260334 0.02087808 0.049596675 -0.0172491 -0.01564723 0.06793992 -0.046161328
-0.0016527779 0.009335872 0.016270623 0.102972776 -0.023974827 -0.025387388 -0.0095861675 0.013277434
0.022397377 -0.0006966902 0.016743964 0.03516913 -0.076420315 0.024694959 0.021548165 -0.013053054
-0.0015861724 0.098375134 -0.0029648156 0.008493045 -0.010398446 -0.0037970992 -0.0026958627 0.042163514
-0.034190398 0.06435104 0.031136036 -0.048500482 0.06519819 0.043086134 -0.013460389 -0.016603021
0.0072874846 -0.059493084 -0.006654162 0.0055064852 -0.013102528 0.0033500853 0.010404006 0.015360368
0.015178365 0.01398622 0.055121828 0.012387001 0.0007521551 -0.030981371 -0.022917246 0.021462066
0.0059302934 -0.0005559884 0.047177766 -0.00045891196 0.044642486 0.024189467 0.007937916 -0.024222655
-0.08666731 -0.0042698286 0.008204575 0.011829597 -0.0016305024 0.041730758 -0.056402657 -0.008747163
0.00017287495 -0.09814206 0.0012494534 0.016658528 -0.020261766 0.004586886 0.06646662 -0.02264729
0.0011665206 0.033462055 -0.022701792 -0.02855558 0.045800023 -0.08048349 0.013938813 -0.010777792
-0.04727084 -0.007214465 -0.005843018 -0.014816719 -0.013097036 -0.09967869 -0.020707842 0.005443518
0.00340901 0.025638621 0.010542688 -0.003523878 0.008417134 -0.0014476404 0.013243202 -0.060147673
-0.013080471 -0.050750967 -0.0013260756 -0.017194118 -0.0071720365 -0.07597957 -0.05443581 -0.015260775
0.013911816 0.017089719 0.0083083045 0.04889937 -0.0027965766 -0.0050876536 0.018243978 -0.00026692275
0.01781346 -0.08803255 -0.08301268 -0.010126885 -0.0051224753 -0.06527089 0.070051014 -0.008440598
00000000: fda1 0c3c 9118 d3bc b894 94bb cd16 e73a
00000010: 7714 4d3d 02c5 bd3b 95d3 7c3b 0113 f83c
00000020: 989e 9b3c f65a 71bc 9562 a7bb 6283 173c
00000030: aaf3 ae3b 7ef8 953b 6506 4a3c db76 523c
00000040: 6c95 8b39 a9d2 973c 4cf0 25bd 67f7 95ba
00000050: 8081 323c 335f 8dba 9424 8f3c 314a 593d
00000060: 3b59 95bc ef18 bcbc 0fc0 913d 1600 cfbb
00000070: b149 5bbc a0c6 a43d 70d0 5f3d 77a5 9b3c
00000080: 3429 233d 7502 1bbd a19b 5b3c 947a 663b
00000090: 81a8 dd3d 5ee7 45bb 50fe b43b 1e6b 9abb
000000a0: d698 8ebc 772e fb3b 0705 ebbc 94b3 77bc
000000b0: e25d a7bd b484 fcbb 6b26 a7ba 325a d7ba
000000c0: 6555 0b3c 78e2 86bd f052 143c 19c1 673d
000000d0: 3078 213c a6ba 74bd 58c7 253c a644 29bd
000000e0: 78de c53a 0d3d 5bbd a375 6ebd de7b d2bb
000000f0: 0dc7 ae3c 5bd8 563c 0e8c 4cbb 1ff5 e33c
00000100: 6f3f fbbb 1865 1b3c fe76 8d3b d713 ebbb
00000110: a8b1 bebb 000e 803d 8296 983c 9d7b 063e
00000120: f334 40bd 7402 95bd 9c52 9b3d 11cf 1f3d
00000130: 793d 75bc 7436 ad3c bfd4 47bc de04 1cbd
00000140: d47c 1dbb 369e fe3b a3d5 873c 3326 04bb
00000150: 008c 023d ed02 653b 0a4b 67bd dd79 bfbc
00000160: 3806 98bd b814 cd3b 5a4e a53b 6c3b 9b3c
00000170: bc4c 013b dd10 23bc a70b 08bd aca7 6b3b
00000180: ba4d 99bd a456 df3c 4df7 413c a008 913c
00000190: 1f92 123c 8b81 bfbb cdd4 84bd 56a8 75bb
000001a0: b61c 2bbc 9927 ebbb 798a bc3b 0a9d 1d3d
000001b0: e348 08bc 2977 823c 913e c23a 4d34 30bc
000001c0: fcb6 1abc a3b2 d8bc 9363 99bd 9047 463a
000001d0: 2423 293d 8644 043c 8151 de3c 16fa 993d
000001e0: 0851 8abd 013a 403c e5ac 95bc ec82 123c
000001f0: e82f f43c e521 6dba 47e4 de3b b8be 663b
00000200: 9a3a 9cbb 1d22 14bb 8208 ab3c e225 4b3d
00000210: fc4d 8dbc 9f2e 80bc 1624 8b3d a913 3dbd
00000220: 06a2 d8ba 7cf5 183c f849 853c 64e3 d23d
00000230: db66 c4bc 36f9 cfbc 4d0f 1dbc 9889 593c
00000240: b47a b73c 16a2 36ba a32a 893c 810d 103d
00000250: 4182 9cbd 154d ca3c c785 b03c 7adc 55bc
00000260: 1de7 cfba e778 c93d 5a4d 42bb 6a26 0b3c
00000270: 3e5e 2abc c1d8 78bb 12ad 30bb a6b3 2c3d
00000280: 3b0b 0cbd 7aca 833d 0011 ff3c 71a8 46bd
00000290: a186 853d 167b 303d f788 5cbc 0f03 88bc
000002a0: dacb ee3b 05af 73bd 280b dabb bf6f b43b
000002b0: fcab 56bc 1b8d 5b3b 9075 2a3c 0eaa 7b3c
000002c0: adae 783c 7526 653c 6dc7 613d d9f2 4a3c
000002d0: 462c 453a a5cc fdbc f3bc bbbc 37d1 af3c
000002e0: e852 c23b c0bf 11ba 793d 413d 1f9a f0b9
000002f0: 0adb 363d fd28 c63c 080e 023c 976e c6bc
00000300: a17e b1bd ebe9 8bbb 7b6c 063c edd0 413c
00000310: 95b6 d5ba dfed 2a3d 7906 67bd 4350 0fbc
00000320: c445 3539 b4fe c8bd b3c4 a33a 7777 883c
00000330: 01fc a5bc 974d 963b a71f 883d cf86 b9bc
00000340: f0e5 983a 820f 093d 1cf9 b9bc 64ed e9bc
00000350: ce98 3b3d 87d4 a4bd 9e5f 643c 5695 30bc
00000360: 119f 41bd 5267 ecbb ca76 bfbb d3c1 72bc
00000370: f394 56bc 5724 ccbd 7ea3 a9bc 8a5f b23b
00000380: b269 5f3b 1608 d23c 3dbb 2c3c ddf0 66bb
00000390: 05e8 093c c0be bdba 04fa 583c 685d 76bd
000003a0: 794f 56bc 3fe0 4fbd b7cf adba aeda 8cbc
000003b0: 6703 ebbb 2d9b 9bbd 15f8 5ebd 5408 7abc
000003c0: 63ee 633c bdff 8b3c 8e1f 083c b54a 483d
000003d0: c546 37bb 55b6 a6bb 6574 953c c4f1 8bb9
000003e0: 89ed 913c 694a b4bd 8d02 aabd 3ceb 25bc
000003f0: 70da a7bb bfac 85bd e876 8f3d 6f4a 0abc

bias f4 [9]
0.011751786 0.0056291027 0.023374304 0.003759517 -4.880881e-05 -0.0033419896 -0.013968588 0.004631824
0.004264585
00000000: 908a 403c 5674 b83b 787b bf3c 3b62 763b
00000010: 10b8 4cb8 4805 5bbb 81dc 64bc 8ec6 973b
00000020: efbd 8b3b
