NCA Parameters/CLIP Guidance/A vibrant and colorful image.pt (torch, 65115 bytes, 5 tensors)

weight f4 [90, 72, 1, 1]
0.16296071 -0.022565223 -0.033200722 0.063787475 0.0684965 -0.04467263 -0.037390944 -0.0047022905
-0.007588314 -0.08166051 -0.22140445 0.23128362 -0.07944643 -0.015512604 -0.02202627 -0.15837756
0.1995694 -0.0670652 0.05616403 -0.033629514 -0.05243787 -0.09648513 0.10124863 -0.09017633
-0.07802321 -0.15317339 -0.0067416835 -0.065489784 0.055998463 0.013457889 0.012770751 0.08249723
0.007813485 -0.051171854 -0.062284615 -0.001515541 -0.02219762 0.011353958 -0.0047989124 -0.07198604
0.00862651 -0.015542886 0.030961843 -0.0005578063 -0.0073112557 0.088078916 0.11783166 0.04812682
-0.1303926 0.06436278 0.19865814 0.101668365 -0.07707785 -0.15353316 0.0055720997 0.044076227
0.0040572477 -0.11529416 -0.02302512 0.03369777 0.009189801 -0.040008247 0.04981395 0.05393059
0.011660068 -0.089754656 0.019135362 0.10511866 -0.066836014 -0.024660045 -0.02111203 -0.06655122
-0.19254707 0.20068698 0.009428933 0.12515248 0.034709368 0.075615 0.076066315 0.014917349
-0.04476837 0.17890903 -0.2928482 -0.17519383 -0.077156335 0.0805317 0.09064149 0.258281
-0.08623555 -0.22160819 -0.026177779 -0.011292715 -0.043926224 0.10227783 0.06075503 -0.19094492
0.050807085 0.03293996 0.031622164 0.051245145 -0.03959689 0.0074251927 0.010730985 -0.05369755
0.027432375 0.040010873 0.023738744 0.019816583 0.012880829 0.041173745 -0.01133882 -0.03768316
-0.026021875 -0.013426264 0.011035676 0.038772542 -0.010839482 -0.0030562289 0.0017078207 -0.058409695
-0.09866459 -0.07631631 0.23433603 -0.0441609 0.036830436 -0.007963109 -0.011623552 0.05011559
-0.018333973 -0.027226513 -0.007532305 -0.07443772 -0.021240937 0.039472647 0.02745796 0.014296733
-0.08182837 0.04292025 -0.045692813 0.07046947 0.04868299 -0.037168033 -0.081591785 -0.03096697
0.06351477 -0.12311324 0.09517638 -0.08129819 -0.084044755 0.059254184 -0.08917214 -0.045514442
-0.12754242 -0.022334263 -0.09255638 0.098296195 -0.040669486 -0.030301092 0.08201431 0.07667372
0.03510673 -0.10909857 0.10610398 -0.0007395872 -0.0856151 -0.02105741 0.02988496 -0.10199675
0.037038684 0.03758785 0.06255495 -0.029924545 -0.06899573 0.037861507 0.12284346 0.03296247
0.012256537 0.07947733 0.026146553 -0.009820224 -0.027177166 0.07187833 0.02719581 0.049319044
0.011586649 0.0063511855 0.00929028 -0.03322736 -0.019604167 -0.08495186 -0.05495825 0.07128173
0.035835255 -0.0048786565 -0.014197312 0.020718552 -0.040479016 0.04023051 -0.11608905 0.010288432
0.015197423 -0.12772697 0.032149475 0.03343547 -0.059476152 -0.06884641 -0.14443095 -0.059062503
0.086509466 -0.0086174775 0.10229838 -0.0023688418 -0.034437932 0.0765872 -0.10131911 -0.09205042
0.30379456 0.27989307 0.15015236 -0.0024200745 0.06282845 -0.031431258 -0.07687119 -5.278378e-05
-0.06097371 -0.28360346 -0.281339 -0.10620285 -0.010238927 0.04427796 0.045395575 -0.046197552
-0.046556175 -0.03595557 0.0051095737 -0.08403917 -0.087093614 0.17400883 -0.1498727 -0.19878505
0.09224059 -0.018810362 -0.013106756 -0.034385834 -0.011811419 0.00904108 0.021917392 -0.0081977565
0.0056976387 0.0059199794 0.031175977 -0.0129497275 -0.008263859 -0.005193613 -0.008340947 0.0032722785
00000000: 2cdf 263e b4da b8bc 7bfd 07bd 02a3 823d
00000010: e547 8c3d a6fa 36bd 3f27 19bd ac15 9abb
00000020: 64a7 f8bb a03d a7bd d9b7 62be 9dd5 6c3e
00000030: cfb4 a2bd 9428 7ebc 7070 b4bc ba2d 22be
00000040: ec5b 4c3e 7b59 89bd 410c 663d 1abf 09bd
00000050: 18c9 56bd ff99 c5bd 715b cf3d 5eae b8bd
00000060: a2ca 9fbd 7cd9 1cbe 57e9 dcbb 821f 86bd
00000070: a55e 653d 7a7e 5c3c 693c 513c 4ff4 a83d
00000080: 2204 003c 9499 51bd 271e 7fbd 1ea5 c6ba
00000090: c8d7 b5bc f405 3a3c 3240 9dbb 6b6d 93bd
000000a0: 3556 0d3c 97a7 7ebc b1a3 fd3c bf39 12ba
000000b0: 4293 efbb b862 b43d ba51 f13d a120 453d
000000c0: a385 05be a2d0 833d 0a6d 4b3e 8137 d03d
000000d0: feda 9dbd cc37 1dbe 2996 b63b 4689 343d
000000e0: a9f2 843b 581f ecbd 2d9f bcbc ac06 0a3d
000000f0: d290 163c b0df 23bd b609 4c3d 53e6 5c3d
00000100: df09 3f3c 4ad1 b7bd c3c1 9c3c 7448 d73d
00000110: 52e1 88bd dd03 cabc 23f3 acbc 024c 88bd
00000120: 0f2b 45be e380 4d3e d07b 1a3c f927 003e
00000130: 692b 0e3d 0adc 9a3d a8c8 9b3d e667 743c
00000140: 0a5f 37bd ee33 373e 33f0 95be 0366 33be
00000150: 2404 9ebd ceed a43d 3fa2 b93d 683d 843e
00000160: 449c b0bd 42ed 62be c872 d6bc 1405 39bc
00000170: fceb 33bd 0a77 d13d 44da 783d 1187 43be
00000180: 171b 503d 0dec 063d 3e86 013d 6ee6 513d
00000190: 5930 22bd 084f f33b 03d1 2f3c f6f1 5bbd
000001a0: dcb9 e03c 71e2 233d c177 c23c 6356 a23c
000001b0: 1d0a 533c cda5 283d 75c6 39bc a859 1abd
000001c0: d42b d5bc d5f9 5bbc fbce 343c f5cf 1e3d
000001d0: 1598 31bc 034b 48bb f4d8 df3a 013f 6fbd
000001e0: a910 cabd ba4b 9cbd c9f5 6f3e 0fe2 34bd
000001f0: 83db 163d b377 02bc b670 3ebc 0146 4d3d
00000200: 2131 96bc 230a dfbc 8ed1 f6bb ce72 98bd
00000210: 7901 aebc 12ae 213d 84ef e03c d83c 6a3c
00000220: a295 a7bd 25cd 2f3d 6328 3bbd 4c52 903d
00000230: d167 473d 823d 18bd 9819 a7bd 71ae fdbc
00000240: 0814 823d cb22 fcbd d5eb c23d aa7f a6bd
00000250: a81f acbd 84b4 723d e29f b6bd 5a6d 3abd
00000260: 7b9a 02be 58f6 b6bc 338e bdbd 844f c93d
00000270: 0c95 26bd ff39 f8bc 1ef7 a73d 1c07 9d3d
00000280: 13cc 0f3d 126f dfbd 0b4d d93d dbe0 41ba
00000290: f856 afbd 9780 acbc 4ed1 f43c ace3 d0bd
000002a0: e0b5 173d b8f5 193d cf1c 803d 5224 f5bc
000002b0: a24d 8dbd ab14 1b3d 5a95 fb3d a803 073d
000002c0: a4cf 483c 03c5 a23d 4c31 d63c 01e5 20bc
000002d0: a6a2 debc f234 933d bfc9 de3c c402 4a3d
000002e0: eed5 3d3c 9b1d d03b 4236 183c 6a19 08bd
000002f0: eb98 a0bc 3efb adbd e71b 61bd 28fc 913d
00000300: fdc7 123d 23dd 9fbb d89b 68bc f4b9 a93c
00000310: 53cd 25bd bfc8 243d 19c0 edbd d090 283c
00000320: 9dfe 783c dcca 02be 2baf 033d a2f3 083d
00000330: 449d 73bd 59ff 8cbd b5e5 13be 86eb 71bd
00000340: e02b b13d 5230 0dbc d081 d13d 923e 1bbb
00000350: ca0e 0dbd c0d9 9c3d 6580 cfbd ee84 bcbd
00000360: f68a 9b3e 254e 8f3e 8ac1 193e 1d9a 1ebb
00000370: 34ac 803d 10be 00bd a46e 9dbd 2764 5db8
00000380: 92bf 79bd 7934 91be aa0b 90be e180 d9bd
00000390: 2cc1 27bc ce5c 353d b6f0 393d a539 3dbd
000003a0: b0b1 3ebd 2646 13bd 366e a73b ba1c acbd
000003b0: 235e b2bd 5f2f 323e 3b78 19be 4f8e 4bbe
000003c0: a2e8 bc3d 3018 9abc b8bd 56bc 29d8 0cbd
000003d0: af84 41bc 0a21 143c 1a8c b33c e24f 06bc
000003e0: 42b3 ba3b 63fc c13b c364 ff3c 182b 54bc
000003f0: 2365 07bc 2f2f aabb 78a8 08bc b973 563b

bias f4 [90]
-0.0037086518 0.14599176 -0.026176555 0.22124872 -0.09423615 0.03565195 0.060942505 0.14528205
-0.036468785 -0.13065766 0.111708164 -0.029631283 0.16858435 -0.03438908 -0.08792027 -0.053620793
0.038516797 0.03244995 0.14128394 -0.011085486 0.028193075 0.034744177 -0.026189562 0.08028229
-0.0361253 -0.037277922 0.099274606 -0.21513407 0.00021027763 -0.031679414 0.078298226 -0.06526757
0.034192115 -0.0032892067 0.09378591 -0.05941715 0.028805533 0.10295578 -0.04688015 0.01800843
-0.031168878 -0.049579903 0.0889158 0.026110902 0.14359747 0.07364174 0.07468086 -0.01462122
0.004114858 -0.037481185 0.026426587 0.08749922 0.15345839 0.031327747 -0.004954292 0.15398139
0.14878987 0.20400313 -0.010245475 0.03693018 -0.042349868 0.060551 0.07196714 0.059014868
-0.056992177 0.16238903 -0.034316923 0.1264907 0.033454858 0.13133149 0.025113758 -0.167894
0.102970965 0.11078697 0.044280063 -0.004265188 -0.08753611 0.13500835 -0.071224794 -0.027474234
0.048574332 0.022978988 0.085093156 0.028074222 -0.07561999 0.12309809 -0.03347864 -0.04726737
-0.016796015 0.04832574
00000000: da0c 73bb dd7e 153e 3770 d6bc 068f 623e
00000010: e2fe c0bd c707 123d d99e 793d d1c4 143e
00000020: 4b60 15bd 1fcb 05be 40c7 e43d 4ebd f2bc
00000030: 60a1 2c3e 90db 0cbd 8b0f b4bd 7aa1 5bbd
00000040: cac3 1d3d 3dea 043d bdac 103e e69f 35bc
00000050: 2af5 e63c e94f 0e3d 7e8b d6bc 0b6b a43d
00000060: 1ff8 13bd bcb0 18bd 7c50 cb3d 1b4c 5cbe
00000070: f97d 5c39 46c2 01bd d25a a03d 01ab 85bd
00000080: 080d 0c3d bb8f 57bb d412 c03d 665f 73bd
00000090: 95f9 eb3c 7bda d23d 6605 40bd 6a86 933c
000000a0: e055 ffbc 4c14 4bbd 7d19 b63d 88e6 d53c
000000b0: 370b 133e 7bd1 963d 47f2 983d d78d 6fbc
000000c0: eed5 863b df85 19bd 927c d83c cb32 b33d
000000d0: 3224 1d3e 8651 003d 9d57 a2bb 4cad 1d3e
000000e0: 5f5c 183e 32e6 503e a3dc 27bc 1a44 173d
000000f0: 0e77 2dbd 5304 783d 8263 933d 93b9 713d
00000100: a170 69bd 4f49 263e e78f 0cbd c786 013e
00000110: f607 093d c37b 063e 5ebb cd3c 68ec 2bbe
00000120: 71e2 d23d 47e4 e23d 035f 353d fdc2 8bbb
00000130: 2246 b3bd a13f 0a3e 4ede 91bd a511 e1bc
00000140: e1f5 463d 6e3e bc3c 5245 ae3d e9fb e53c
00000150: a7de 9abd da1a fc3d e620 09bd 6e9b 41bd
00000160: cc97 89bc 36f1 453d

weight f4 [90, 90, 1, 1]
-0.07682157 -0.0063384185 -0.008052088 -0.07121062 -0.022740943 0.06658751 -0.035855677 0.007405719
0.058105905 -0.010717471 -0.063226655 0.092746705 -0.06019991 0.0067370487 0.08132887 0.020518214
0.08161777 -0.027512092 0.047583032 0.048514344 0.017752951 0.051988553 0.030047547 -0.09794411
0.040532235 -0.011365581 -0.082198374 0.049542826 -0.014672362 -0.06162371 -0.030965649 0.037316248
0.0316837 -0.07211185 0.0064745345 0.063520335 -0.0016923314 -0.023459515 0.032314423 0.040504124
-0.07846676 -0.0033208304 0.074450016 0.021418504 0.15704615 -0.008885906 0.00681109 -0.08697433
-0.0595773 0.045039862 -0.04140533 0.15043594 -0.03147886 0.004758819 0.11465106 -0.08534021
-0.09790515 -0.1283872 0.05829438 0.015421537 -0.03512555 0.015661895 0.044522323 -0.1133081
-0.040783536 -0.100508094 0.038112618 0.0878053 -0.059758287 0.011693946 0.014510437 0.036777556
-0.052848753 0.01823203 0.09406836 0.0886516 0.049541816 -0.036392324 -0.09568263 -0.124055415
-0.14162025 -0.023626445 0.103737034 -0.04802804 -0.03504188 -0.09948414 0.02878861 -0.0022758157
0.01406168 -0.07693336 0.022409277 0.06708664 0.042190768 0.0048692813 -0.01385345 -0.14907241
0.04908702 -0.054319378 -0.16375475 0.0026849397 0.006904803 0.063663214 -0.12017532 -0.042325042
-0.016879044 -0.06875191 -0.03299846 0.070485696 0.01505643 0.034729015 0.1220303 -0.1258047
0.13428208 -0.010556918 0.009325983 0.11177853 0.004377654 -0.006526025 0.082287654 -0.038868736
-0.028789354 -0.07790682 -0.06745425 0.055160243 -0.1791401 -0.087055475 -0.08032808 -0.0074464655
0.063789904 -0.098935224 0.0771159 -0.004944818 0.06065955 -0.09787477 -0.0785232 0.000431058
0.06253678 0.10020919 0.03550247 0.048489947 0.12568478 -0.051461708 0.08512632 -0.019984385
-0.030042263 0.08047819 -0.09612794 -0.15844332 0.17486303 -0.032910112 0.010468795 0.016010894
0.008556927 0.0003114969 0.0029093924 -0.028261367 -0.029523052 -0.049236216 -0.04193881 -0.086820476
-0.056103345 0.07320975 0.03499788 -0.023284648 0.06234673 0.043092564 -0.03951284 0.10338872
-0.052317638 -0.103677936 -0.040194765 0.058047894 -0.04206945 0.04333417 -0.02989334 -0.020118017
-0.058254704 -0.05930569 -0.011316541 -0.06820592 -0.09396774 0.053462416 -0.06193902 -0.005920095
-0.037113328 -0.041589383 0.0009692162 -0.07344143 -0.0141577 0.08071204 0.007291072 -0.09665135
0.068816125 -0.062481675 0.01655936 0.022305833 0.04098401 -0.08312316 -0.034440782 0.02972731
0.048194587 0.03249831 -0.08344319 0.17013285 -0.052001882 0.05366416 0.06270972 0.031083414
0.081190996 0.050308622 -0.12866817 0.0131543 -0.090024404 -0.06282414 -0.028685136 -0.022170462
0.04422406 0.015311896 0.037113737 -0.021031516 -0.12986913 0.10810251 0.015183457 0.029387211
0.0403422 0.11246546 -0.024120817 -0.004559064 -0.024926959 0.13669926 -0.11535589 0.11582052
0.012199603 -0.051856693 -0.018319093 0.06409171 0.13805103 0.10639183 0.073827885 0.12005411
-0.050252914 0.032426108 0.05842466 -0.0010066619 0.111880615 -0.014655053 -0.03690866 0.012957411
0.15168141 0.03173508 -0.11484875 0.026332451 -0.03160114 -0.1393347 0.10149369 0.039652977
00000000: a154 9dbd 82b2 cfbb e8ec 03bc e0d6 91bd
00000010: 374b babc 085f 883d 67dd 12bd acab f23b
00000020: 7500 6e3d 5598 2fbc fa7c 81bd fcf1 bd3d
00000030: 2e94 76bd 76c2 dc3b c08f a63d d015 a83c
00000040: 3827 a73d 0a61 e1bc 6de6 423d fab6 463d
00000050: a36e 913c f3f1 543d 4626 f63c ec96 c8bd
00000060: 2105 263d b436 3abc 9f57 a8bd 6bed 4a3d
00000070: 5964 70bc 2569 7cbd acab fdbc ecd8 183d
00000080: c4c6 013d 61af 93bd 5528 d43b f316 823d
00000090: 38d1 ddba 2b2e c0bc 215c 043d a7e7 253d
000000a0: 2eb3 a0bd 4aa2 59bb 4079 983d dc75 af3c
000000b0: b5d0 203e 3196 11bc 902f df3b 991f b2bd
000000c0: 5407 74bd b87b 383d a398 29bd e10b 1a3e
000000d0: faef 00bd deef 9b3b 2dce ea3d d9c6 aebd
000000e0: 7f82 c8bd ef77 03be 16c6 6e3d 9daa 7c3c
000000f0: cfdf 0fbd 604d 803c 0a5d 363d 140e e8bd
00000100: a30c 27bd 30d7 cdbd fa1b 1c3d 44d3 b33d
00000110: 1bc5 74bd f797 3f3c 2fbd 6d3c 10a4 163d
00000120: ef77 58bd 575b 953c eaa6 c03d f88e b53d
00000130: 5cec 4a3d 1e10 15bd 41f5 c3bd c410 febd
00000140: e604 11be 3f8c c1bc 1574 d43d 0db9 44bd
00000150: 1388 0fbd 57be cbbd 17d6 eb3c da25 15bb
00000160: f662 663c 3d8f 9dbd a993 b73c b864 893d
00000170: 3ad0 2c3d 7e8e 9f3b 95f9 62bc 70a6 18be
00000180: 790f 493d ff7d 5ebd 53af 27be d0f5 2f3b
00000190: b041 e23b dc61 823d 7a1e f6bd 065d 2dbd
000001a0: ec45 8abc cdcd 8cbd 6529 07bd ce5a 903d
000001b0: 3faf 763c 0340 0e3d 06eb f93d f3d2 00be
000001c0: 3e81 093e ecf6 2cbc 02cc 183c 24ec e43d
000001d0: 6c72 8f3b 44d8 d5bb 6e86 a83d d334 1fbd
000001e0: a7d7 ebbc 9c8d 9fbd 7425 8abd b5ef 613d
000001f0: 8170 37be 244a b2bd 0c83 a4bd 7b01 f4bb
00000200: 48a4 823d 8d9e cabd f1ee 9d3d 2408 a2bb
00000210: 2676 783d 9172 c8bd c5d0 a0bd a0ff e139
00000220: 4913 803d 7a3a cd3d 0a6b 113d 659d 463d
00000230: 83b3 003e 83c9 52bd b556 ae3d 4bb6 a3bc
00000240: 311b f6bc c0d1 a43d bade c4bd f73e 22be
00000250: 4b0f 333e c1cc 06bd 4f85 2b3c 4729 833c
00000260: 5a32 0c3c 6850 a339 81ab 3e3b 6284 e7bc
00000270: 54da f1bc eaab 49bd 08c8 2bbd efce b1bd
00000280: 9fcc 65bd feee 953d f059 0f3d 72bf bebc
00000290: 495f 7f3d d481 303d 37d8 21bd 77bd d33d
000002a0: 054b 56bd 1955 d4bd 44a3 24bd a1c3 6d3d
000002b0: 0451 2cbd 2c7f 313d e1e2 f4bc 8ace a4bc
000002c0: 7c9c 6ebd 86ea 72bd 0369 39bc 8caf 8bbd
000002d0: 2972 c0bd 68fb 5a3d c5b3 7dbd 5bfd c1bb
000002e0: 2504 18bd a159 2abd 0013 7e3a 7668 96bd
000002f0: b3f5 67bc 5b4c a53d f2e9 ee3b 25f1 c5bd
00000300: 78ef 8c3d c9ec 7fbd 7fa7 873c b9ba b63c
00000310: d9de 273d 7a3c aabd c711 0dbd b086 f33c
00000320: b067 453d f31c 053d 43e4 aabd 4e37 2e3e
00000330: edff 54bd f3ce 5b3d f46d 803d a5a2 fe3c
00000340: 7747 a63d 6a10 4e3d 97c1 03be 2285 573c
00000350: b75e b8bd f1a9 80bd 17fd eabc d49e b5bc
00000360: 4a24 353d bfde 7a3c 9304 183d 494a acbc
00000370: 6afc 04be d964 dd3d 09c4 783c 73bd f03c
00000380: dd3d 253d 4b54 e63d 0599 c5bc 3364 95bb
00000390: 9f33 ccbc e4fa 0b3e b53f ecbd 4f33 ed3d
000003a0: d8e0 473c af67 54bd ec11 96bc 8442 833d
000003b0: 405d 0d3e f6e3 d93d 1333 973d eede f53d
000003c0: 00d6 4dbd 3dd1 043d b24e 6f3d f8f1 83ba
000003d0: aa21 e53d bf1b 70bc 892d 17bd 524b 543c
000003e0: 5f52 1b3e a5fc 013d d235 ebbd 27b7 d73c
000003f0: 3270 01bd c1ad 0ebe ecdb cf3d 296b 223d

bias f4 [90]
0.09175288 0.008159614 -0.11499142 -0.09427984 -0.019569714 -0.07417028 0.046224806 0.028087806
-0.057136197 0.08499037 -0.09883825 0.082327716 -0.04129967 0.078405365 0.076076105 -0.04493455
0.07851129 0.10266273 -0.07225462 0.09947617 -0.030822674 -0.068359815 -0.10968972 0.0736427
-0.060161844 0.06226789 0.07838584 0.018843072 -0.043880306 -0.113711126 -0.079785876 -0.13077024
0.08479053 0.08359835 -0.021033289 0.09473341 0.055175252 -0.048722375 0.059299078 0.035231598
-0.032341454 0.08231099 0.09079246 -0.001057349 -0.09565948 -0.06133477 0.03243766 0.11823819
0.03907937 -0.0073881117 0.14682016 -0.018495293 0.037920356 -0.047019355 0.0063069663 -0.07690055
-0.030462109 0.05882039 0.09968211 -0.0800925 -0.051593438 0.11426886 0.04089076 -0.043448936
-0.020972313 0.14946374 -0.071304366 0.02940864 0.017462444 0.035862613 -0.03150686 0.018367019
0.07469557 -0.13868263 0.058604743 0.033160325 -0.04884083 0.04552048 0.011626666 -0.011865244
0.037805524 -0.1061384 0.09345467 -0.09388149 -0.049840044 0.009138154 0.037773512 -0.052572552
0.07350393 0.024754683
00000000: efe8 bb3d e7af 053c 9f80 ebbd ca15 c1bd
00000010: aa50 a0bc 96e6 97bd 3956 3d3d 6618 e63c
00000020: a507 6abd 6e0f ae3d b56b cabd 6f9b a83d
00000030: d829 29bd fe92 a03d cacd 9b3d 4a0d 38bd
00000040: 87ca a03d d640 d23d 3bfa 93bd 2aba cb3d
00000050: d57f fcbc 3b00 8cbd 01a5 e0bd fcd1 963d
00000060: 446c 76bd 9d0c 7f3d c188 a03d c95c 9a3c
00000070: d6bb 33bd 61e1 e8bd c766 a3bd a2e8 05be
00000080: a8a6 ad3d 9d35 ab3d 014e acbc 9703 c23d
00000090: 72ff 613d 1d91 47bd 97e3 723d 024f 103d
000000a0: 7978 04bd aa92 a83d 66f1 b93d bf96 8aba
000000b0: 1ee9 c3bd 2b3a 7bbd 5add 043d dd26 f23d
000000c0: b111 203d f917 f2bb 0658 163e 7183 97bc
000000d0: 6052 1b3d 5e97 40bd abaa ce3b 097e 9dbd
000000e0: ac8b f9bc a6ed 703d 2226 cc3d 8907 a4bd
000000f0: a453 53bd cb05 ea3d 127d 273d 83f7 31bd
00000100: 21ce abbc 060d 193e 0608 92bd 63ea f03c
00000110: 660d 8f3c ade4 123d 560d 01bd 6e76 963c
00000120: fef9 983d d202 0ebe 870b 703d 1fd3 073d
00000130: 520d 48bd af73 3a3d c67d 3e3c 7166 42bc
00000140: f7d9 1a3d 175f d9bd 2965 bf3d f044 c0bd
00000150: 1325 4cbd 32b8 153c 66b8 1a3d 5156 57bd
00000160: 3a89 963d 55ca ca3c

weight f4 [9, 90, 1, 1]
0.017937724 -0.027176632 0.036363974 -0.032037925 -0.02742116 0.03309106 0.036385942 0.033514544
-0.013300531 0.010586299 0.0095824925 0.04928888 -0.00035000558 0.011267779 -0.01588985 0.005801382
-0.035747465 -0.043455154 0.038453702 0.0053264294 -0.07385124 0.024299461 0.04116657 -0.022925133
-0.045794796 0.015620434 0.037586167 0.0076337904 -0.015236314 0.019910328 -0.025413085 -0.046638045
0.04563179 0.04806559 0.024948915 0.011570288 0.010992245 0.008316277 -0.039229088 -0.09494794
0.041651558 -0.024861775 -0.017166963 0.016925583 -0.046976447 0.024226064 0.052545317 -0.00840569
0.015104733 -0.07806384 0.045917947 -0.08827199 -0.02501819 0.012933637 0.019192081 0.0008019467
-0.03535974 -0.026244659 0.03125288 0.06442166 -0.02263108 0.026746681 -0.07561561 -0.05189265
-0.055510666 -0.032738287 0.026040621 0.12568162 -0.013613891 -0.0072122286 -0.003899882 -0.18708877
0.07465833 0.006480272 -0.020709788 0.0141147105 -0.09901489 0.026041774 0.00675072 -0.083580464
-0.011997981 0.065929726 -0.03588478 -0.017577412 0.068145186 0.020048887 0.024373667 -0.035899553
0.03967735 -0.009142452 0.029114064 0.029688923 -0.0027754598 -0.048216227 0.011207357 -0.009429047
-0.06741418 -0.0001234474 0.007117631 0.016947329 -0.0108148735 -0.043097153 -0.004849822 -0.018834824
-0.016323632 -0.00936178 0.006516133 0.015829569 0.01745897 0.044165235 0.023946952 -0.012630092
0.018571304 0.016678205 -0.036412906 -0.021129543 -0.00159027 -0.060213473 0.01932442 0.0285698
0.0067414627 -0.047584053 -0.0050919657 -0.0053560594 -0.06522157 -0.013358193 0.04084363 -0.014717354
0.020976866 -0.0069437353 -0.006024833 -0.051069167 0.028011162 -0.026881376 0.025043579 -0.028579772
-0.07513121 -0.028230708 0.032548867 -0.10117121 -0.0039306898 0.11780834 -0.034556463 -0.0081340205
0.03641335 0.025701586 0.0008141922 -0.012715614 0.02615513 -0.0008772469 0.022110445 0.011818386
0.04704548 -0.026627691 -0.06876845 -0.024546918 -0.0073639187 0.075047575 -0.005163506 0.060160283
-0.057983994 0.1436427 0.07651876 -0.00013654107 -0.012647099 0.0031602285 -0.06097069 -0.022078747
0.027452717 0.049836442 -0.03177656 -0.04421299 0.0032209076 0.016007412 0.006482875 0.03862233
0.0044737277 -0.0072095064 -0.014100055 -0.0023089137 -0.01566106 0.006104069 0.0052901357 -0.09307874
0.031054722 -0.056369603 0.037553865 0.05554111 -0.026153991 0.049866818 -0.006459656 0.041156907
-0.022073949 -0.04617767 0.01517263 0.016537264 0.012550193 -0.026635302 -0.04717739 -0.011603676
-0.004362014 -0.00197389 -0.08064633 0.02377633 0.020898392 0.033296704 0.012731622 -0.0719321
-0.046078295 0.006465357 0.109565295 -0.04559333 0.048711374 0.008400196 -0.008221173 0.05045978
0.008365779 -0.03744887 -0.012055907 0.0669281 -0.029513951 -0.024678616 0.045459483 0.009717775
-0.03186975 -0.00340123 -0.034435436 0.014507834 -0.018375766 -0.0050899773 -0.015244109 -0.037278354
0.0034182938 -0.06341749 -0.08853863 0.03028141 0.025730861 0.0077599925 0.01945667 0.004893615
0.0113387415 0.008671715 0.0023598922 -0.0026365456 -0.091798514 -0.032148886 0.015194101 0.07290545
-0.030776361 0.018069534 0.09076612 0.08922963 0.008472021 0.083074 -0.01338285 0.06015413
00000000: 22f2 923c 87a1 debc 64f2 143d 333a 03bd
00000010: 57a2 e0bc 7e8a 073d 6d09 153d 8c46 093d
00000020: 78ea 59bc 2872 2d3c e3ff 1c3c 23e3 493d
00000030: f480 b7b9 7e9c 383c 6e2b 82bc 8519 be3b
00000040: ef6b 12bd 08fe 31bd a181 1d3d 5489 ae3b
00000050: 523f 97bd aa0f c73c 479e 283d 7dcd bbbc
00000060: 5393 3bbd d9ec 7f3c f4f3 193d e024 fa3b
00000070: bca1 79bc fc1a a33c 1a2f d0bc 8907 3fbd
00000080: 66e8 3a3d 6de0 443d ab61 cc3c 4e91 3d3c
00000090: d118 343c fe40 083c aeae 20bd 1174 c2bd
000000a0: d39a 2a3d ecaa cbbc bba1 8cbc 85a7 8a3c
000000b0: 606a 40bd bd75 c63c c239 573d 05b8 09bc
000000c0: d879 773c efdf 9fbd 7514 3c3d f2c7 b4bd
000000d0: f2f2 ccbc 9be7 533c b638 9d3c bb39 523a
000000e0: 60d5 10bd 0aff d6bc 0503 003d 81ef 833d
000000f0: d164 b9bc db1b db3c 5bdc 9abd 638d 54bd
00000100: 275f 63bd 9518 06bd 2453 d53c afb2 003e
00000110: cc0c 5fbc 8f54 ecbb 2a95 7fbb 3394 3fbe
00000120: 77e6 983d 7658 d43b 93a7 a9bc 6341 673c
00000130: 52c8 cabd 8f55 d53c 2535 dd3b 3c2c abbd
00000140: 2e93 44bc 2a06 873d ebfb 12bd 81fe 8fbc
00000150: b48f 8b3d 903d a43c 49ab c73c 690b 13bd
00000160: b884 223d 39ca 15bc 9e80 ee3c 2f36 f33c
00000170: 7de4 35bb 617e 45bd 109f 373c 4a7c 1abc
00000180: 7210 8abd a971 01b9 043b e93b 20d5 8a3c
00000190: de30 31bc a486 30bd 41eb 9ebb 7d4b 9abc
000001a0: 23b9 85bc 2762 19bc 4985 d53b 03ad 813c
000001b0: 1d06 8f3c 9be6 343d 662c c43c 72ee 4ebc
000001c0: d922 983c bba0 883c b325 15bd dd17 adbc
000001d0: 9b70 d0ba 67a2 76bd 3f4e 9e3c 370b ea3c
000001e0: 7de7 dc3b 7fe7 42bd 81da a6bb e281 afbb
000001f0: e392 85bd 53dc 5abc a64b 273d 0f21 71bc
00000200: add7 ab3c 4688 e3bb f66b c5bb e72d 51bd
00000210: aa77 e53c 5536 dcbc 3128 cd3c 2020 eabc
00000220: 64de 99bd 1644 e7bc f651 053d da32 cfbd
00000230: 04cd 80bb 8045 f13d 148b 0dbd 8e44 05bc
00000240: 2a26 153d 228c d23c 836f 553a 2755 50bc
00000250: 4843 d63c 0bf7 65ba f720 b53c e7a1 413c
00000260: c3b2 403d 5122 dabc 79d6 8cbd 9e16 c9bc
00000270: 074d f1bb 8bb2 993d a132 a9bb a16a 763d
00000280: a080 6dbd 1217 133e deb5 9c3d 772c 0fb9
00000290: c735 4fbc d61b 4f3b 67bc 79bd 7dde b4bc
000002a0: 85e4 e03c 4c21 4c3d 2328 02bd ae18 35bd
000002b0: dd15 533b fa21 833c 4c6e d43b 7332 1e3d
000002c0: 5998 923b b93d ecbb eb03 67bc 2551 17bb
000002d0: a04b 80bc a404 c83b e058 ad3b 11a0 bebd
000002e0: 7966 fe3c d0e3 66bd 15d2 193d 137f 633d
000002f0: e540 d6bc 2641 4c3d 86ab d3bb 2594 283d
00000300: 6dd4 b4bc cc24 3dbd 9f96 783c 2879 873c
00000310: 539f 4d3c 4732 dabc 143d 41bd 581d 3ebc
00000320: 3aef 8ebb 615c 01bb e729 a5bd 94c6 c23c
00000330: 1b33 ab3c 2062 083d 4b98 503c 2351 93bd
00000340: 98bc 3cbd 58db d33b c563 e03d 12c0 3abd
00000350: 9485 473d faa0 093c 19b2 06bc eaae 4e3d
00000360: 9f10 093c fc63 19bd 2486 45bc 9a11 893d
00000370: 3ec7 f1bc cf2a cabc b933 3a3d 4d37 1f3c
00000380: db89 02bd 2ce7 5ebb 2c0c 0dbd 44b2 6d3c
00000390: c688 96bc d3c9 a6bb 6dc2 79bc 30b1 18bd
000003a0: 7405 603b 07e1 81bd be53 b5bd b810 f83c
000003b0: 87c9 d23c 8947 fe3b 9863 9f3c 9e5a a03b
000003c0: 21c6 393c cf13 0e3c 6ca8 1a3b e5c9 2cbb
000003d0: dc00 bcbd 8dae 03bd aef0 783c 744f 953d
000003e0: b51e fcbc 8f06 943c 96e3 b93d 06be b63d
000003f0: 3bce 0a3c b422 aa3d be43 5bbc 2d64 763d
