NCA Parameters/CLIP Guidance/An image in the style of vaporwave.pt (torch, 65431 bytes, 6 tensors)

weight f4 [90, 72, 1, 1]
000000 03 60 81 bb e0 a4 b0 3d ee 1f 19 3d eb 4c d0 3c
       -0.003948213 0.086251974 0.037383966 0.025427302
000010 16 f8 d2 3b 4e b1 e0 3b 49 a6 dc bc 68 5f a0 bc
       0.0064382656 0.006857074 -0.02693476 -0.019576743
000020 25 21 f6 bc e3 3b b7 3d 10 b4 e7 bd bd 9b 27 3e
       -0.030045101 0.08946969 -0.11313641 0.16368003
000030 51 83 fb 3c 01 15 8c bc ec 02 a9 3d 65 37 b5 3c
       0.030702265 -0.01709986 0.082525104 0.02212114
000040 fe 32 52 3d a9 e2 00 3c d4 6e 40 3d ef 95 b8 38
       0.05131816 0.00786654 0.046980694 8.801731e-05
000050 89 9a 49 3b 30 7f 75 3c 73 e6 35 3d 42 1f a2 bb
       0.0030762276 0.014983937 0.044409227 -0.004947574
000060 fd e5 41 3c 59 fb 8f bc 8c 64 17 3c 31 53 ab 3c
       0.011834619 -0.017575907 0.009240281 0.020913692
000070 49 26 3f 3b e4 c1 2a bc 96 8d 0f 3c cf 10 d5 bc
       0.0029167107 -0.010422204 0.008761784 -0.026008992
000080 1e dd d4 3b 20 28 80 3b 74 3b 5f 3d d3 89 82 3b
       0.006496086 0.0039110333 0.05450006 0.003983715
000090 38 8a cd 3c 58 b1 29 bc ef 3b 74 bb ca 3f 1e 3c
       0.025090322 -0.010357223 -0.0037267169 0.009658763
0000a0 6a 98 9a 3c 13 0e f0 bb 7d bc bf 3b 66 75 03 3d
       0.018871505 -0.0073258965 0.005851327 0.03209438
0000b0 a8 e1 eb bb 47 d1 21 bd 9b 33 93 3c 3c 5e b9 bd
       -0.007198531 -0.039506223 0.017968943 -0.09051177
0000c0 d4 6f 6a 3d cd 34 e5 3c a9 24 59 3d 71 dc 7f 3d
       0.057235554 0.027979279 0.053013477 0.06246609
0000d0 fd 63 94 bd 52 6d 04 3d 4d be d4 3c ee 77 89 3d
       -0.07245634 0.03233082 0.025969649 0.06712328
0000e0 67 85 8e bc 49 db be bc 4b 34 9c 3c da 32 54 bc
       -0.017397596 -0.023297923 0.019067904 -0.012951577
0000f0 4b 0d de bb 8b ad 29 3d c9 29 7d bd b3 73 36 bb
       -0.006776487 0.04142527 -0.061807428 -0.0027839958
000100 fc 79 61 bd d2 c2 8b bc 81 c3 32 bd bb cf 02 bd
       -0.055047974 -0.017060671 -0.04364348 -0.03193639
000110 95 21 52 bd 5c d2 16 3d 22 ce 0d ba b2 f1 9b bc
       -0.051301558 0.036821708 -0.00054094393 -0.019036148
000120 39 ce c4 bd 29 22 08 3d 4f 25 e5 3c 6a 3f 02 3d
       -0.09609646 0.033235703 0.027971892 0.031798758
000130 99 c5 2f 3d fc 6a 87 3c 53 18 ad bc 33 42 88 bc
       0.042913053 0.016530506 -0.021129763 -0.016633129
000140 37 a8 21 3c 9a 57 a0 3d 94 e4 5e bd 32 00 94 3d
       0.009866766 0.07829209 -0.054417208 0.072266
000150 03 61 a9 bd 82 28 cc bd e9 58 b1 3d 7f 6d 49 bd
       -0.08270457 -0.09968664 0.086595364 -0.04917669
000160 7e e3 68 3c eb 7c 07 be b5 60 20 3d fa 80 a4 bb
       0.014214395 -0.13231246 0.039154727 -0.005020258
000170 c3 68 4a bc 69 55 06 bc 01 de 0a 3c d6 d0 40 3c
       -0.012354079 -0.008199074 0.008475781 0.01176854
000180 a5 99 a5 3c 6d 28 35 3d 96 92 e4 bc ad 76 e3 3c
       0.020214865 0.044228006 -0.027901929 0.02776655
000190 19 9e ac bd 58 c3 14 3a d0 bd 01 3d de a3 c2 bc
       -0.08428592 0.00056748604 0.03167516 -0.023759779
0001a0 39 8a a3 3c 94 01 06 bb e4 98 8b bd 94 c5 29 bc
       0.01996337 -0.0020447718 -0.06816271 -0.010362048
0001b0 ff 13 d2 bc cb df 10 bc 6e 4d 84 3b 2d 8d ca 3c
       -0.0256443 -0.008842419 0.0040375507 0.024725521
0001c0 c5 bc 67 3c 05 06 2a 3b e9 4d e0 bc 94 e2 b9 bb
       0.014144127 0.002594353 -0.0273809 -0.005672762
0001d0 45 e7 75 bb 85 ca 60 bd 6b 94 f9 bc 86 17 90 bd
       -0.003752188 -0.054880638 -0.030466279 -0.07035737
0001e0 6d d7 88 3d 87 cd a2 bc b8 8c 4d 3d 91 21 26 3d
       0.06681714 -0.019873394 0.050183028 0.040559355
0001f0 f9 20 8d bc 8b 04 9a 3d 6d 2e 91 3d 71 7e ae bd
       -0.017227637 0.07520398 0.07088933 -0.085202105
000200 4b c4 0e 3d 7e d4 f0 39 c3 ac d7 3d ab f2 1c 3d
       0.03485517 0.00045934686 0.105309986 0.038317364
000210 99 7f d0 bc 87 90 98 bd 32 cf 5b 3d af 25 8d 3c
       -0.025451468 -0.074494414 0.053664394 0.017229883
000220 c2 e9 f0 ba 11 02 7b 3b 1b 11 a3 bd dc 04 86 bd
       -0.0018380212 0.0038300792 -0.07962247 -0.065438956
000230 35 cf 25 bd 49 81 7b 3d e2 4e 0a 3e 40 9a a2 3c
       -0.04048081 0.061402593 0.13506654 0.019848943
000240 2b 83 c4 bd ef 3b 18 3d b2 45 8c 3d 8d 09 a9 3c
       -0.09595331 0.037166532 0.06849231 0.020634437
000250 3d 5d f4 3c d8 f4 a2 bc ff d1 6e bb 31 b3 1b 3c
       0.029829616 -0.019892141 -0.0036441085 0.009503172
000260 15 e5 99 bc 56 9a 10 3e 23 48 7a bd 02 71 fe 3c
       -0.018785993 0.14121374 -0.06110395 0.031059746
000270 80 d1 81 bd 8a 25 b1 3d ed 82 13 bd 40 9c 64 3c
       -0.06338787 0.08649738 -0.036013532 0.0139532685
000280 a1 76 d1 3c 30 ef e4 3c 55 97 e4 3c f8 ca 28 3b
       0.025569262 0.027946085 0.027904192 0.0025755744
000290 1a b6 45 3d 41 78 c3 bc 51 a7 6b 3d 1d 66 d5 3c
       0.04826937 -0.023861052 0.057532612 0.026049668
0002a0 2f 58 27 3b f0 b2 28 bd 77 af f3 3c 20 92 d3 bb
       0.002553474 -0.041186273 0.029746754 -0.0064566284
0002b0 24 0d 59 3d ca 66 89 bc e8 8d 1b 3a 39 80 a5 b9
       0.052991048 -0.016772646 0.00059339264 -0.00031566786
0002c0 06 65 83 bc 4f 76 93 3c c6 84 71 3d 11 ac b7 39
       -0.016039383 0.01800075 0.058964513 0.0003503268
0002d0 c2 ea 36 3c db de 97 3b b3 62 8e 39 36 97 21 3b
       0.011164369 0.0046347207 0.00027157887 0.002465678
0002e0 00 4d 85 bb 14 0b 15 ba 93 6d e8 3b 58 99 f4 3b
       -0.004068017 -0.00056855497 0.0070931404 0.007464569
0002f0 2f 1c d9 bb 33 32 44 bd b5 d2 68 3d d0 15 81 bd
       -0.006625674 -0.047899436 0.05684157 -0.063029885
000300 54 90 9d 3d 1f 99 22 bd 9d 58 3f 3d d6 65 cf bc
       0.07693544 -0.03969681 0.046715368 -0.025317114
000310 e6 3a 85 bd 13 7d 13 3b da c5 eb 3c 75 84 d5 3c
       -0.065053746 0.002250497 0.028780866 0.026064137
000320 f7 ef 92 3c 63 05 e1 3c 58 a3 0c bd 93 b2 92 bc
       0.01793669 0.027468389 -0.034335464 -0.017907416
000330 a9 eb 4f 3c 16 66 8d 3d 21 81 b9 3c 64 a4 f6 ba
       0.012690463 0.06904237 0.022644581 -0.0018817303
000340 34 aa a9 bd 83 ca 5f bc 62 ee a0 3c 0d e9 15 bc
       -0.08284417 -0.013659122 0.01964492 -0.009149802
000350 2e cd 1c bd 95 7c 02 ba 44 32 58 bd 56 45 d7 3b
       -0.038281612 -0.00049776706 -0.052782312 0.006569545
000360 ae 15 b4 3c 4d 97 ac 3d 32 6c 17 3e 06 00 af 3c
       0.021982994 0.08427296 0.14787367 0.021362316
000370 b6 e5 5c 3d 77 31 10 3d 3b 47 3b 3d e0 e1 2d 3d
       0.053930007 0.035203423 0.045722228 0.04245174
000380 9c d7 39 3d 6a 29 b1 bc 06 83 a5 3c b9 de 06 be
       0.045371637 -0.021626193 0.020204078 -0.131709
000390 98 cd 1a bd 6e bd 98 3d e5 8c 67 bd c5 dc 00 bd
       -0.037793726 0.07458006 -0.056530852 -0.031460542
0003a0 2d da e2 3a 39 07 6a 3c c4 57 c0 bb 0a f4 d5 bc
       0.0017307453 0.014283949 -0.0058698375 -0.026117343
0003b0 35 c7 33 bd ad ac ed ba 93 5d a6 bc 7c d4 32 bd
       -0.04389115 -0.0018133126 -0.020308292 -0.043659672
0003c0 1c d6 c8 3c fd 54 29 bd f1 3a 69 3b 95 02 d7 bc
       0.024516158 -0.041340817 0.003558811 -0.026246348
0003d0 36 10 e7 bc ed af 70 ba 89 a5 7b 3d f4 a5 98 3a
       -0.028205972 -0.00091814884 0.061437164 0.0011646138
0003e0 02 c7 47 3b b6 8d 89 3d a7 19 92 bd 98 8c f0 bb
       0.0030483608 0.06716482 -0.07133799 -0.007340979
0003f0 1c 65 70 bc b8 7f 19 3d 39 41 00 bb 54 de 08 3d
       -0.014672544 0.037475318 -0.0019570126 0.033415154

bias f4 [90]
000000 99 af 1d bd 64 ae 2a 3d f6 75 d5 bb c5 ea 9f bd
       -0.03849754 0.041670218 -0.006514306 -0.078084506
000010 a9 4a c8 bc 37 2e 95 bd 90 31 8c 3d ec 59 ac bd
       -0.024449663 -0.072842054 0.06845391 -0.08415589
000020 9f 2d a0 3d 91 4c 25 3d ed 98 ce bc 8a 38 c9 39
       0.078212015 0.040356223 -0.025219405 0.00038379832
000030 8e 11 64 3d 8d c5 5c bc 74 63 37 bd dd b7 84 bd
       0.055680804 -0.013474834 -0.04477258 -0.06480382
000040 f2 6b 0c 3d 77 13 5a bd 9f b0 6e 3d da 6f 69 3d
       0.034282632 -0.05324122 0.058273908 0.056991436
000050 ac 75 01 3d ce cc 52 3a 2b 62 94 3c b9 0f 9d bc
       0.03160636 0.00080413825 0.018113216 -0.019172536
000060 88 96 cf 3c c0 dc 4e 3d 9a 39 4f 3d 71 92 a9 3c
       0.025340334 0.050503492 0.050592043 0.020699712
000070 9f 91 ec 3a d7 a0 34 bb 56 f8 25 3d a2 a8 db 38
       0.001804877 -0.0027561688 0.040520035 0.00010474144
000080 39 c8 fa bd c0 aa 1b bc a5 ba dc bb a7 0b 46 3c
       -0.12245221 -0.009501159 -0.006736117 0.012087739
000090 b0 1d a4 bc 45 35 6f bd ae e3 00 be c0 95 fa bc
       -0.020033687 -0.05840041 -0.12586853 -0.030588984
0000a0 bf 81 ef bd 1c d4 80 3d 14 c2 00 be 56 46 96 bd
       -0.11694669 0.06290457 -0.12574035 -0.07337634
0000b0 91 f2 81 bd 3e 60 54 3d 7d 9e b3 bc f5 d7 44 bd
       -0.06345094 0.051849596 -0.021926159 -0.048057515
0000c0 91 15 b2 bc b2 b6 3d 3d 97 7e 38 bd db df de 3b
       -0.0217388 0.04631681 -0.0450426 0.006801588
0000d0 54 14 30 be 87 9c dd bd 56 32 d3 bd 57 d6 c2 3c
       -0.17195255 -0.10820871 -0.10312335 0.023783846
0000e0 2d 25 9c bd 09 ca 08 3d 34 2d 9c bd 64 e7 da 3b
       -0.07624278 0.0333958 -0.07625809 0.006680416
0000f0 d1 5c 91 3d a2 0e 3a 3d af 60 68 bb 89 30 79 bb
       0.070977814 0.04542411 -0.0035458019 -0.0038023314
000100 0d b1 3a bd 57 66 e7 bd 7b 3d 5e bb 85 f7 b6 bd
       -0.045579005 -0.11298817 -0.0033911157 -0.08933929
000110 af 92 5f 3d 67 9c 78 bd 01 13 b1 3c bf 54 4b 3d
       0.054583248 -0.060696032 0.021615507 0.049641367
000120 0f 34 01 be 92 36 16 3d d8 b6 d0 bc d0 29 89 bd
       -0.12617515 0.036673136 -0.025477812 -0.06697428
000130 a0 16 89 bb c2 d1 a3 bd 26 cf 0a bd e2 2f d8 bd
       -0.0041836053 -0.079989925 -0.03388896 -0.10556008
000140 2f fb b5 bd 29 17 58 bd 16 e1 12 bd 2a 17 82 bc
       -0.088858 -0.052756462 -0.03585919 -0.015880186
000150 c6 69 b7 bd c7 f0 22 bd a8 47 81 bd 0d 74 8b bd
       -0.089557216 -0.039780404 -0.063124955 -0.06809244
000160 33 4d be bc 5c 15 3c bd
       -0.02323017 -0.045918807

weight f4 [90, 90, 1, 1]
000000 ff 3f 98 bc 90 7a 66 3a 0b 3f 17 bb 56 9d 38 bd
       -0.018585203 0.0008792067 -0.0023078348 -0.045071922
000010 fb ec 0e bd 9b f1 cb 3c 55 0c c7 3b fc 03 2a bd
       -0.03489397 0.02489548 0.006074468 -0.041507706
000020 43 eb 59 bd db 8d 0d 3d f7 3a 07 3d 57 e8 1b 3d
       -0.05320288 0.034559112 0.033015218 0.038063373
000030 9c 4d ab 3d 9c bb 6d bd da bc 53 bc 92 34 59 bd
       0.08364412 -0.058040246 -0.012923444 -0.05302865
000040 05 0e be bc 9d f5 88 bc 4e 80 af bc de 22 4c bd
       -0.023200044 -0.01671868 -0.021423485 -0.04983794
000050 0e 28 bd 3d e1 98 3c 3d 4c 7e 16 bd fb 2e 39 ba
       0.092361555 0.046044234 -0.03674154 -0.00070641906
000060 85 67 55 3d a3 5c 39 bd 7f 3e 91 3d 1f 96 87 3c
       0.052100677 -0.04525436 0.07091998 0.016551076
000070 60 5a 9b bc ee bf 6c 3d 6c c3 a8 3d e1 97 8c 3a
       -0.018963993 0.057800226 0.08240399 0.0010726416
000080 34 50 67 bd 65 83 85 3d 9f f6 89 3d ef ad 01 3d
       -0.056472972 0.06519202 0.06736492 0.031660017
000090 94 5f 42 bb 45 94 df 3c c8 25 5f bc 47 64 1c 3d
       -0.002965902 0.02729238 -0.013619848 0.03818157
0000a0 15 91 d0 bc 5f af a1 bb 1c c8 14 bd 19 9f bb 3c
       -0.025459806 -0.004934236 -0.03632365 0.022903012
0000b0 3f 57 88 bc a8 e6 47 3c 14 4b 93 3c 24 87 ad 3c
       -0.016643165 0.012200989 0.017980136 0.021182604
0000c0 f5 0f f2 3c 07 27 a6 bc 0c f7 a6 3d 39 e5 10 3c
       0.029548625 -0.020282282 0.08152589 0.008843713
0000d0 32 d8 5f 3d a7 d0 12 bb 56 49 03 bd 07 5e fc 39
       0.05464954 -0.0022402199 -0.03205236 0.0004813524
0000e0 e5 1b 14 3c 34 6e 22 bc a5 66 70 bc 53 1a 14 3c
       0.009039854 -0.00991397 -0.01467291 0.009039479
0000f0 96 fb 0b 3e 95 db c5 bc 94 e2 03 3e eb 5c 92 3d
       0.13670191 -0.024152556 0.12879401 0.07146629
000100 f1 d2 38 3d f1 83 14 bd df 25 f7 3a 45 dc 45 bc
       0.045123044 -0.03625864 0.0018855891 -0.012076442
000110 91 de 75 bc a8 1c 1d bd 7b d0 7c b9 81 eb ae bc
       -0.015006677 -0.038357407 -0.00024110258 -0.021352531
000120 64 5d 13 3d 6b f3 c7 ba 7b c3 3b 3c 5c 4c 45 bc
       0.035977736 -0.0015255039 0.01146018 -0.012042131
000130 7f df 60 3d 40 80 62 3d 48 61 5f 3c eb 36 24 bc
       0.054900642 0.05529809 0.0136340335 -0.010022859
000140 e0 d3 ca bc cd ce 25 3c bb 7a 89 bb 05 18 ae 3c
       -0.024759233 0.010120106 -0.004195539 0.021251688
000150 b4 76 f4 bd 12 30 7d 3c ef 14 58 bd c0 eb 82 bd
       -0.11936703 0.015453355 -0.05275434 -0.06392622
000160 8b e4 e3 3b fc 77 20 3d 4f bb 84 3c da 7c 28 3c
       0.0069547347 0.039176926 0.016202597 0.010283673
000170 22 39 2d 3c b1 fa 34 bd 4a 69 7f bd ae 08 38 bd
       0.010572704 -0.04418439 -0.06235627 -0.044930153
000180 19 2e 5b 3d a3 84 6b 3c 27 47 9c 3c ba df a2 bc
       0.05351076 0.014374885 0.019076897 -0.019882072
000190 02 df 16 bd cd d4 73 3d 05 6c 86 bc f0 54 fd 3c
       -0.03683377 0.059529115 -0.01640893 0.03092429
0001a0 08 ae 4f bb a0 e4 13 3d a3 96 5b 3d f0 3f a9 bd
       -0.0031689424 0.036106706 0.053610455 -0.08264148
0001b0 c4 e5 bf 3c b3 12 26 bc df fe af bc 5c 44 c8 ba
       0.02342499 -0.010136294 -0.021483837 -0.0015279162
0001c0 43 8b 8c bc 1b 11 74 bd 41 df e6 3b b1 98 c0 3a
       -0.017156249 -0.059586626 0.007045657 0.0014693943
0001d0 ae dc 0e bd e7 fa 88 3d 82 9d a3 bd d2 4a c0 3b
       -0.034878425 0.06688481 -0.079890266 0.0058682943
0001e0 e6 e7 27 3d c1 7a c6 ba bb c4 4f 3c e4 b1 d3 3c
       0.04099264 -0.0015142785 0.012681182 0.02584166
0001f0 de 28 42 bc 01 c0 ce bd 33 dd 3a 3d e0 81 1b 3c
       -0.011850564 -0.100952156 0.04562111 0.009491414
000200 9d 38 d8 3c 2a 8e b9 3b a5 78 a2 bc 63 df 50 bd
       0.026394183 0.005662699 -0.019832918 -0.05099429
000210 dc 4e 10 3e c4 a9 60 bb 02 16 68 bc 2b 3d c4 ba
       0.14092582 -0.0034280876 -0.014165403 -0.0014971843
000220 15 4d 1a 3d 25 10 b0 3d bb 31 85 bc 38 83 68 bd
       0.037671167 0.08596829 -0.016259065 -0.056765765
000230 cc 67 f0 bb df a3 80 bc 1f 97 0b 3d 37 cc f6 bc
       -0.0073365923 -0.01570314 0.034079667 -0.030126674
000240 e1 62 1e bc ef 95 0e bc df f8 ed ba 7c a1 c0 3d
       -0.009667129 -0.008702739 -0.0018155834 0.09405801
000250 3c 51 c6 3c 9c 09 40 bd f0 39 57 bd fd b1 f1 bc
       0.024208657 -0.046884164 -0.052545488 -0.029503817
000260 1b b5 62 bc 63 a3 2e bd c6 a6 08 3d 66 59 57 bc
       -0.013837124 -0.042636286 0.033362173 -0.013143873
000270 da 29 eb bb 10 0b 02 bd e7 3f 91 3c 06 89 6f bd
       -0.00717662 -0.03174883 0.017730666 -0.058480285
000280 34 1d f6 3c db 0e 64 bd f5 99 43 bb 06 2c 72 bc
       0.030043222 -0.05567823 -0.0029846404 -0.014781004
000290 a4 cf c2 bc d9 c3 78 3d 21 c5 11 3c 67 f0 41 bc
       -0.023780651 0.06073365 0.008897097 -0.011837102
0002a0 48 51 12 3d 6a ff fe bc 6c f5 dd 3c 30 76 b7 3c
       0.035722047 -0.03112765 0.027094565 0.022395223
0002b0 4a f9 4a bb 87 5c 29 3d 95 67 41 bc c2 79 bf bc
       -0.0030971342 0.041348007 -0.011804481 -0.023373488
0002c0 85 63 61 3d 92 e4 53 bd f2 3f 45 bc 92 12 86 bb
       0.05502655 -0.051731654 -0.0120391715 -0.004091569
0002d0 af b4 4b bc 5b ef 68 3d a1 a5 0f 3d a0 56 88 3b
       -0.012433215 0.056868892 0.035070065 0.004160717
0002e0 99 89 35 bd 37 6f 96 bc bf 74 8c 3d f8 c7 79 3d
       -0.044320676 -0.018363578 0.06858205 0.06098172
0002f0 75 21 d0 bc cb 7e 93 3c 2c aa 52 bd 41 8a 88 3b
       -0.025406579 0.018004796 -0.05143182 0.004166872
000300 7f 7f de bc a1 58 05 3c 6e b9 08 3c b6 c3 83 3d
       -0.027160404 0.008138807 0.008344991 0.06433813
000310 e2 56 f7 3c 3f a4 23 bc c8 c2 ff 3d 85 f8 d0 3c
       0.030192796 -0.00998789 0.124883235 0.025509128
000320 94 db 65 bc 1c 76 26 bd 16 46 c8 3c 67 04 73 bd
       -0.014029402 -0.04063998 0.024447482 -0.05933037
000330 e6 11 b1 3c 30 ca 0f bc 15 4d 32 bd b9 b3 4b 3d
       0.02161498 -0.008776233 -0.043530542 0.049731944
000340 3e 68 71 bd d8 b8 12 3b 67 a4 15 bc 5e c3 d3 bb
       -0.058937304 0.0022388007 -0.009133435 -0.0064624986
000350 e8 b4 a3 3d 68 b4 a5 39 8b 20 e9 3c 2c 53 84 bc
       0.079934895 0.00031605666 0.0284579 -0.01615294
000360 65 7d 11 3c d3 a6 1b bc 0f 90 ae bb 2f 3e c8 3c
       0.008879994 -0.009500223 -0.0053272317 0.024443714
000370 6f b2 b8 3b af 9a 31 bd 52 e9 ad 3d 81 24 a4 3c
       0.0056365053 -0.04336041 0.08491768 0.020036938
000380 dc 9d 7e bc 0e f4 02 bd 26 9a 1a 3c 83 03 1f 3d
       -0.015540566 -0.03197103 0.009436166 0.03882171
000390 52 02 0c bd 43 a1 e9 39 56 2a b4 bc da 57 ab 3c
       -0.0341819 0.00044561372 -0.021992844 0.020915914
0003a0 c9 88 82 3c 0e b2 da bc 7f 29 72 bc 55 88 06 bc
       0.015934365 -0.026696231 -0.014780401 -0.008211215
0003b0 04 94 6f 3c de ad 1e 3d 90 1a 30 3c f6 1f 51 bd
       0.014622692 0.03874003 0.0107485205 -0.05105587
0003c0 44 5d fb bd 20 11 8f 3b 5b bc 8c bd c1 65 ab bc
       -0.122736484 0.004366055 -0.068718635 -0.020922543
0003d0 b3 88 54 bc aa 75 4e bc 53 9f 83 3c 39 aa 72 bc
       -0.012972045 -0.0126012955 0.016067183 -0.014811092
0003e0 44 d4 cb 3c 21 af 01 bd eb e0 69 3d c5 19 60 bd
       0.02488149 -0.031661157 0.057099264 -0.054712076
0003f0 32 20 55 3c d4 88 ec 3c 20 c2 c7 bb f4 0b 17 3d
       0.013008164 0.028873838 -0.0060961396 0.036876634

bias f4 [90]
000000 a1 63 ca bc 17 a5 d2 3b 16 e3 81 3c 88 96 9f bc
       -0.02470571 0.0064283716 0.015855353 -0.019480959
000010 ab 9e 25 bc dc 01 8b bc bd 33 76 bc 1d f9 98 3c
       -0.01010863 -0.01696866 -0.015026984 0.018673474
000020 ba 66 f6 bc 2d b5 9f bc 4f 11 96 bc 4a f2 c9 3d
       -0.03007828 -0.019495571 -0.0183188 0.09860666
000030 ac 24 be bc 91 c1 00 bb 6b bd bc bc d3 46 8b 3c
       -0.023210846 -0.0019646625 -0.02303954 0.017001545
000040 89 3d 1d bc 3f bd bd bc 12 a3 f3 bc 7e 9e 2e 3c
       -0.009597191 -0.023161529 -0.029740844 0.010657905
000050 a2 dc df bc 4c 07 32 3c dd 1b 82 bc 79 a6 bd 3b
       -0.027326886 0.0108659975 -0.015882427 0.0057876674
000060 5e b7 48 bd e9 ec 06 3d 7b 1d 47 bb aa de 83 bc
       -0.049002998 0.03294078 -0.0030382562 -0.016097385
000070 73 20 77 3b 42 e7 3e bd 60 06 cc bc 43 7e d5 bc
       0.003770855 -0.046607263 -0.024905384 -0.026061183
000080 be c3 3d bc 29 bb ed bc 2a 62 da bc a7 6a f6 bc
       -0.011582313 -0.029019909 -0.026658136 -0.030080153
000090 60 f4 09 bc 9e a9 89 3d 71 39 ac bc 05 11 94 bc
       -0.00842008 0.06721805 -0.021023484 -0.018074522
0000a0 50 3f 5c bc 16 c0 5e 3d d3 7e ab 3b 22 77 82 bc
       -0.013442829 0.054382406 0.0052336245 -0.015925948
0000b0 07 73 1d bd f4 59 6d bb 0a 9b 07 bc 85 00 87 bc
       -0.038439777 -0.0036216946 -0.00827671 -0.01647974
0000c0 b5 0f 15 bc d0 54 9b bc 64 1b 67 bc a8 77 20 bc
       -0.009097983 -0.01896134 -0.0141056515 -0.009794153
0000d0 45 bd 86 3d 33 e1 91 bc 3b c0 2c 3d 55 5d d7 3b
       0.06579069 -0.017807579 0.042175513 0.0065724053
0000e0 e3 f8 c0 bc 9e 1b db bc 09 ce 8a 3c 6e 68 42 bc
       -0.023556178 -0.026746567 0.016943948 -0.011865718
0000f0 db 3d e2 bc 56 ef 20 bd 6b 7f d5 bc e5 ac fd bb
       -0.027617386 -0.03929075 -0.026061734 -0.007741558
000100 ba 05 75 bc 84 9f e8 3c 10 f4 aa 3b 13 34 b5 bb
       -0.014954979 0.028396375 0.005217083 -0.0055298894
000110 8d 20 9e bc a6 7e 00 bc 9c 49 8a bc 3f cb cf 3b
       -0.01930263 -0.007842695 -0.016880803 0.0063413675
000120 09 e5 3a bd 2f 31 a7 bb fd b8 e8 bc 97 51 0d bd
       -0.04562858 -0.0051022987 -0.028408522 -0.03450164
000130 cb 52 47 bb c0 c0 50 bc 69 ca 01 bb ae 0c d8 bb
       -0.0030414339 -0.012741268 -0.0019804484 -0.0065933084
000140 90 f5 cc bc 53 82 4c bc 48 0e 61 3d da be d3 bb
       -0.025019437 -0.012482244 0.05494526 -0.0064619603
000150 94 37 11 3b f7 3f a3 3c df 26 6b bc 29 c3 60 bc
       0.0022158371 0.019927962 -0.014352529 -0.013718405
000160 30 a0 82 bc e2 58 78 b9
       -0.015945524 -0.00023684234

weight f4 [9, 90, 1, 1]
000000 2b 93 8a bb 4f 35 56 bd 36 40 1b bd 5c e8 41 bd
       -0.0042289696 -0.052296933 -0.037903033 -0.047340736
000010 6b c2 95 bd d3 0a e8 bb 7c e8 43 3c 11 31 42 3b
       -0.07312473 -0.0070813685 0.011957284 0.0029631297
000020 ef d9 e3 3a c8 a3 a6 bb 5e 7a 19 3c f5 8d 4b 3d
       0.0017383675 -0.005085442 0.0093675535 0.049695928
000030 2c ac e4 b9 9c 3c 49 bb 9b 56 d1 3a 12 fb 59 bb
       -0.00043615827 -0.0030706292 0.0015971245 -0.0033261222
000040 56 f2 99 bc e8 39 cf bc 56 36 32 3c 3d 7e 29 3c
       -0.018792313 -0.025296167 0.0108772125 0.010345039
000050 76 c0 7b bb 25 f9 88 bd 68 30 d2 3c 16 6f 7e bd
       -0.0038414276 -0.066881455 0.025657848 -0.06211766
000060 c5 03 d0 3c 21 8f 8e 3d 11 18 35 3d 59 61 80 bc
       0.025392422 0.069608934 0.044212405 -0.015671419
000070 85 55 bd bc bc ab b4 bc 42 ed 68 bc 26 80 b9 bc
       -0.023112068 -0.022054546 -0.014216723 -0.022644114
000080 84 15 54 bb 94 86 e5 3b 60 08 ee bc 87 5e 7b ba
       -0.0032361457 0.0070045684 -0.029056728 -0.0009588976
000090 18 53 c0 bc 9b e9 ed 3b ed d4 98 bd 5e 8b 9d 3b
       -0.023477122 0.007260514 -0.07462487 0.0048078736
0000a0 a2 ad 84 bd 5f c2 b4 bd 89 c8 97 bd e2 2b 21 3a
       -0.0647843 -0.08826136 -0.07411296 0.00061482016
0000b0 ef e7 40 bc 4c 50 a9 bc e9 89 99 bb 3b d0 fe ba
       -0.011774047 -0.020668171 -0.0046856296 -0.001944072
0000c0 66 b4 0f 3c 74 28 62 bc ec 75 12 bd df b6 4b 3c
       0.008771038 -0.01380359 -0.03575699 0.012433737
0000d0 e0 8f 97 3d 69 e7 c2 bc 63 64 26 bd 8b ae 07 3c
       0.07400489 -0.023791986 -0.04062308 0.00828136
0000e0 b1 f5 95 bc a3 93 3a 3c f1 d6 d3 bd a2 d2 6f ba
       -0.018305631 0.011387738 -0.10343731 -0.0009148513
0000f0 02 42 0e 3c cd d1 5d 3c 5b aa 62 bd b8 cb f9 bc
       0.00868273 0.01353879 -0.055338245 -0.030492648
000100 3b b3 54 bc ab 4e 70 bc 22 19 d3 3b 5e 43 8d 3c
       -0.012982185 -0.014667193 0.006442205 0.017244037
000110 ae 24 47 3c 0f d2 05 3c 6b c7 a2 bd a3 e4 95 bc
       0.012154741 0.008167758 -0.07948192 -0.018297499
000120 31 10 a5 3c ff d2 4e 3c 8a ce 33 bc a5 50 b1 bb
       0.020149322 0.012623548 -0.010974536 -0.005411225
000130 66 b0 03 bd 49 f1 b5 bb 7f 24 1c bd 7e 85 6d bc
       -0.03215065 -0.005552445 -0.038120743 -0.014497159
000140 6a 12 9b 3b 4a 74 60 3b ef 5f dc 3b 68 27 0b 3c
       0.0047324197 0.0034249001 0.0067253034 0.008493282
000150 9c ef 77 ba 66 b9 8d 3d 23 ff a7 3c d6 6a ec ba
       -0.0009458007 0.069201276 0.0205074 -0.0018037211
000160 f7 4e 83 3a 7a b1 d9 3c 31 a2 51 3a 49 aa 74 bd
       0.001001804 0.026573885 0.00079968857 -0.05973271
000170 ee 07 51 bc 34 bc a9 bb c8 7e 92 bb bd f8 f4 bb
       -0.012758238 -0.0051799063 -0.00447068 -0.007475941
000180 e1 e0 13 bc 90 55 38 bd 5f e3 b2 3a 81 6f b4 bc
       -0.009025783 -0.045003474 0.0013648084 -0.022025825
000190 dc fb 62 bc 5a 24 df bd ef 22 1d bc cf 4d d8 3a
       -0.013853993 -0.108956054 -0.009590848 0.0016502681
0001a0 10 7b 0e bc 5e a3 32 bc 2d 96 6b 3c fb a4 0c bd
       -0.008696333 -0.010903208 0.014379066 -0.034337025
0001b0 5b 94 3a 3b 6c ca 0e bc 05 fb 81 ba 23 e3 5f 3c
       0.0028469774 -0.008715253 -0.0009916729 0.013664993
0001c0 fc 7c ed 3c 2a 22 43 bd 4b 16 20 bc 57 0f e9 bc
       0.028990261 -0.047640003 -0.00977094 -0.028449697
0001d0 2f 7f 06 3c 41 98 8c 3b c6 96 f3 3b 4c e1 1f 3b
       0.008209034 0.004290611 0.007433745 0.0024395762
0001e0 1c 62 79 bc 04 e0 f4 bb e3 0d 4c 3d df 2b 17 3b
       -0.015221145 -0.007472994 0.04981793 0.002306692
0001f0 65 b8 78 bd d0 52 5d bc 2b f1 99 bc d9 db 2f bd
       -0.060722727 -0.013508514 -0.018791756 -0.042934272
000200 c1 23 ba bc d8 80 5e bb 82 f5 a4 bb cc 2a 8a bd
       -0.022722127 -0.0033951309 -0.0050341496 -0.06746444
000210 b7 fd 1a bd d8 0e c1 bc a4 d8 08 bd e1 2e 32 bd
       -0.037839618 -0.023566648 -0.03340973 -0.04350174
000220 ab d4 21 3c cc 69 49 3b 41 7b e4 bb 35 2b 25 bd
       0.009877364 0.0030733226 -0.006972701 -0.04032441
000230 a6 e1 4c bb 09 4c 61 3a 8b 65 06 bd 1c c1 4f 3c
       -0.0031262427 0.0008594399 -0.032811683 0.012680318
000240 ee 6b df bd dc f6 d9 bd 06 31 84 3b 72 b9 66 3c
       -0.10909258 -0.10642788 0.0040341644 0.0140823
000250 25 d2 b6 3d c0 a1 37 3c 90 cc 69 3b de b9 df 3c
       0.08926801 0.011207998 0.0035674907 0.027310308
000260 02 df 2c bc 5a 8c fc 3b 29 e3 81 3b bb 62 09 3c
       -0.010551216 0.007707161 0.003963847 0.008385356
000270 db fd 99 bc 67 b7 74 bb eb 78 18 3c 96 93 82 ba
       -0.018797806 -0.0037340762 0.009306173 -0.0009962197
000280 14 0c 90 3c c8 40 02 3c c3 8f 00 bd 3b de 69 bc
       0.017583884 0.007950015 -0.0313871 -0.014274175
000290 d1 95 a2 3c cd cf 72 bb af ab a0 3b ed 73 30 bc
       0.019846829 -0.0037050128 0.004903279 -0.010769826
0002a0 08 cb 9f bd 7a c4 36 bd a6 6e 4f 3b 5d 08 01 ba
       -0.07802397 -0.04462097 0.0031651645 -0.00049222057
0002b0 aa 84 e1 3d 28 bb fe 3b 0d 95 ea bc dd a9 dc bc
       0.11011632 0.0077737756 -0.028635526 -0.026936466
0002c0 42 91 c2 ba 63 c7 f4 3b 6d 6d 86 3c 99 6d 1a bd
       -0.0014844316 0.007470058 0.0164096 -0.037702177
0002d0 ff fb 67 bd 80 6f ca 3b 19 0b b1 3b 4f 4b f1 bc
       -0.056636807 0.0061778426 0.0054029343 -0.029454855
0002e0 cb 7d 4d 3d ca e3 3d 3a 37 07 bf bc 14 6b b2 3c
       0.050168794 0.0007243721 -0.02331887 0.021779574
0002f0 fc 95 6e bd 63 66 c6 bd 0a 32 ca 3b 26 53 92 3d
       -0.058248505 -0.096874975 0.006170516 0.071447656
000300 93 b9 50 bc 2a 52 e8 3b e5 87 9e bc 1d 49 33 3d
       -0.012739557 0.007089873 -0.019351909 0.043770898
000310 da dd 89 bc c2 ea 89 bd fe bb 53 bc 4f 77 14 3c
       -0.01682942 -0.067342296 -0.012923239 0.0090616485
000320 fa 0f 88 bb a9 d3 be 3b 77 51 ab bd e6 d9 32 3d
       -0.004152295 0.0058235717 -0.083651476 0.043664835
000330 b8 66 ae 3c e8 27 87 bc 41 70 13 3d da 04 91 bc
       0.021289214 -0.016498521 0.035995726 -0.017702509
000340 18 b0 b5 bc 7d 7e df ba a9 76 d1 3c 03 81 40 bc
       -0.022178695 -0.0017051246 0.025569277 -0.011749509
000350 81 54 47 bd b5 55 86 3d 9d 88 94 bd 07 86 48 bc
       -0.048664574 0.06559316 -0.072526194 -0.012238986
000360 35 10 7f bc bc d1 db 3d cd 09 e3 bc 12 7b 5e 3c
       -0.015567829 0.10733363 -0.027714634 0.013579147
000370 da d8 79 3c 18 23 09 3d 5e 33 b8 3c cc 99 3d bb
       0.015249455 0.033480734 0.022485431 -0.0028930781
000380 bc b3 a5 bd 30 95 34 3c 54 3d 27 bc 9c c7 66 bc
       -0.08090922 0.011021897 -0.010207493 -0.0140856765
000390 55 05 09 3c 65 5e a0 bd b1 97 17 3d 29 f4 93 bb
       0.008363088 -0.07830504 0.0370099 -0.00451519
0003a0 a8 39 a2 3d 3a b9 2d bd 3f 5a c6 3c 0b 88 b1 bb
       0.07921153 -0.042412974 0.024212955 -0.005417829
0003b0 c4 b3 80 bc a9 92 a6 bc f9 87 18 3d 5e 5b 4b 3b
       -0.015710719 -0.020333605 0.03723905 0.00310298
0003c0 e9 68 7c bc 13 e8 9e bd 7e 20 d2 bc b4 08 01 bd
       -0.015405872 -0.077591084 -0.02565026 -0.03150244
0003d0 60 91 da 3b 3e 35 3d bd 59 96 80 bc 29 39 a4 bc
       0.006670162 -0.046193354 -0.015696691 -0.020046787
0003e0 0e 4b 21 bc 8c 9d 3a 3c b4 3f 00 bc 05 b3 5f bc
       -0.009844555 0.011390101 -0.007827688 -0.013653521
0003f0 07 36 01 bd 49 ab 4c 3c db 5a 7c bd 6b 06 54 bd
       -0.031545665 0.012492009 -0.061610084 -0.051763933

bias f4 [9]
000000 58 04 b4 3c 1e fd fa 3b d2 77 13 3d b7 6f 35 3c
       0.021974728 0.0076595685 0.03600294 0.011073998
000010 ee eb 6b bc 0f 7b 07 3c 88 3a ae 3b 18 ea ab 39
       -0.014399512 0.008269086 0.005317036 0.00032790075
000020 80 7a da bb
       -0.006667435
