NCA Parameters/Style Transfer/Afremov.pt (torch, 65115 bytes, 5 tensors)

weight f4 [90, 72, 1, 1]
-0.008873479 0.11777471 0.066979185 0.09332645 -0.17268346 0.0869952 0.049069073 0.006911335
-0.004445886 0.18660401 0.03606568 0.008498107 0.1316429 0.04574335 0.046196595 0.11570859
0.041097134 0.028796267 0.04085261 -0.05642036 0.05990249 0.018773923 0.07274212 -0.081918925
0.02301449 0.08536783 0.06286052 0.08792942 -0.010617214 0.044344664 0.014885527 0.02721264
0.044030923 0.0749999 0.032597315 0.07495897 0.036242634 -0.064283185 -0.04066959 0.047567654
-0.107981935 -0.025352005 -0.01858251 -0.026443826 0.037271086 0.08861117 -0.0075688385 -0.08055277
0.0913654 -0.025261639 0.08162088 0.040181518 0.022163674 -0.011756039 -0.019301187 0.042451315
-0.004262261 -0.033256337 0.033111725 0.09187962 0.025333712 -0.027005333 -0.07327635 0.034998577
-0.021478932 -0.08040602 -0.071430154 0.03267116 -0.008721225 0.08779792 -0.058135785 -0.0021330477
0.043628145 -0.03066268 0.14309704 -0.09352314 -0.003100373 0.09650421 -0.029341094 0.011309389
-0.08072861 -0.13054068 0.061502397 -0.1084745 0.030412745 0.07154006 0.1322387 0.05295414
0.0087940525 0.053556338 0.042171977 -0.071937196 0.13022117 0.052176654 0.03706957 0.016352097
0.05508314 0.062135275 -0.10353849 -0.023827622 -0.07608211 0.022636736 -0.05337115 0.07221629
-0.04918537 -0.043692157 -0.008122324 0.02683162 0.06718004 -0.077395365 -0.06273967 -0.07773706
0.012395925 0.04742862 0.030821376 0.04977768 0.08120312 0.05559524 0.057518225 -0.018592754
-0.08695587 -0.048156507 0.027867826 -0.1365084 0.025752094 0.15206072 0.0015169977 -0.0027620129
-0.07672598 -0.086493194 0.044167615 -0.08166867 0.07526238 -0.0611753 -0.07209142 0.11273757
0.07126341 -0.070773534 -0.005481633 0.0792249 0.06147951 0.039941683 0.018152706 -0.020516388
-0.1385868 0.094161004 0.07170706 -0.004349745 0.065239705 -0.12819584 0.054623682 0.046863206
-0.11653561 0.18545079 -0.06840734 -0.12340344 -0.10260573 0.066819645 -0.027559383 0.023580937
-0.09495077 0.12507652 0.11249829 0.016366998 0.122845545 0.035806123 0.071159005 0.05872497
0.025684187 -0.09102805 -0.1385957 0.013077375 0.05565113 0.0067087603 0.052441046 -0.016765784
-0.048344027 0.056007378 0.11139247 -0.055035893 -0.018845966 -0.048987918 0.022439111 -0.008574766
-0.031673133 0.05500173 -0.020489702 -0.0645903 -0.013854826 -0.1176594 0.06339565 -0.057938106
-0.17005092 -0.0043904637 0.07010541 0.03449027 0.04412986 0.056710035 -0.06649279 0.013309883
-0.101199895 0.07930801 0.028119206 0.050336387 0.10557403 -0.025307098 0.12837249 0.009185585
-0.11267778 -0.090447284 -0.12904178 -0.04668114 -0.044126116 0.031602252 0.02214553 0.0021767826
0.03091587 0.007139748 0.027318394 0.06921395 -0.1295527 -0.05025468 0.06443892 0.0009593653
0.099832706 -0.01785049 0.1653293 0.013620553 -0.122128494 0.030261029 0.051868673 -0.031983726
0.120217726 0.16136725 -0.0672002 0.057666026 0.021176768 -0.09063288 0.029865263 -0.05300864
-0.07432712 0.0017994037 -0.050720215 -0.007462239 0.033409625 -0.053720962 -0.070562534 0.045654073
0.0018414215 0.049467888 0.03792363 0.046768412 -0.06606148 0.0068519725 -0.035273198 -0.02917947
00000000: 1262 11bc de33 f13d 622c 893d f021 bf3d
00000010: efd3 30be 8a2a b23d a7fc 483d 7b78 e23b
00000020: cbae 91bb 1f15 3f3e 9bb9 133d a53b 0b3c
00000030: 65cd 063e 615d 3b3d a438 3d3d a0f8 ec3d
00000040: 7855 283d 26e6 eb3c 1155 273d 0919 67bd
00000050: 505c 753d c5cb 993c d2f9 943d 1cc5 a7bd
00000060: e288 bc3c 54d5 ae3d 04bd 803d 5714 b43d
00000070: d3f3 2dbc c0a2 353d 6de2 733c 0bed de3c
00000080: c559 343d 8c99 993d c384 053d 1784 993d
00000090: 2873 143d e7a6 83bd 2895 26bd 4dd6 423d
000000a0: a225 ddbd 02af cfbc 593a 98bc b9a0 d8bc
000000b0: 91a9 183d c679 b53d 0504 f8bb daf8 a4bd
000000c0: c81d bb3d 7ff1 cebc d928 a73d 6095 243d
000000d0: 9890 b53c 679c 40bc 861d 9ebc 6ee1 2d3d
000000e0: 70aa 8bbb cc37 08bd 29a0 073d 622b bc3d
000000f0: a588 cf3c 4a3a ddbc e911 96bd ab5a 0f3d
00000100: 96f4 afbc e9ab a4bd f949 92bd 32d2 053d
00000110: 78e3 0ebc 65cf b33d ca1f 6ebd 9aca 0bbb
00000120: 6db3 323d 4d30 fbbc 0888 123e 0f89 bfbd
00000130: a12f 4bbb 00a4 c53d bc5c f0bc 044b 393c
00000140: 0b55 a5bd 75ac 05be f0e9 7b3d e127 debd
00000150: 2624 f93c 9883 923d 9569 073e 71e6 583d
00000160: ee14 103c e45d 5b3d 86bc 2c3d cf53 93bd
00000170: b358 053e 30b7 553d 43d6 173d d5f4 853c
00000180: dc9e 613d 8f81 7e3d fd0b d4bd 2532 c3bc
00000190: f0d0 9bbd ad70 b93c b59b 5abd 22e6 933d
000001a0: 9976 49bd 8cf6 32bd 7f13 05bc fccd db3c
000001b0: b095 893d 7681 9ebd a87d 80bd 9c34 9fbd
000001c0: 4718 4b3c 8344 423d 1c7d fc3c aee3 4b3d
000001d0: d24d a63d d6b7 633d 3b98 6b3d d54f 98bc
000001e0: eb15 b2bd c23f 45bd 114b e43c dcc8 0bbe
000001f0: 0ef6 d23c ceb5 1b3e ffd5 c63a e302 35bb
00000200: 8322 9dbd 5823 b1bd 1ae9 343d e741 a7bd
00000210: 2a23 9a3d f492 7abd aba4 93bd f5e2 e63d
00000220: 8df2 913d b7f1 90bd 459f b3bb aa40 a23d
00000230: f0d1 7b3d e499 233d fcb4 943c fc11 a8bc
00000240: b3e9 0dbe 7cd7 c03d 27db 923d 4e88 8ebb
00000250: 659c 853d c545 03be 15bd 5f3d a2f3 3f3d
00000260: 39aa eebd d0e6 3d3e 2619 8cbd f1ba fcbd
00000270: f422 d2bd bdd8 883d 37c4 e1bc cf2c c13c
00000280: 8d75 c2bd 0f14 003e 8165 e63d 1514 863c
00000290: 7296 fb3d 71a9 123d d0bb 913d 9889 703d
000002a0: a567 d23c ea6c babd 08ec 0dbe 7c42 563c
000002b0: 70f2 633d 29d5 db3b 6ccc 563d 6658 89bc
000002c0: 6304 46bd fe67 653d bc21 e43d 516d 61bd
000002d0: db62 9abc 8ea7 48bd 3ad2 b73c 2d7d 0cbc
000002e0: b0bb 01bd 7e49 613d 05da a7bc eb47 84bd
000002f0: 5aff 62bc 69f7 f0bd 94d5 813d 8250 6dbd
00000300: d421 2ebe e1dd 8fbb 6d93 8f3d ab45 0d3d
00000310: 83c1 343d c848 683d 5f2d 88bd b211 5a3c
00000320: e441 cfbd 3d6c a23d 405a e63c 872d 4e3d
00000330: 3237 d83d d550 cfbc 1474 033e 237f 163c
00000340: 9cc3 e6bd 6d3c b9bd 8723 04be b934 3fbd
00000350: 96bd 34bd 5d71 013d 8b6a b53c 5aa8 0e3b
00000360: 4743 fd3c 8cf4 e93b d3ca df3c 0bc0 8d3d
00000370: 77a9 04be dad7 4dbd 8df8 833d ea7d 7b3a
00000380: 1775 cc3d 313b 92bc 164c 293e bd28 5f3c
00000390: 811e fabd fae5 f73c 3f74 543d 5e01 03bd
000003a0: b634 f63d 753d 253e 42a0 89bd 3633 6c3d
000003b0: e77a ad3c bb9d b9bd ffa7 f43c 961f 59bd
000003c0: d138 98bd f8d9 eb3a 00c0 4fbd cc85 f4bb
000003d0: 88d8 083d 830a 5cbd 1783 90bd c4ff 3a3d
000003e0: da5b f13a d79e 4a3d cf55 1b3d 3c90 3f3d
000003f0: 3e4b 87bd 8386 e03b a17a 10bd c909 efbc

bias f4 [90]
-0.015376918 -0.07250404 -0.0028091304 -0.039041966 -0.045845855 0.0466559 -0.03823719 0.031319648
-0.018347817 0.06428677 0.0044025476 0.12542215 0.086891934 -0.093819946 0.03057909 0.1506227
-0.04379316 -0.030667018 -0.034547616 0.00076805596 0.105810456 0.02370767 -0.060316123 0.029001899
0.023185678 0.013300624 0.0054151765 0.10738077 0.07498314 -0.044672668 0.11159302 -0.0019340178
0.06816657 0.12497398 -0.016291251 -0.04043955 -0.004216909 0.05303463 0.055689298 0.030964484
-0.038148783 -0.050660655 0.052459292 0.0085288985 -0.0013448941 -0.010524515 -0.014881732 0.053348362
0.029914118 0.09156218 0.11466696 -0.03613514 -0.01724356 -0.056369122 0.007573786 0.10569518
-0.0048251855 0.09389293 0.033455838 -0.053742144 0.08318789 0.008206695 -0.015565991 -0.09713509
0.09383914 0.02183103 0.041690785 0.07164309 0.084256686 -0.03557351 0.027682183 -0.09750427
-0.004533093 -0.039043948 0.082709685 0.0148135675 0.09873603 0.09221585 0.0451529 0.0635557
-0.08546512 -0.08717227 0.05905649 -0.01088745 -0.00115372 -0.057240825 0.035030685 -0.023452519
0.015354533 -0.024104813
00000000: 78ef 7bbc 007d 94bd 6319 38bb 78ea 1fbd
00000010: ddc8 3bbd 421a 3f3d 9a9e 1cbd 0849 003d
00000020: 294e 96bc c8a8 833d 3f43 903b aa6e 003e
00000030: 66f4 b13d ac24 c0bd 0081 fa3c d63c 1a3e
00000040: 7560 33bd 6639 fbbc cd81 0dbd 5d57 493a
00000050: 27b3 d83d 9636 c23c 0a0e 77bd 6495 ed3c
00000060: e4ef bd3c dcea 593c cb71 b13b 73ea db3d
00000070: c390 993d b0fa 36bd e28a e43d de7e fdba
00000080: ea9a 8b3d 5cf2 ff3d 3b75 85bc f1a3 25bd
00000090: ff2d 8abb d73a 593d 761a 643d 3ba9 fd3c
000000a0: e641 1cbd 8c81 4fbd 8edf 563d cbbc 0b3c
000000b0: 2847 b0ba 046f 2cbc 82d2 73bc d083 5a3d
000000c0: 740e f53c f484 bb3d 83d6 ea3d 7102 14bd
000000d0: 5e42 8dbc 4fe3 66bd 862d f83b b776 d83d
000000e0: 971c 9ebb f04a c03d fd08 093d b920 5cbd
000000f0: 6a5e aa3d 6075 063c 8008 7fbc c3ee c6bd
00000100: bc2e c03d fdd6 b23c f5c3 2a3d 9db9 923d
00000110: c58e ac3d 87b5 11bd bfc5 e23c 52b0 c7bd
00000120: 578a 94bb 8cec 1fbd b263 a93d 9bb4 723c
00000130: 1e36 ca3d aadb bc3d 3ff2 383d 7e29 823d
00000140: 5608 afbd 6087 b2bd 38e5 713d 4661 32bc
00000150: 6b38 97ba 5b75 6abd 567c 0f3d 7f1f c0bc
00000160: 9491 7b3c 7577 c5bc

weight f4 [90, 90, 1, 1]
0.052742656 -0.051716387 -0.04464238 0.0024836736 0.051452123 -0.09040408 -0.022471976 -0.018509407
-0.09386666 0.059883423 0.07617865 0.08023743 -0.0503126 -0.029358102 -0.12869892 -0.04598727
0.047949757 -0.07245354 0.05236738 -0.10902331 -0.06638451 -0.021578625 -0.009568337 -0.0040031467
0.07595486 0.037001975 0.09147096 -0.068162635 -0.09654176 -0.027965382 0.056068126 -0.055268977
0.03523342 -0.030519605 -0.022970825 -0.03478593 0.13740163 -0.056390375 -0.002576512 -0.0044374703
-0.031769805 0.0035023473 0.007279293 0.08814189 -0.00077205995 0.012026376 -0.030752102 -0.075123295
-0.11126907 -0.08241426 0.016960777 0.12221231 -0.09321896 0.072925895 -0.104646616 0.030618476
-0.029457638 0.07545909 0.08503359 -0.12464478 -0.10486728 0.028091157 0.047203876 -0.058781423
0.111315645 -0.062776044 -0.084081225 -0.052108463 -0.047605574 0.03374271 -0.008720709 -0.103424504
0.08817696 0.08783447 -0.039587557 -0.063439466 -0.006456348 0.087196566 0.01264582 -0.034457013
-0.013592907 0.033088066 -0.024179744 0.07690764 -0.02121731 0.046998788 -0.040744968 -0.084660634
0.079060934 0.08714397 -0.040822767 -0.07550247 0.08544781 0.022247503 -0.108451165 0.032236047
0.043269385 0.020878151 0.018108815 0.041289307 -0.09587152 -0.06984455 -0.05785831 0.062430948
0.050331302 -0.004010589 -0.08793846 0.03339022 0.07491318 -0.07996597 0.021429412 -0.07460239
0.020705359 0.03012015 0.009656942 -0.09815578 -0.016456602 0.0719882 -0.051362626 -0.10003586
0.028069153 -0.042335235 0.019685196 0.02957281 -0.07227686 -0.021832049 0.044958517 0.056182604
0.062446427 -0.13409339 0.01601468 0.043879256 0.09641017 -0.022032067 0.06951047 -0.07892974
-0.055161186 0.07720853 -0.045979936 0.009135847 0.0061665885 -0.013736187 0.002858093 0.02332737
0.099001914 -0.026011156 0.0790699 -0.04261757 -0.015242762 0.060712714 -0.09174033 -0.08975217
-0.02109754 -0.04681999 0.056994602 0.033630032 -0.049831655 0.08996111 -0.0038874855 -0.07419399
-0.09598006 0.012972327 0.07239472 0.014217582 0.019490566 -0.054227527 -0.010973699 0.06155532
-0.058675796 -0.0072327787 0.08660779 -0.09544026 0.056237005 -0.09754689 0.043586478 0.07726303
-0.090719946 -0.013153101 0.041037247 -0.05190092 0.054910854 -0.056778233 0.023349851 -0.12293621
-0.020388367 -0.03916744 -0.03729583 -0.09060205 -0.09274525 0.006220751 0.0089608785 0.033563312
-0.009839095 0.013696871 -0.05558666 -0.036836408 -0.03272825 -0.09478442 -0.07383597 0.037958413
-0.0014382403 -0.032692168 0.09962721 -0.0022953523 -0.03723188 -0.060642596 0.0071521485 0.11416571
0.016946625 0.02474484 0.014042155 0.050082285 -0.028422037 -0.07752457 0.060977586 0.11282578
0.11146275 -0.02721106 -0.014289637 -0.08732997 -0.03171604 -0.04664428 0.061227266 -0.008066767
0.014238162 0.111089975 -0.028988514 0.029779246 -0.07065159 0.02740378 -0.007571266 -0.078853644
-0.13017306 -0.109590955 0.07043467 0.008007 0.0044119204 -0.11891381 0.0014469703 0.041700505
0.085647106 0.014090315 0.11008218 -0.084845796 -0.030260013 0.05615053 -0.07633529 -0.09932721
-0.10973404 0.12595008 -0.0307443 -0.12165405 -0.0939135 -0.05382215 0.002420924 0.031919956
00000000: af08 583d 90d4 53bd eeda 36bd 21c5 223b
00000010: 76bf 523d c625 b9bd 2617 b8bc 0aa1 97bc
00000020: 2a3d c0bd 5248 753d 8d03 9c3d 8653 a43d
00000030: 9614 4ebd 6780 f0bc a6c9 03be 265d 3cbd
00000040: f766 443d 8662 94bd 2e7f 563d 9d47 dfbd
00000050: 9af4 87bd a8c5 b0bc 84c4 1cbc d42c 83bb
00000060: 398e 9b3d 628f 173d 2055 bb3d da98 8bbd
00000070: b0b7 c5bd a817 e5bc b1a7 653d b961 62bd
00000080: eb50 103d 4004 fabc 502d bcbc b17b 0ebd
00000090: 03b3 0c3e 98f9 66bd b3da 28bb 3368 91bb
000000a0: 0e21 02bd a387 653b 2387 ee3b bc83 b43d
000000b0: 1164 4aba 470a 453c d5eb fbbc 3eda 99bd
000000c0: 0ae1 e3bd cfc8 a8bd 54f1 8a3c 734a fa3d
000000d0: 95e9 bebd 2c5a 953d f750 d6bd 99d3 fa3c
000000e0: 2551 f1bc 4c8a 9a3d 1726 ae3d c345 ffbd
000000f0: a8c4 d6bd 6d1f e63c da58 413d cac4 70bd
00000100: 75f9 e33d ba90 80bd c732 acbd af6f 55bd
00000110: 10fe 42bd cc35 0a3d 4ee1 0ebc 3ad0 d3bd
00000120: 1f96 b43d 8fe2 b33d 9026 22bd 8dec 81bd
00000130: c68f d3bb 1d94 b23d 6a30 4f3c cc22 0dbd
00000140: c9b4 5ebc 5a87 073d 9914 c6bc c181 9d3d
00000150: edcf adbc cd81 403d 32e4 26bd 8e62 adbd
00000160: b3ea a13d 8a78 b23d c635 27bd 0aa1 9abd
00000170: 43ff ae3d 6540 b63c a51b debd f209 043d
00000180: 3d3b 313d a808 ab3c f058 943c fa1e 293d
00000190: 4a58 c4bd a90a 8fbd d6fc 6cbd 98b7 7f3d
000001a0: 3228 4e3d 426b 83bb 1419 b4bd 2fc4 083d
000001b0: 156c 993d 33c5 a3bd bc8c af3c 23c9 98bd
000001c0: 499e a93c 88be f63c 2738 1e3c e605 c9bd
000001d0: ffcf 86bc 8d6e 933d 9e61 52bd 9adf ccbd
000001e0: 48f1 e53c b667 2dbd d942 a13c ad42 f23c
000001f0: e405 94bd 20d9 b2bc 6c26 383d bb1f 663d
00000200: d3c7 7f3d c74f 09be 3831 833c bcba 333d
00000210: b272 c53d 987c b4bc 815b 8e3d eaa5 a1bd
00000220: b2f0 61bd 811f 9e3d 7555 3cbd 85ae 153c
00000230: 1811 ca3b be0d 61bc d84e 3b3b 0a19 bf3c
00000240: 84c1 ca3d 5915 d5bc 66ef a13d c38f 2ebd
00000250: c7bc 79bc e5ad 783d 5be2 bbbd fccf b7bd
00000260: c0d4 acbc 51c6 3fbd 2c73 693d a5bf 093d
00000270: 471c 4cbd 883d b83d 2fc5 7ebb 05f3 97bd
00000280: 3291 c4bd e289 543c af43 943d dcf0 683c
00000290: aeaa 9f3c af1d 5ebd 08cb 33bc 6e21 7c3d
000002a0: 0856 70bd f200 edbb 6d5f b13d 2f76 c3bd
000002b0: c658 663d aac6 c7bd bc87 323d 143c 9e3d
000002c0: 61cb b9bd 1b80 57bc ac16 283d 0f96 54bd
000002d0: 34ea 603d 4b90 68bd 3048 bf3c fbc5 fbbd
000002e0: 8105 a7bc 0a6e 20bd 83c3 18bd 918d b9bd
000002f0: 39f1 bdbd 71d7 cb3b a6d0 123c af79 093d
00000300: 2834 21bc d768 603c d6ae 63bd c6e1 16bd
00000310: 0f0e 06bd 561e c2bd 5037 97bd 487a 1b3d
00000320: 5683 bcba 39e8 05bd 5a09 cc3d 9f6d 16bb
00000330: 7580 18bd 5f64 78bd 925c ea3b b6cf e93d
00000340: a6d3 8a3c b1b5 ca3c 1111 663c 1523 4d3d
00000350: 55d5 e8bc 34c5 9ebd a2c3 793d 3411 e73d
00000360: 9546 e43d bbe9 debc 151f 6abc 0eda b2bd
00000370: aee8 01bd 130e 3fbd 71c9 7a3d 792a 04bc
00000380: 2e47 693c 2483 e33d 5279 edbc 9bf3 f33c
00000390: c8b1 90bd e47d e03c 6218 f8bb 057e a1bd
000003a0: 164c 05be 3971 e0bd 0d40 903d cb2f 033c
000003b0: df91 903b 1589 f3bd 44a8 bd3a 26ce 2a3d
000003c0: c067 af3d 11db 663c c472 e13d a2c3 adbd
000003d0: d9e3 f7bc 19fe 653d ad55 9cbd 106c cbbd
000003e0: 3ebc e0bd 0ff9 003e 78db fbbc c225 f9bd
000003f0: b955 c0bd 9d74 5cbd 5da8 1e3b 80be 023d

bias f4 [90]
0.058591723 0.01969857 -0.03823231 0.08428815 0.0002904496 0.089249924 -0.10839387 0.014784161
0.0022237087 0.046311103 0.016735869 0.086211056 -0.04646219 0.021598298 -0.046797264 0.07996865
-0.02258236 -0.004343847 0.060568646 -0.028798135 -0.06869269 -0.060703814 0.056910947 0.0848075
-0.032195564 0.05364361 -0.06251186 0.035322674 0.047876634 0.06729317 -0.014594428 -0.022055348
-0.10686719 0.047719248 0.011410185 0.01386022 0.014636338 0.02332891 -0.0076528867 -0.057327345
-0.059392057 -0.07365881 0.024942346 0.025274424 0.024327533 0.036278587 0.01400505 0.057969823
-0.04200392 -0.04818032 -0.07555205 0.06501317 0.05887382 -0.039554287 0.0155071 -0.01574123
-0.0019156698 -0.008076641 0.0501679 -0.0062416177 -0.08542038 -0.08868359 0.028198333 -0.04714466
0.015471175 -0.02928508 -0.007355245 -0.08571837 0.061814878 0.08500108 -0.08096138 0.043182943
0.011347263 -0.052946847 0.031026289 -0.028384347 -0.04310413 0.018330777 -0.029996306 -0.021821713
-0.0053350544 -0.039200768 -0.0772469 -0.07558606 -0.049257316 -0.09882859 -0.03947858 0.075106025
-0.022657301 -0.028017672
00000000: e0fd 6f3d e55e a13c 7c99 1cbd 449f ac3d
00000010: 7c47 9839 aac8 b63d 9bfd ddbd 4439 723c
00000020: a4bb 113b b6b0 3d3d a919 893c 6c8f b03d
00000030: 234f 3ebd eaee b03c 7dae 3fbd 9bc6 a33d
00000040: a4fe b8bc d456 8ebb d416 783d 11ea ebbc
00000050: c1ae 8cbd 90a4 78bd 741b 693d 8eaf ad3d
00000060: 7fdf 03bd 67b9 5b3d 3806 80bd 82ae 103d
00000070: 4a1a 443d 00d1 893d 781d 6fbc 6bad b4bc
00000080: 2fdd dabd 4275 433d c9f1 3a3c fa15 633c
00000090: 40cd 6f3c 451c bf3c 11c5 fabb 14d0 6abd
000000a0: 1645 73bd 6eda 96bd e453 cc3c 4f0c cf3c
000000b0: 894a c73c db98 143d 7075 653c c471 6d3d
000000c0: 4d0c 2cbd ba58 45bd 08bb 9abd a025 853d
000000d0: ad25 713d ad03 22bd 7e11 7e3c c1f3 80bc
000000e0: 3617 fbba e353 04bc db7c 4d3d 7c86 ccbb
000000f0: e1f0 aebd be9f b5bd 3100 e73c c21a 41bd
00000100: d07a 7d3c 44e7 efbc 4404 f1bb 1d8d afbd
00000110: 9931 7d3d 0c15 ae3d 14cf a5bd 99e0 303d
00000120: dfe9 393c cbde 58bd d82a fe3c 4a86 e8bc
00000130: f58d 30bd 6d2a 963c d0ba f5bc 73c3 b2bc
00000140: aed1 aebb fc90 20bd 9f33 9ebd ddcc 9abd
00000150: 0ac2 49bd a566 cabd 4bb4 21bd 30d1 993d
00000160: ce9b b9bc 5185 e5bc

weight f4 [9, 90, 1, 1]
0.013886523 0.003267718 0.04708354 -0.026319386 0.017948313 -0.0066984817 0.005728144 -0.012410313
-0.027503377 -0.0016899466 0.013133152 -0.0032298176 -0.012410847 -0.0029431176 -0.025486892 -0.02271842
0.048968714 0.012504373 -0.027469879 0.03977854 -0.022826348 -0.014641451 -0.022629714 -0.015088615
0.008242477 -0.03135675 0.025788134 -0.021428958 -0.0010010554 -0.030146074 -0.012184096 0.007928519
0.0107487505 0.01601732 0.06462414 0.0002410635 0.03591592 0.010709041 0.004497504 -0.028187899
-0.046076693 -0.042075764 -0.0072324444 -0.0176538 0.0046079163 0.014169101 -0.03150212 0.0004912201
-0.0153005505 -0.01916632 -0.045854934 0.008775211 0.02179934 0.030659415 -0.032744244 0.010918781
-0.021542957 -0.015452195 -0.0008258497 0.006642047 0.010197101 -0.02514444 0.004761092 -0.010855455
0.030355368 0.0057876906 -0.0018621414 -0.031690214 -0.089686684 -0.069362804 -0.016749308 0.018883223
-0.042174328 -0.039491735 0.024177603 -0.042452365 -0.037940007 -0.02218165 0.004756293 0.012954915
0.017926862 0.036092676 0.030107489 0.042077854 0.029316155 -0.007726292 0.016866956 0.010275112
0.022921236 0.015071262 0.0021239938 0.009774206 0.056663826 -0.008298911 0.001096346 0.018759107
0.0069305734 -0.0050228597 -0.04121804 0.011489963 0.004986102 -0.014883788 0.04694113 0.007096451
0.021941181 -0.06402103 0.022776628 -0.008502684 -0.0022336028 0.01255034 -0.022173125 -0.019653339
-0.0063602403 -0.019057447 0.03153236 0.0046890792 -0.034129437 -0.013469937 0.02394887 0.0063683675
0.032093406 0.0013061571 -0.004637991 -0.0010867538 -0.0153120365 0.006149671 0.015603319 -0.03006513
0.061026845 -0.033661865 -0.023404388 0.007881797 -0.008577904 0.012750859 0.05805665 0.04526489
0.013458105 0.040820505 0.010638686 0.012883187 0.022447942 0.0063973875 0.005384864 -0.018645745
-0.0118805375 0.03481501 0.018075299 0.024488214 0.0073633716 0.0312069 -0.019622697 0.008870113
0.004496434 0.030684438 0.014176621 0.01278296 0.012125714 -0.024935309 -0.04397535 -0.03714818
0.0035242748 -0.030247688 0.003572494 -0.0028851428 0.011964495 0.04415191 0.006762975 -0.009379768
-0.007676505 0.043774225 0.0005623753 0.012318828 -0.006379419 0.030028716 0.060498666 -0.020866346
-0.00656071 -0.015674578 0.03179974 -0.01261019 0.01057468 0.009256922 0.0066788634 0.016203403
-0.015466987 -0.036272924 0.024020372 -0.009307388 -0.010430394 -0.008547817 0.0016966775 -0.031074936
0.05024713 0.0059245266 -0.0032130578 -0.05281585 0.007557135 0.0037446301 -0.020602634 -0.0141592175
-0.044158164 -0.00989129 -0.013549137 -0.01803757 -0.013174333 -0.018314663 -0.036549266 0.007595321
-0.014113898 -0.0015548129 0.042704962 0.018462818 -0.028014038 -0.017100483 -0.06003738 -0.018336115
-0.0071125617 -0.010042782 0.015743474 -0.0054387646 0.019747661 0.020501742 0.030432995 -0.0060174423
0.008177877 0.014078556 0.0075777504 -0.006702672 0.012815447 0.051447436 -0.002383343 -0.030928064
-0.017769748 -0.01829108 -0.0006839755 -0.006387272 -0.015477137 -0.051119704 -0.027038066 0.01351219
-0.001793783 0.062299438 0.009361565 -0.005099569 0.008330303 -0.038811978 0.030090304 0.019872367
0.012432924 0.018316507 0.007055993 -0.020501817 0.011613732 0.02333432 0.009948052 0.04332587
00000000: 4d84 633c 3627 563b acda 403d c19b d7bc
00000010: 5708 933c f07e dbbb 28b3 bb3b a054 4bbc
00000020: c34e e1bc 3381 ddba 6f2c 573c 59ab 53bb
00000030: dd56 4bbc 52e1 40bb e3c9 d0bc fb1b babc
00000040: 6b93 483d 24df 4c3c 8308 e1bc d3ee 223d
00000050: 52fe babc b2e2 6fbc f361 b9bc 3d36 77bc
00000060: 740b 073c ef6f 00bd a341 d33c c88b afbc
00000070: d835 83ba e6f4 f6bc cd9f 47bc 9ee6 013c
00000080: 871b 303c c136 833c a959 843d fec5 7c39
00000090: 921c 133d f974 2f3c cc5f 933b 4fea e6bc
000000a0: eaba 3cbd a357 2cbd 24fe ecbb b49e 90bc
000000b0: 01fe 963b 8425 683c 5e08 01bd 39c5 003a
000000c0: 29af 7abc b002 9dbc 62d2 3bbd e7c5 0f3c
000000d0: 8894 b23c 7429 fb3c d41e 06bd b0e4 323c
000000e0: db7a b0bc 342b 7dbc d67d 58ba 87a5 d93b
000000f0: be11 273c b6fb cdbc ef02 9c3b 14db 31bc
00000100: d2ab f83c aba6 bd3b 1913 f4ba 99cd 01bd
00000110: a7ad b7bd 160e 8ebd d835 89bc fdb0 9a3c
00000120: fdbe 2cbd 16c2 21bd 1c10 c63c 88e2 2dbd
00000130: fb66 1bbd 4bb6 b5bc adda 9b3b da40 543c
00000140: 5bdb 923c ead5 133d fba3 f63c d459 2c3d
00000150: 6f28 f03c d62c fdbb 922c 8a3c f258 283c
00000160: 51c5 bb3c 74ed 763c b432 0b3b fe23 203c
00000170: 5418 683d 28f8 07bc 44b3 8f3a b3ac 993c
00000180: dd19 e33b cd96 a4bb 3fd4 28bd 6640 3c3c
00000190: 7562 a33b 22db 73bc 5845 403d 5889 e83b
000001a0: febd b33c 751d 83bd 0d96 ba3c d74e 0bbc
000001b0: a361 12bb f19f 4d3c 6aa4 b5bc 0a00 a1bc
000001c0: 9069 d0bb 5d1e 9cbc 1328 013d d9a6 993b
000001d0: 4fcb 0bbd 03b1 5cbc 6c30 c43c bdad d03b
000001e0: 6074 033d 5c33 ab3a 4afa 97bb 6871 8eba
000001f0: 56df 7abc 2e83 c93b 10a5 7f3c 264b f6bc
00000200: 49f7 793d 06e1 09bd 8fba bfbc a722 013c
00000210: 568a 0cbc fbe8 503c cfcc 6d3d ad67 393d
00000220: 627f 5c3c 6733 273d e24d 2e3c 0114 533c
00000230: bfe4 b73c 2da1 d13b 8373 b03b f6be 98bc
00000240: 96a6 42bc 2f9a 0e3d a612 943c 829b c83c
00000250: 7048 f13b 9da5 ff3c c7bf a0bc f353 113c
00000260: d256 933b ee5d fb3c 0f45 683c 9f6f 513c
00000270: eeaa 463c 2245 ccbc 7f1f 34bd b128 18bd
00000280: 85f7 663b 00ca f7bc 8120 6a3b aa14 3dbb
00000290: bb06 443c a2d8 343d f29b dd3b 99ad 19bc
000002a0: 318b fbbb 9a4c 333d 5e6c 133a e9d4 493c
000002b0: 720a d1bb c8fe f53c 73cd 773d e6ef aabc
000002c0: 39fb d6bb f967 80bc 7240 023d f89a 4ebc
000002d0: 6c41 2d3c 58aa 173c 5eda da3b 00bd 843c
000002e0: 3f69 7dbc eb92 14bd 5fc6 c43c 047e 18bc
000002f0: 3ee4 2abc 250c 0cbc 0d63 de3a dd90 febc
00000300: efcf 4d3d 8822 c23b 2a92 52bb 6f55 58bd
00000310: d8a1 f73b 7868 753b dbc6 a8bc 10fc 67bc
00000320: 31df 34bd 140f 22bc 33fd 5dbc 87c3 93bc
00000330: 28d9 57bc a208 96bc afb4 15bd 2ce2 f83b
00000340: fb3d 67bc ddca cbba 66eb 2e3d 563f 973c
00000350: b27d e5bc 5016 8cbc c1e9 75bd 9f35 96bc
00000360: 7e10 e9bb 7b8a 24bc 75f8 803c aa37 b2bb
00000370: d9c5 a13c 45f3 a73c 9e4e f93c f72d c5bb
00000380: 81fc 053c bea9 663c c74e f83b 17a2 dbbb
00000390: e1f7 513c 8cba 523d dc31 1cbb da5c fdbc
000003a0: dd91 91bc 2dd7 95bc d24c 33ba 524c d1bb
000003b0: d193 7dbc e562 51bd ef7e ddbc 3c62 5d3c
000003c0: 5f1d ebba b22d 7f3d 4061 193c 491a a7bb
000003d0: d37b 083c 4ff9 1ebd f17f f63c 60cb a23c
000003e0: 76b3 4b3c 800c 963c f635 e73b 6df3 a7bc
000003f0: 8647 3e3c 9e27 bf3c 27fd 223c 7876 313d
