NCA Parameters/Style Transfer/Grid.pt (torch, 65115 bytes, 5 tensors)

weight f4 [90, 72, 1, 1]
000000 3b 2d df 3d 11 f2 6f 3d 46 ea 8e 3c 95 a6 52 bd
       0.10897299 0.058580462 0.017445695 -0.051428396
000010 6c 8b 32 bc 65 5b b5 bd 00 1e 6e bd 53 c9 b2 3d
       -0.010897499 -0.08855323 -0.05813408 0.08729806
000020 b6 0b 8c 3d c4 99 76 be f4 98 48 bd 99 e7 ca 3c
       0.06838171 -0.24082094 -0.048973992 0.024768637
000030 e5 8a b6 bc 4d 46 b8 3c 5e c2 46 bd 48 0a 47 3e
       -0.022283027 0.02249446 -0.048525207 0.19437516
000040 c9 e7 a8 3b 29 43 93 bd 69 a3 0c bd 4c 10 a2 3d
       0.005154584 -0.07190544 -0.034335528 0.07913265
000050 3b 74 07 be 43 a8 4b bd 92 b3 7e bd 25 82 a1 bd
       -0.13227932 -0.049721014 -0.06218297 -0.07886151
000060 1c de 06 be 63 eb e9 3c da 4a 0c 3d cf 4f 1a be
       -0.13170666 0.028554624 0.03425107 -0.15069507
000070 98 84 df bc c3 e9 95 bd 56 26 c7 3c 10 31 ab 3c
       -0.027284905 -0.07319977 0.024310272 0.020897418
000080 b9 c6 f7 bb 39 d8 86 bd 61 3d 8c 3d 95 da 8e bc
       -0.0075615314 -0.0658421 0.068476446 -0.017438212
000090 0c 42 0b bd ca ea f3 bb 02 38 e3 bc 5e be 8e bc
       -0.033998534 -0.0074437605 -0.027736668 -0.017424759
0000a0 c5 e6 df bc b0 a1 e8 bc dc 25 b9 3c 92 22 63 3d
       -0.02733172 -0.028397411 0.02260106 0.05545289
0000b0 6e 55 3c bd e3 b8 62 3d c4 96 2d bd ad 8a 87 3d
       -0.04597991 0.055352103 -0.04238011 0.06618247
0000c0 38 42 04 3b 25 cc 88 3c 0a 54 07 bd cf 06 ff 3c
       0.002018107 0.016698906 -0.03303913 0.031131176
0000d0 c5 0c bb bd af 5d bc 3d 77 8b 4b bd a8 2f a2 bd
       -0.09133295 0.09197556 -0.04969355 -0.07919246
0000e0 e9 8b 63 3c a3 b8 a5 3d ad 6b d6 bc 1f 9d 5e bd
       0.013888338 0.08091857 -0.02617439 -0.05434906
0000f0 57 c4 17 3d ef 20 36 3d da 17 95 bd 46 14 e4 bc
       0.03705248 0.044465 -0.0727994 -0.027841698
000100 4a 55 d7 bd 5e 2f 88 3c 37 48 b6 3d 87 bc d1 3d
       -0.105143145 0.016624149 0.08900493 0.10241037
000110 8b 7b 88 bd 7f a6 b5 bd e2 71 c7 bd f7 24 93 3d
       -0.06664189 -0.08869647 -0.09738518 0.07184785
000120 cd 55 62 bd cd 0d c9 3d 17 b7 c5 bd 9d 15 43 3d
       -0.055257607 0.098170854 -0.09654062 0.047628034
000130 b4 0d f9 3c 86 f3 71 3c 34 2f 27 bc 6b bc 29 bd
       0.030402042 0.014767533 -0.010204125 -0.041439455
000140 e2 8a ab bd c2 89 88 bc b1 66 e8 bc 50 89 4c 3e
       -0.08376099 -0.01666725 -0.02836928 0.19974256
000150 69 36 6a bd 47 b5 4a bd b1 bc 84 bd e0 a0 b1 bc
       -0.057180796 -0.049489286 -0.064813025 -0.021683156
000160 8b ed 28 bd 2a a3 64 bd 8c 52 06 3d b1 97 83 3d
       -0.041242164 -0.055819668 0.032793567 0.06425417
000170 eb 71 97 b9 a2 13 ba bc de 7b 57 3d 6b 13 53 3a
       -0.0002888584 -0.02271444 0.052608363 0.0008051905
000180 c1 18 13 3d 68 57 c4 bd 2a 1f 36 3d c7 bc 3e bc
       0.03591228 -0.09586984 0.044463314 -0.011641688
000190 9e 87 fb 3a 9f 36 2c 3c c5 8d 62 3b 2b 87 68 bc
       0.0019190197 0.01051107 0.0034569365 -0.014192383
0001a0 8c 6d 60 bb 93 19 e5 3b c0 ec 64 bd dd 25 37 3b
       -0.0034244983 0.006991574 -0.055889845 0.0027946152
0001b0 9d 01 5c bc 66 0c 54 3c bf aa 98 3c ce 1e 57 bd
       -0.013428119 0.012942409 0.018636106 -0.052519612
0001c0 8f d4 3d 3c 2c ce e5 bb 07 f4 85 bb 53 e4 dd 3c
       0.011586322 -0.007013103 -0.004087928 0.027086413
0001d0 70 80 a8 bc 1c f5 31 3e 77 a1 07 be a2 e8 08 bd
       -0.020569056 0.17378658 -0.13245188 -0.03342498
0001e0 88 f3 60 3d 18 da 6d bd ad ae e0 bd 19 6e 47 bd
       0.05491975 -0.05806932 -0.10970817 -0.04868898
0001f0 cd 60 a9 3d a5 5b c8 bd ca 69 0e be 5b fa b1 3c
       0.082704164 -0.09783105 -0.13907543 0.021725824
000200 2c e4 97 3d a3 3c b5 bd 53 c6 7c bd 76 37 b5 3d
       0.07416567 -0.08849456 -0.061712574 0.08848469
000210 1d 45 3e bd 74 d9 da bc d1 b1 c6 3b 8a 32 2f bd
       -0.04645263 -0.026715018 0.006063678 -0.042772807
000220 1f 07 21 3d f1 3d dc 3d 97 e9 1f bd 52 a4 96 3d
       0.03931343 0.10754002 -0.039041128 0.0735556
000230 34 26 ad 3d b8 3f 18 3d be d1 73 bb 3d 9d a1 bc
       0.08454552 0.037170142 -0.0037203874 -0.019728297
000240 75 ce d1 bd 8a 4e 80 bd 0e c3 aa 3d 7c 01 0a 3d
       -0.10244457 -0.0626498 0.08337985 0.03369282
000250 87 8d 7b 3d 21 cf d0 bd de 6c aa bd fb eb 14 3e
       0.061414268 -0.10195757 -0.08321546 0.14543144
000260 95 66 04 3e 86 91 03 3d 5b 4d 65 bd 4c ac 22 be
       0.12929757 0.032121204 -0.055981975 -0.15886039
000270 a8 ac be 3d e0 ad 24 bd 7e b2 47 bd 96 e8 93 3d
       0.09310275 -0.040204883 -0.048754208 0.072220966
000280 e2 40 b9 bd 2f 34 ca bc 5e b3 fd bd 96 1b 98 bb
       -0.090455785 -0.024683086 -0.12387727 -0.0046419604
000290 52 21 b1 bc 1b 94 ff 3b 77 ca d3 3c b3 98 f0 3d
       -0.021622334 0.007799638 0.025853379 0.11747875
0002a0 90 10 37 bd 64 20 b1 3d 23 69 d4 3d 3a 86 49 bd
       -0.04469353 0.08648756 0.10371616 -0.049200274
0002b0 27 af 52 bd 44 39 31 bd bb 56 4a 3d ae a2 f1 3c
       -0.05143657 -0.043267503 0.04939912 0.029496517
0002c0 78 6a 1e bd 7c 5b 8c 3d 4a 42 49 bd 68 0a 9a 3c
       -0.038675755 0.06853387 -0.049135484 0.01880379
0002d0 0a 8f 7c bd 80 9a 40 bd 6d 23 1f bc 41 f4 42 3d
       -0.06165985 -0.047022343 -0.009713036 0.04759622
0002e0 a2 31 8d 3c 41 a9 ee bc f8 ed 29 bc fb 47 3f 3d
       0.01723558 -0.02913344 -0.010371678 0.046699505
0002f0 83 c7 d0 bb 73 31 2e be c4 09 c8 bd c8 06 92 3d
       -0.00637144 -0.17011051 -0.09767488 0.071302
000300 09 c2 8c bd 38 01 fc bd 86 72 e6 bd ae 70 0d 3d
       -0.06872947 -0.1230492 -0.11252312 0.034531288
000310 30 c3 aa 3d 3c 61 ab 3d ba 56 6c bd 10 2a 1c bd
       0.0833801 0.08368155 -0.057699896 -0.03812605
000320 35 8d 85 3d 00 b8 98 bd 73 ae ef 3c 2f 69 c2 bd
       0.06521074 -0.0745697 0.029257989 -0.094927184
000330 bb c2 f8 bc 40 53 0d 3d 1a 76 83 3d 60 6f 1b be
       -0.030366292 0.03450322 0.064190105 -0.15179205
000340 a3 c4 d7 bb c8 b0 11 be c0 f8 d7 bd 28 5c 83 bd
       -0.00658472 -0.14227593 -0.10545492 -0.06414062
000350 c9 f8 c3 bd 05 c8 2a bd 52 e5 82 bd d4 8d d0 3c
       -0.095689364 -0.04169466 -0.06391396 0.025458254
000360 e1 0a 78 bd 29 b8 9c bd e8 01 1a be 49 20 31 bb
       -0.06055725 -0.07652313 -0.1503979 -0.00270273
000370 07 28 a4 3d ab c4 d9 3b 2e 91 12 3e 67 39 6b bd
       0.08015447 0.006645759 0.14313194 -0.05742779
000380 31 3b bc ba 79 cb 97 3d 15 dc de bd 9a a4 e9 3d
       -0.0014360902 0.07411856 -0.10881821 0.114083484
000390 85 be 28 3e 98 d3 0d 3d cb f5 6a 3d 82 08 08 be
       0.16478927 0.03462562 0.057363313 -0.13284495
0003a0 c8 a8 9a bd e1 2a 83 3d b7 c2 d1 ba 91 ce 0c bc
       -0.07551724 0.06404663 -0.0016003464 -0.008594171
0003b0 5e 43 7d 3d 8c 36 ad bc ed 28 17 bd 13 95 52 3d
       0.061831824 -0.021144174 -0.036904264 0.0514117
0003c0 4f 3b 0e 3e 0e 09 db bd 14 bf 84 ba 27 fd 5e 3d
       0.13889812 -0.106950864 -0.0010127747 0.054440644
0003d0 70 44 5d 39 c2 7f e1 bc 61 f8 e1 3d fc d4 b1 3b
       0.00021101697 -0.02752674 0.11033703 0.005427001
0003e0 a2 88 ac bc 23 aa 71 3d 76 e1 68 3b 47 5c 2b 3d
       -0.021061245 0.059000146 0.0035534776 0.04183605
0003f0 96 96 a9 bc 23 06 4b bc d0 82 b7 3c 29 aa d5 3c
       -0.020701688 -0.0123916 0.022401243 0.026082115

bias f4 [90]
000000 a9 11 44 3d 62 d8 6b 3d 2e f9 74 3c 26 0b dd 3c
       0.047868405 0.057579406 0.014951987 0.026982855
000010 18 92 0d bc 31 6a 08 3d d6 3d 0d bd fd 99 c9 bb
       -0.0086407885 0.033304397 -0.0344828 -0.00615239
000020 a3 21 dc 3d 87 1c 6f bc c3 01 63 bd 88 ae c3 bd
       0.10748603 -0.014594204 -0.055421602 -0.095547736
000030 06 f7 95 3d 59 92 aa 3d 08 2c 93 3d 1b a9 47 bc
       0.073225066 0.08328695 0.07186133 -0.012186314
000040 12 2b 4c 3d 44 63 a9 3d 21 0f a7 3d 12 4f b2 3d
       0.049845763 0.082708865 0.081571825 0.08706488
000050 0a c6 73 3b 63 85 27 3d fb 71 09 3d cd 82 d4 bd
       0.0037196898 0.040898692 0.033555966 -0.10376511
000060 6c 31 7e 3d dd 06 73 bc d6 51 0d 3e 20 4a ab bd
       0.06205885 -0.014833179 0.13800749 -0.083637476
000070 55 7c 4d bd 0a be bc bd 0b d1 bc 3a 26 01 97 3b
       -0.0501674 -0.092159346 0.0014405561 0.004608291
000080 1b 3a 08 3e f9 30 cc 3d 92 be a5 3d 57 a6 6a 3d
       0.13303415 0.09970278 0.08092989 0.05728754
000090 ed 12 84 3c a1 74 75 bd 28 d9 b2 3d bb 69 19 3c
       0.016122306 -0.05992568 0.087328255 0.009363587
0000a0 09 bc 8f 3d af e8 9c 3b 97 53 04 3e ab 29 d5 3c
       0.07018287 0.0047884802 0.12922512 0.026020845
0000b0 a2 a9 70 bd a2 c0 60 bd 54 28 a6 3d 6f f3 bb 3d
       -0.058755524 -0.05487121 0.08113161 0.09177291
0000c0 66 04 1f 3c 4c 46 3d 3d ad de f0 3d 0e c2 7f 3c
       0.0097056385 0.04620962 0.11761222 0.015610231
0000d0 03 0c 9b 39 c7 82 75 bd 38 18 60 3d fe 59 a0 3d
       0.00029572853 -0.059939172 0.054710597 0.07829665
0000e0 7f c9 88 3d f8 72 ab 3c 9c e0 fc 3d 13 39 d8 bd
       0.06679057 0.020928845 0.12347528 -0.10557761
0000f0 c5 dd 4e bc a9 90 88 bd dc 5c 60 3d be 92 ff bb
       -0.012626116 -0.06668217 0.054776058 -0.0077994755
000100 2e b1 94 3c af 0a 11 3c 95 a2 7a 3d 50 17 fe bd
       0.018150892 0.008852645 0.061190207 -0.1240679
000110 4d 99 aa 3d 23 ee e6 3d 16 2a ce 3d 69 b6 10 3e
       0.08330021 0.1127589 0.10066621 0.14132084
000120 0f 7d 0e 3d 02 5f 9d bd 1e 12 a8 3d ae 05 63 3b
       0.034787234 -0.07684137 0.082065806 0.0034640837
000130 c4 aa 54 bd 25 9a cd 3d ea f9 a2 bd 6f 45 24 bb
       -0.051920667 0.10039166 -0.079578236 -0.00250658
000140 5a f4 50 bd ba 46 81 bb a7 7e f5 3d 43 f2 e4 bd
       -0.05101428 -0.003945199 0.11987048 -0.1117902
000150 5c db ea bc 50 1c a8 3d ed 3f 92 bb df f2 d3 bc
       -0.028669052 0.08208525 -0.004463187 -0.025872646
000160 e0 49 45 3d 0e 6e 0b 3b
       0.048166156 0.0021275315

weight f4 [90, 90, 1, 1]
000000 31 be 6a 3d 30 d4 f4 3c ef 35 de bd 07 16 c7 bd
       0.057310287 0.029886335 -0.10850131 -0.09720998
000010 f8 83 e0 bd 88 08 53 3d 30 de 50 bd e5 b2 b0 bd
       -0.10962671 0.051521808 -0.050993145 -0.086278714
000020 fb c4 1b 3d 75 bf 74 bd c5 df 19 3c fb 39 f5 bd
       0.038029652 -0.0597529 0.00939173 -0.119739495
000030 59 0c e7 bd 5c cd 80 3d 15 03 11 bd 54 6b 6e 3d
       -0.11281652 0.06289169 -0.03540333 0.058207825
000040 25 cf 62 3c 8f 96 b0 bc 24 e7 b1 3d 55 48 55 bd
       0.013843332 -0.021556167 0.08686665 -0.052070934
000050 f7 47 cc bd 9c 31 eb 3d ca 7e 12 ba 8f 1f 03 3e
       -0.09974664 0.114840716 -0.0005588351 0.12805007
000060 26 58 9b bd 2c 0d ce 3a 9c 19 f2 bd 73 f2 f8 3d
       -0.07585172 0.0015720478 -0.11821291 0.121556185
000070 8e 55 83 3c 85 c5 f1 bc 09 5a 60 bd 5c 37 91 bd
       0.016032007 -0.02951313 -0.054773364 -0.07090637
000080 6f 0c 8b 3d bd 18 13 3d c1 2d 6b bc a5 67 43 3d
       0.06789481 0.035912264 -0.01435417 0.047706265
000090 c9 4d 3c 3d 6f 69 e3 bd 3f ac 5e 3d 47 6b 27 3d
       0.04597262 -0.11104094 0.054363485 0.040873792
0000a0 ef 8e 8a 3b 2b f5 fe bb 52 b4 8a 3d 1b 3c aa bb
       0.004228465 -0.007780691 0.067726746 -0.0051951534
0000b0 f2 88 2e bd c1 05 86 3c f2 94 81 bd b2 3e 3d bc
       -0.04261107 0.016360166 -0.06327237 -0.011550592
0000c0 ff 76 d1 3c 3b c1 4c 3c dc 6b c7 bb 36 55 d6 3d
       0.025569437 0.012497242 -0.006085856 0.104654714
0000d0 06 b0 1f bd ec bc 9a bd 75 5a 82 3d c4 21 fe bd
       -0.03898623 -0.07555565 0.063649096 -0.12408784
0000e0 cd f1 84 3d 3b ea 9d 3d 78 1f c8 3c 70 d0 b6 bc
       0.06491432 0.077106915 0.024429068 -0.022316188
0000f0 b1 4b 49 bd e5 bc 5b 3d 94 85 3b 38 bc 03 ab 3d
       -0.04914445 0.05364694 4.470868e-05 0.08350322
000100 8a f2 1a bd 94 a2 7b bd a2 85 eb bc da 8b e0 bd
       -0.03782896 -0.061434343 -0.028750245 -0.109641746
000110 b9 63 7d bd 79 89 9e 3d 53 e4 08 bd 6c d1 1a bb
       -0.06186268 0.077410646 -0.033420872 -0.002362336
000120 27 92 b5 bd 6b ed 00 bd 99 7f ae 3c fb 1c 40 3d
       -0.08865767 -0.03147642 0.021301078 0.046902638
000130 3e b3 3c bd f2 90 17 3d 95 cf 9e 3c dd 99 a8 37
       -0.046069376 0.037003465 0.019386092 2.0098809e-05
000140 91 56 02 bd af cb 8c 3a 42 f0 1e 3d 82 9a 15 bd
       -0.031820837 0.0010741855 0.038803346 -0.036524303
000150 33 3e 21 3d 83 23 21 3d af e5 74 bd 3e ac f3 bd
       0.03936596 0.039340507 -0.059789356 -0.11898087
000160 dd 2a c2 bd 9a 28 3d ba 6c 09 94 bd 14 72 04 3d
       -0.09480832 -0.0007215828 -0.072283596 0.032335356
000170 fb 0d 6f bd c4 d4 10 3d 51 9a 8a 3d 10 62 c0 3c
       -0.058362942 0.03535916 0.06767715 0.02348426
000180 84 8f 0b bd d8 8a be 3c 4f 4b 44 bd 5b 49 a2 3d
       -0.034072414 0.023259565 -0.047923382 0.07924148
000190 dc 42 30 3d 0a 73 a1 3d a3 1f b3 ba ed 84 d2 bd
       0.043032512 0.0788327 -0.0013666045 -0.1027926
0001a0 16 78 f1 bc a8 ce 8b 3d 11 79 d8 bd 96 b1 ce bd
       -0.029476207 0.06826526 -0.105699666 -0.100924656
0001b0 fe f1 72 bd 6f 82 05 bd d7 7d 9d bd 10 6a 3e bd
       -0.059312813 -0.032595094 -0.07690018 -0.046487868
0001c0 36 5d 38 bd 9c 30 5c 3d 30 8b c3 bd d0 f5 ac 3d
       -0.045010768 0.053757295 -0.09548032 0.084453225
0001d0 0e 1d 47 bd 3b fd 47 bc c4 d7 5e bd 6a fb a6 3d
       -0.048611693 -0.012206371 -0.05440499 0.08153422
0001e0 b0 57 96 bc 5f 16 91 bd 19 5b da 3d 28 19 dc bc
       -0.01835236 -0.07084345 0.10661907 -0.026867464
0001f0 6f 2d 09 bc d6 f8 17 3d 92 5d e7 3c df 24 58 bd
       -0.008372649 0.037102543 0.02824286 -0.052769538
000200 88 e7 8d bd 55 f6 cf bd cb 5d 0f be a8 82 d6 3d
       -0.06928927 -0.10154406 -0.14000623 0.104741395
000210 59 ff ca 3d ed 0c ca bd 90 a8 78 3a f1 35 4a bd
       0.09911985 -0.09865747 0.0009485567 -0.04936785
000220 a2 51 08 bd 27 b4 9c 3d 51 75 54 bd 81 74 fb bd
       -0.033280976 0.07651549 -0.051869694 -0.12278081
000230 f6 1b 0f bd 04 b0 23 bd 24 66 94 3d 0a 4b 90 3c
       -0.034938775 -0.039962783 0.07246044 0.017613906
000240 ca 10 af 3c 9f 83 02 3b a0 df c9 3d bb 23 70 bd
       0.02137031 0.0019914878 0.09857106 -0.058627825
000250 be 4e 6a bd c3 f5 d0 3d 33 92 d1 3c 71 36 79 3d
       -0.057204 0.10203125 0.025582409 0.060842935
000260 6d b6 9b 3d d7 3c 59 3d 8c 7c 76 bc 66 3f c6 bc
       0.07603154 0.053036537 -0.015044343 -0.024200153
000270 ab 8e d5 bd 0d f2 a5 3d a4 0e 3e 3c 8f 8c 4c 3c
       -0.104276024 0.08102808 0.01160017 0.012484684
000280 48 ab 9f bd 73 be 08 3d 0d 5a bd 39 3f 3a c6 bc
       -0.07796341 0.03338475 0.00036115982 -0.024197696
000290 13 ce ad 3c 3c 7e 17 bd 7a ec 6e 3d 0d 5e 88 3d
       0.021216428 -0.03698562 0.05833099 0.06658564
0002a0 55 bb 6f bd ec c0 a2 3d b5 03 a1 3d 61 59 53 3d
       -0.058528263 0.07946953 0.07862035 0.05159891
0002b0 49 c6 bc 3d bf 3c c5 3d 75 52 cc bd 15 db 09 bd
       0.092175074 0.09630727 -0.09976665 -0.0336562
0002c0 68 ba 34 3d 8c ee e7 bd 39 a4 2b bd d0 6d ce bc
       0.044123083 -0.11324796 -0.04190466 -0.025198847
0002d0 45 02 72 3d fe cb a2 3d 78 d5 d0 bd 32 6d 83 bd
       0.059084196 0.07949065 -0.10196966 -0.06417312
0002e0 04 aa 20 bd 68 cd 97 3d b0 e3 13 3c ec 18 0d 3d
       -0.03922464 0.07412225 0.009026453 0.034447595
0002f0 94 96 9d 3d 56 71 1c bc 74 70 73 3d fd 37 6c 3d
       0.07694736 -0.009548506 0.059433416 0.057670582
000300 5c 00 c2 3c f5 36 c1 3c a5 d0 08 3d fc ac ef 3c
       0.023681812 0.023585776 0.033402104 0.02925729
000310 86 16 de bd 48 a5 48 3d 03 9c 5b bd 28 c2 cc bd
       -0.1084414 0.04898575 -0.05361558 -0.0999797
000320 27 dc 67 3d 73 25 57 3d b9 dd 45 3d ee a6 8a 3c
       0.056606438 0.05252595 0.048307154 0.016925301
000330 e9 fd df 3b 82 14 13 bc c6 7b 29 3d 10 a8 e9 3c
       0.0068356884 -0.008977057 0.041377805 0.028522521
000340 d8 44 50 bd a7 44 8f 3d 33 0c 49 bc e5 96 c0 bd
       -0.050846905 0.06995516 -0.012270975 -0.09403781
000350 ac 28 50 3c de cc 98 bd 93 87 8e 3d 3d bc af bc
       0.012705009 -0.0746095 0.069594525 -0.021452064
000360 f5 0d db bd 4f 71 a4 bd 7a fb 9e 3b dc 47 23 3c
       -0.106960215 -0.080294244 0.0048517557 0.009965863
000370 c1 75 57 3d fd 4f bf 3a 94 8c 82 3d ae f1 8e bd
       0.052602533 0.0014595982 0.063744694 -0.069796905
000380 d9 8a 4d 3d 0e ef 83 bd 94 9e 9f 3d 4d 4e d4 3c
       0.050181244 -0.064420804 0.07793918 0.025916243
000390 86 43 31 bd 72 a4 4b bd aa b2 bd bc 5d a0 a1 3d
       -0.043277286 -0.049717374 -0.023156483 0.07891915
0003a0 cc 3c 7c 3c b4 01 87 3d ad c7 a1 3c 1e 23 75 bd
       0.0153953545 0.06592122 0.019748533 -0.059847943
0003b0 77 48 a3 bd 24 78 f3 bd 40 87 bf bd fa ae 1f 3d
       -0.07972806 -0.118881494 -0.09351969 0.03898523
0003c0 85 38 57 bd 0d be 3f 3d 76 ba 87 bd fc 4b 1b bd
       -0.052544136 0.046812106 -0.066273615 -0.03791426
0003d0 08 6d c2 3d eb 06 30 3d ee c7 5a 3d 70 e8 10 bd
       0.09493452 0.042975347 0.053413324 -0.03537792
0003e0 4a f3 ec 3c ff 2f 70 bd 6d a8 9c 3d 30 67 d4 bd
       0.028924603 -0.058639523 0.07649312 -0.10371244
0003f0 1c 77 74 ba 1b 00 36 bd 85 86 93 3d f1 2b 4a bd
       -0.000932561 -0.044433694 0.07203392 -0.049358312

bias f4 [90]
000000 0e 71 37 3d 9f cc 21 bd b9 80 d9 3d e6 2d 4d 3c
       0.04478555 -0.039501783 0.10620255 0.01252315
000010 5a a9 6e bd 74 64 d2 bd 29 a7 12 bd ad a6 47 3d
       -0.058266975 -0.10273066 -0.035803948 0.04874294
000020 c4 ae 4c bd ce 25 a2 bc 59 cd d5 3d 2e 1f 8c bc
       -0.049971357 -0.019793417 0.104395576 -0.017104711
000030 bf 96 7b bd 89 aa 3f ba 6a 48 28 3d c5 3d 5f 3d
       -0.06142306 -0.00073114835 0.041084684 0.054502267
000040 83 88 a1 3d 84 ab 00 be 95 d8 43 bd 35 92 b0 3d
       0.07887366 -0.12565428 -0.04781397 0.08621637
000050 15 48 c1 bc b3 99 7a 3d a7 62 2c 3b 9f 9d ac 3d
       -0.023593942 0.061181735 0.0026303919 0.08428501
000060 aa a8 4b 3d 21 f8 37 bd 4b bb 38 bd 29 c4 b1 ba
       0.049721397 -0.04491437 -0.04510049 -0.0013562489
000070 dd 0f 80 bb e3 26 84 bd 90 71 13 3c 21 fe e3 bb
       -0.003908141 -0.064527296 0.008999243 -0.0069577848
000080 40 92 9c bc 77 d6 58 bb 51 3d 65 3d 6c 49 1c 3d
       -0.019112706 -0.0033086815 0.05596668 0.038155958
000090 c0 c8 9e 3c 52 14 9f 3c ef 0e 53 bd 21 57 df 3b
       0.019382834 0.01941887 -0.051527914 0.0068158065
0000a0 1d e6 b4 3d 3d 3c 40 3d f1 81 d4 bc 74 3f 72 bc
       0.08832953 0.046932448 -0.025940867 -0.014785636
0000b0 09 89 85 3d 01 48 f9 3b 2a 92 29 bd f7 74 81 bd
       0.06520278 0.0076074605 -0.04139916 -0.063211374
0000c0 dd 67 bf bc a5 7f cf bc 76 83 8a bc e4 1f 56 bc
       -0.023364956 -0.02532942 -0.016908389 -0.013069127
0000d0 99 2d 61 3d 20 c1 70 3d 98 d7 9d 3d bc db b5 bc
       0.054975126 0.05877793 0.07707137 -0.022199504
0000e0 db 50 86 bd 36 29 8a bd 93 77 63 3d 53 40 38 3d
       -0.06558391 -0.067461416 0.055533957 0.04498322
0000f0 57 53 73 3d 1d 2c aa 3c 74 15 ad 3d 41 ab 6f 3d
       0.05940565 0.020772988 0.084513575 0.05851293
000100 8a 5c 67 3d b4 70 96 bc bc 1e 8c bd f5 a2 7c bd
       0.056484737 -0.018364288 -0.068417996 -0.061678845
000110 fc c6 60 bd 14 9f ba bd 1b dc 80 3c af d8 48 3d
       -0.054877266 -0.09112373 0.015729954 0.04903477
000120 f3 bb d2 3d d4 ae 00 3c 0d 5d b0 3c 0e 54 aa 3c
       0.10289755 0.007854182 0.021528745 0.020792034
000130 3f ac d4 3d 4d 89 ae bd 0d f6 fc bc 8e 2c 36 bc
       0.10384416 -0.08522282 -0.030879045 -0.011119021
000140 26 fa 9e 3d 18 78 99 bc 72 17 ee b9 e7 ba d9 3d
       0.07762556 -0.018734023 -0.00045412366 0.10631352
000150 ed d5 be 3c 9b 65 d4 3d a7 b3 31 3d a6 e2 de bb
       0.023295367 0.10370942 0.04338422 -0.006801921
000160 47 7c 82 bd be 8a d9 bb
       -0.0637136 -0.006638854

weight f4 [9, 90, 1, 1]
000000 cb 98 92 bc 25 aa 94 3c 9e 7c 76 ba f3 a4 5f 3d
       -0.017895123 0.018147537 -0.00094027247 0.054600667
000010 33 9e f2 bc 1c ad b0 3c 24 cf 07 3d de 1e 14 bd
       -0.02961645 0.02156692 0.03315653 -0.03616225
000020 91 5a 18 3d 00 80 1b bc 92 d2 73 3b 22 96 bc bb
       0.037195746 -0.009490967 0.0037204367 -0.005755202
000030 3a d8 00 3d 51 12 2e bd 07 2a 29 3d 1c cc 91 bc
       0.03145621 -0.042497937 0.041299846 -0.017797522
000040 0d e6 2e 3d de f8 2e bd ff 4e 90 bc c2 fa 24 bc
       0.042699862 -0.042717807 -0.017615793 -0.010069551
000050 67 ac d8 bc 3b 10 97 bc f6 3d ad bd ae 21 b1 3c
       -0.026449395 -0.018440356 -0.08459084 0.021622505
000060 0b a1 65 3a 47 48 01 3d eb 34 13 bd 04 13 e3 3c
       0.0008759654 0.03156307 -0.03593914 0.027719028
000070 8d 70 24 bd 29 d7 5f 3d dd d8 3b 3b 36 45 c8 3b
       -0.0401464 0.054648552 0.0028663196 0.006111766
000080 29 f1 4a 3d 03 bb 2d 3d 4d 27 e0 bb 04 a1 d4 3c
       0.049546394 0.042414676 -0.0068406225 0.025955684
000090 ca 9c 03 bc 85 82 a5 bd 7b 16 a4 3b 2d f1 c8 3c
       -0.008032987 -0.08081535 0.0050075627 0.024529064
0000a0 4a 55 f4 3b cf ae bd 3c 23 da ac 3c 27 30 df bc
       0.0074564563 0.023154644 0.02110011 -0.02724464
0000b0 7f d6 3f 3d 4a d3 04 bd 78 9e 7f bd 1a 93 9e bc
       0.04683542 -0.032428063 -0.062406987 -0.019357253
0000c0 cd f4 e4 ba 49 5d 05 3d 42 69 99 bd 08 d0 31 bd
       -0.0017467976 0.032559667 -0.074907795 -0.043411285
0000d0 8b 02 26 3c ad 77 3a bd fd eb 0c bd d1 66 36 bb
       0.010132442 -0.045524288 -0.034404743 -0.002783228
0000e0 0d 05 9f bc 92 ed 59 bc 7d 66 a7 3b e8 c9 54 3d
       -0.019411588 -0.01330127 0.005108653 0.051950365
0000f0 1f ff 52 bd dd 71 12 3d c7 4c 08 bd a6 95 f5 3c
       -0.051512834 0.03575312 -0.033276346 0.029978584
000100 b8 ab 43 bd e2 5d 20 3c fd 6b c7 ba 5f cd 29 bd
       -0.047771186 0.009788008 -0.0015214678 -0.041455623
000110 1d 1f 1e bd e1 03 4a 3d aa eb 8c 39 9c eb 0a 3c
       -0.03860389 0.049320105 0.00026878464 0.008479025
000120 7a 04 6e 3b 30 86 6d 3b d4 60 ae bb 2e 7e b4 bc
       0.0036318586 0.0036243312 -0.0053216014 -0.022032823
000130 de d5 2e 3c 35 3b d2 3c 4e 43 11 bd 5f 2f 9c bc
       0.010671107 0.025662998 -0.035464577 -0.019065557
000140 f5 ca dc bc 42 34 57 bc 1e d0 37 bc 16 67 28 3c
       -0.026952246 -0.013135018 -0.011219053 0.010278484
000150 91 86 2d bc 58 02 ad bb 9a a4 e3 3c e5 72 89 bd
       -0.010591165 -0.0052798204 0.02778845 -0.067113675
000160 bc 98 dd 3b 8a 3b ed 3c bc 61 ab bc 48 80 f7 3c
       0.006762592 0.028959054 -0.020920627 0.030212536
000170 9d 97 a4 3c 48 fb 8f bc 1c d5 8c 3c 6e 56 89 bc
       0.020091826 -0.017575875 0.017191462 -0.016764846
000180 0a 25 da 3c 1b c9 04 bc 56 c8 5d 3c 7a 8f a3 bb
       0.02662899 -0.008104588 0.013536533 -0.004991469
000190 f0 40 90 3b 0f 97 0e bd 15 27 bf 3a c5 1d 78 3a
       0.0044022724 -0.03481203 0.0014583791 0.0009464885
0001a0 5a 75 e3 3c 8c ac 73 3c da 6b 2f bc 4d 1e b8 bc
       0.027765919 0.014872681 -0.010706866 -0.022475386
0001b0 7c 98 2b 3d 5b e7 55 bd 71 8c 6b 3c 25 be e2 bb
       0.041893467 -0.05222259 0.014376746 -0.0069196397
0001c0 8e 58 93 bc 3c 7b bc 3c ca 18 f5 3b eb 99 d7 3c
       -0.017986562 0.023007981 0.0074797617 0.026318511
0001d0 da ec 17 bc b4 4c 65 3d 4d 83 a0 bc 49 88 a6 3c
       -0.009272778 0.055981353 -0.01959386 0.020328658
0001e0 5c e9 86 3c d7 14 4e 3c 01 50 8a bc b1 87 00 3c
       0.016468696 0.012578211 -0.016883852 0.007844851
0001f0 c6 79 2a bd 32 8a fe ba 04 e2 e1 bb 7e 78 63 3d
       -0.04162004 -0.0019419848 -0.0068933982 0.055534832
000200 11 2b e0 bc 63 ae 80 3c 39 f2 a5 3b f2 c9 81 bc
       -0.027364286 0.015708154 0.0050642756 -0.015843365
000210 fd 4f 80 bb 5d de bf 3c 4b 1b 1d 3c 17 0d 13 bd
       -0.0039157853 0.02342146 0.009589027 -0.035901155
000220 e3 b4 a0 3d 22 99 d5 bc 3e f1 84 bb 15 d9 2a bb
       0.078470014 -0.026073996 -0.0040570786 -0.0026069332
000230 e4 e1 97 3c dc aa ce bb 86 4b eb 3c 6e f1 76 3d
       0.01854033 -0.006306989 0.028722536 0.06028884
000240 14 f6 59 3d 4c a5 c5 bc c5 ee 0a 3c 31 6c 67 bc
       0.053213194 -0.024126671 0.008479779 -0.014124916
000250 55 39 e4 3c e9 26 00 bc 4f 02 ea bc 4d 58 18 bc
       0.02785937 -0.007821777 -0.028565554 -0.009298396
000260 28 33 4f bb 12 cc 51 bd 0d 7c e5 bb be a6 b1 bb
       -0.0031616185 -0.051220007 -0.0070033134 -0.0054214885
000270 8c d2 89 bc 3c d7 14 3c a9 55 1c 3d 0c 41 bc 3c
       -0.01682403 0.009084519 0.03816763 0.022980236
000280 41 7f b3 3c 5c 24 d6 bc 80 f3 cb bc 29 71 64 3c
       0.021911265 -0.026140384 -0.024896383 0.013942995
000290 26 53 61 3b 37 92 a3 bc 54 c4 07 bd ba 4d be 3a
       0.0034381836 -0.019967182 -0.033146217 0.0014519014
0002a0 c6 4c 55 3c a0 a6 04 bc 7e 47 c7 bc 27 7c ca 3c
       0.0130187925 -0.008096367 -0.024326082 0.024717404
0002b0 c4 96 fd bc 36 1f f6 3b 89 8b a2 3b a8 0e 55 bb
       -0.03095568 0.007511045 0.0049604815 -0.0032509957
0002c0 93 b0 9f bb db 48 20 bb c1 6e c6 bc d4 45 63 bd
       -0.004873344 -0.0024457488 -0.024222733 -0.055486515
0002d0 b6 05 2c bd d4 e3 50 bd e0 05 55 3c a1 f4 07 bc
       -0.041997634 -0.050998524 0.013001889 -0.00829807
0002e0 79 78 54 bd 02 30 ba 3c cc ca c3 3b c8 2c 1e bd
       -0.051872704 0.02272797 0.005975103 -0.038616925
0002f0 06 e4 9b 3c 7e 08 28 bc e7 a1 1d 3c 53 9e 15 3d
       0.019029628 -0.010255931 0.00962112 0.036527943
000300 f4 f2 6c bc 0c 43 a0 ba 5d 71 51 3c 63 c6 3f bc
       -0.014462221 -0.0012227013 0.012783376 -0.011705014
000310 84 68 01 3d 21 7a 93 bd 27 9d 21 bd 28 3a fd 3c
       0.031593814 -0.072010286 -0.039456513 0.03091152
000320 43 6f 42 3c d5 d2 aa 3c 6f 38 21 bb 0a ca 34 bc
       0.011867347 0.020852486 -0.0024600287 -0.011034498
000330 15 eb ab bc ea da 85 bc e1 77 9c b8 a9 67 ce bc
       -0.02098612 -0.016339738 -7.460989e-05 -0.025195913
000340 74 2e 44 3c fa d1 cc 3c 7a a6 e9 bc 23 5f 88 bc
       0.011973966 0.025002468 -0.028521765 -0.016646927
000350 54 58 82 bb 0f 7c 15 bc bd 43 ef 3b d7 79 d2 3b
       -0.0039778147 -0.009123816 0.007301776 0.006423216
000360 12 c5 fe bc f2 5e 97 bc 46 0f 30 bc c5 73 1c bd
       -0.03109983 -0.01847789 -0.010745829 -0.038196344
000370 23 7e 0a 3d b0 d7 95 bc ee 25 77 3c 97 10 fc bc
       0.0338117 -0.018291324 0.015084727 -0.03076963
000380 e0 57 f8 bc dc 08 e5 bc 34 52 88 bd 85 a7 2c 3d
       -0.03031534 -0.027958326 -0.06656304 0.042151947
000390 23 f3 fd 3c 14 ac 06 3d 7a 46 71 3c 95 54 40 3d
       0.030999726 0.03287895 0.014726276 0.046955664
0003a0 89 58 de 3c 77 63 24 bd 6d b2 07 bb da fa 8a bc
       0.027141826 -0.04013392 -0.0020705715 -0.016965318
0003b0 ac 23 a3 bc 56 72 d0 3c 6a 4e e8 3b 36 b7 9c 3b
       -0.01991447 0.025445145 0.007089426 0.0047825826
0003c0 ad 7b f8 bc dc fd 82 bb 1c 26 36 bd 0c 3f 54 3d
       -0.03033241 -0.0039975476 -0.044469938 0.05181794
0003d0 4c ed 9d bc 2e f2 be 3c 56 74 74 bd d8 65 97 bc
       -0.019278191 0.02330884 -0.05968126 -0.01848118
0003e0 8c 55 13 bd c7 a9 be bc 09 c2 6d 3c a5 d2 ba 3b
       -0.035970256 -0.023274316 0.014511594 0.0057013803
0003f0 30 64 71 3c da d2 75 3b 92 82 18 3d 6b 48 06 3b
       0.014733359 0.003750971 0.037233897 0.0020489942
