NCA Parameters/Style Transfer/Spaghetti.pt (torch, 65115 bytes, 5 tensors)

weight f4 [90, 72, 1, 1]
000000 73 97 53 bd e1 d9 d7 bd 09 a5 18 be 24 e5 94 bd
       -0.051658105 -0.10539604 -0.14906706 -0.072702676
000010 6a 66 2e 3b dc 17 cd 3d 49 b9 1e 3c 2e 22 a2 3d
       0.0026611337 0.100143164 0.00968773 0.079166755
000020 2d 09 0e 3e 03 43 ef 3c 7d 0f 1b 3d 19 16 7b bd
       0.13870688 0.029206758 0.037856568 -0.06130037
000030 50 6e c5 3c 64 81 bf bd b0 bd 6f bd 87 e9 ba 3d
       0.024100453 -0.09350851 -0.05853051 0.09126573
000040 2c b3 a0 3d 1b b5 4d 3c 08 c5 a5 bd ef c5 81 3c
       0.07846674 0.012555386 -0.08094221 0.015841452
000050 f2 3f 06 3e f2 68 d0 3d 7d 57 e0 bc ce 29 83 bc
       0.1311033 0.10176267 -0.027385468 -0.016011145
000060 14 7f 7d bd 1d 96 00 3b 9c 68 37 3d b9 92 5a 3c
       -0.06188877 0.0019620724 0.044777498 0.0133406455
000070 c1 f9 58 3d 6a 2d 47 3d 01 18 a6 3c 4f 14 87 3c
       0.05297256 0.048627295 0.020275118 0.016489176
000080 03 97 db bc 15 ad 0d bc b0 fe b1 39 b4 a3 29 3d
       -0.026805406 -0.008647223 0.00033949828 0.041415885
000090 38 02 27 bd 5b 17 02 bd 11 77 ec bb 29 de 3f bd
       -0.0407736 -0.031760555 -0.0072163423 -0.046842728
0000a0 ea 98 89 3d 6e 6b ad bb 3a 5c a2 bc 3a c3 a3 3d
       0.06718619 -0.0052923476 -0.019819368 0.07996221
0000b0 55 95 10 3d bd 07 fd bb 0a 30 b2 3c c5 c8 28 bd
       0.035298664 -0.0077218697 0.021751422 -0.041207094
0000c0 36 1e 08 3e 41 40 a7 bd cb 39 d2 bd 60 e1 8c 3b
       0.13292775 -0.08166552 -0.102649294 0.0042993277
0000d0 1a 52 b5 bd 6c ef ab 3c 81 87 1e 3d fb 2d 89 bd
       -0.0885355 0.020988189 0.038703445 -0.06698223
0000e0 2d 61 0e 3d 86 07 4c bc d4 90 b3 3d 46 f4 04 3e
       0.034760643 -0.012452966 0.08767858 0.12983808
0000f0 44 a6 a6 bd 72 c4 fb bc d9 5b d9 bb 22 1a 89 3c
       -0.081371814 -0.03073332 -0.0066332635 0.016736094
000100 bd 33 d0 bc f8 c0 aa bd be d9 dd 3c f6 6f 2c bd
       -0.025415296 -0.08337587 0.027081367 -0.04209896
000110 51 49 12 3d 26 00 2b bd 77 b4 70 bd eb 35 ce bd
       0.03571445 -0.04174819 -0.058765855 -0.10068878
000120 56 69 20 3c 6b f6 e2 bd 3a 6e f2 bd 3c 37 86 ba
       0.009790739 -0.11082157 -0.1183743 -0.001023985
000130 82 b1 f5 bd 20 79 15 bd b5 4f 00 3e 9c 6d f6 3d
       -0.119967476 -0.036492467 0.12530406 0.12032625
000140 ce 9d d1 bc c7 1e ef bd 0c 39 ac 3d de f1 1c be
       -0.025587942 -0.11675792 0.08409318 -0.1532664
000150 46 12 48 bd ba a7 92 3d 66 b3 8e 3d d3 a6 6c bd
       -0.048845552 0.071608976 0.06967811 -0.057776283
000160 a4 f0 49 3d 92 95 41 3d 0c 4e 81 bd 8a ca 4f bd
       0.04930176 0.047261782 -0.063137144 -0.050730266
000170 8f 68 44 3d b3 77 d0 3d 53 06 56 3d 0a 04 0a 3e
       0.047951277 0.10179081 0.052252125 0.13478103
000180 9c 1c 79 bd 84 52 88 3d 0a 74 c3 bd 3e 2c b1 bd
       -0.0608183 0.066563636 -0.09543617 -0.08651017
000190 53 58 cf 3d 38 4a be 3c 12 39 25 3d f8 90 ba bc
       0.101242684 0.02322875 0.04033763 -0.022774205
0001a0 56 84 3e 3d 40 53 43 3d 7c a7 0b bc 95 5b 90 bc
       0.046512924 0.047686815 -0.008523818 -0.017621795
0001b0 74 15 2d bc 15 56 db 3c 50 a7 30 3d 4b 68 60 bd
       -0.010564197 0.026774446 0.04312831 -0.05478696
0001c0 d9 70 37 3d f8 34 54 3d a0 f4 e7 bc 7f 47 c8 bc
       0.044785354 0.051808327 -0.028314888 -0.024448154
0001d0 9c f5 84 bb 76 56 89 bd 33 f9 39 bd 3d fa 03 3e
       -0.004057599 -0.06705944 -0.04540367 0.12888427
0001e0 37 33 32 3d 96 ae 0b bd d0 fa eb bd 9a a4 70 3d
       0.043505874 -0.034102045 -0.11522448 0.058750726
0001f0 be d7 8f 3d f6 0d b5 3d 08 43 23 3c 9c 29 ef 3b
       0.070235714 0.088405535 0.009964712 0.0072986614
000200 ff c8 a9 3d b5 7a 19 be d9 5e 7c bd fb 01 36 3d
       0.0829029 -0.14988215 -0.06161389 0.044435482
000210 f7 09 81 bd 94 52 df bb 69 2f b4 bd 6f b5 c7 bd
       -0.06300729 -0.006815264 -0.08798105 -0.097514026
000220 02 b9 34 be 29 b9 ab bd 81 d2 35 3d c6 42 c5 3c
       -0.176487 -0.08384926 0.044390205 0.024079692
000230 8b ab b6 3b 35 c0 d3 3d 2a 41 47 bd ec 69 36 3d
       0.0055746487 0.10339395 -0.04864613 0.04453461
000240 88 a8 d4 3b 75 38 f5 3d 67 14 2d 3e 02 6e a8 bd
       0.006489817 0.11973659 0.16902314 -0.08224107
000250 5e e0 ac 3d a3 2b e4 bd 00 36 e3 bd c1 97 9a bb
       0.08441232 -0.111411355 -0.11094284 -0.0047177975
000260 e3 df da bc a9 1a 07 3e 10 91 a4 bd 20 9f 19 be
       -0.026718086 0.13193764 -0.08035481 -0.15002108
000270 a7 0d 37 bc 23 31 eb bd 53 40 70 bd 01 3d 86 bd
       -0.011172689 -0.114839815 -0.058655094 -0.06554604
000280 84 db 21 3d 9e 82 3e 3e 48 b2 ca 3d ad 41 c8 3d
       0.039515987 0.18604514 0.09897286 0.09778152
000290 10 98 e9 3d 7f d7 f4 3d 4d f0 ab 3d 23 5d 17 bd
       0.11405957 0.11955165 0.08395443 -0.036954056
0002a0 fe 44 a5 3d 87 5b e0 bd cd 6e 79 bd 25 a3 ca 3d
       0.080698 -0.109549575 -0.060896683 0.098943986
0002b0 29 c4 d9 3c d3 51 a6 bb f5 cf 3d bd 8c db 7d bd
       0.026582794 -0.005075672 -0.0463409 -0.061976954
0002c0 33 3d ac 3c d4 fa 91 3d 64 99 63 3d 49 5c 1e bd
       0.021025276 0.0712792 0.055566207 -0.03866223
0002d0 31 0c a7 bc 54 12 45 bc 99 da f9 3b 30 f0 a1 3d
       -0.020391556 -0.012028296 0.007624936 0.0790714
0002e0 1f 7b 19 bd 79 0b cf 39 a8 76 6f 3c e4 99 c7 3c
       -0.037470933 0.00039490664 0.014615692 0.024365373
0002f0 c7 94 b4 bc ae 8d 38 bb 49 90 9e 3d c9 2e 8f bd
       -0.022043599 -0.002816062 0.07742364 -0.069913454
000300 95 c3 81 bc 7f af a0 bd 40 75 2c 3c 92 27 ad 3d
       -0.015840331 -0.07845973 0.010526001 0.08454813
000310 59 79 a6 3d 45 38 31 bb e6 48 ac 3d 75 4d ad 3c
       0.08128614 -0.0027041596 0.08412342 0.021155098
000320 1e 77 2d 3d f0 e7 a8 bd 6f cd e7 bc 94 cc 52 3d
       0.042349927 -0.082473636 -0.0282962 0.051464632
000330 51 29 9d bc e6 2a 49 3d 2c b7 c1 3d e5 07 aa bd
       -0.01918474 0.049113177 0.094587654 -0.08302287
000340 b9 0c 83 bd ac db da bc 87 9d 31 bd 71 52 38 bd
       -0.06398911 -0.026716076 -0.04336312 -0.045000497
000350 6d 7e d7 bc cb 89 65 bd 87 74 8c bd bd f6 31 be
       -0.026305402 -0.056039613 -0.06858163 -0.1737928
000360 ba 12 f6 3d 69 49 34 3b 25 3b 70 3d f7 dc 7f 3d
       0.120152906 0.0027509576 0.058650155 0.062466588
000370 bc 0a 9e 3d be 8d d8 bd ba 28 6a bd 0f 61 b1 3c
       0.07716891 -0.1057391 -0.057167746 0.021652726
000380 2c e5 fb bd a9 6d 64 3c bd 0d 0d 3e 74 d6 7a be
       -0.122995704 0.013942161 0.13774772 -0.2449587
000390 cd d9 4e bd 30 4e 44 3d 5f ea 91 bc c3 f5 23 3d
       -0.05050068 0.047926128 -0.017811952 0.0400293
0003a0 e5 1a ae bd 6f 31 32 3e 81 09 d4 bd d5 ee e5 bd
       -0.085012235 0.1740167 -0.10353375 -0.11227194
0003b0 25 1e 97 bd 53 ec 4f b8 8f 73 c4 3d 42 66 40 3d
       -0.073787965 -4.957274e-05 0.095923536 0.04697252
0003c0 32 47 0f 3e 77 2a a8 bd ae bb 78 3d 16 96 96 bc
       0.13992003 -0.082112245 0.06072586 -0.018382113
0003d0 f6 d0 bf bd 27 37 12 3b c2 7f a7 bd 01 75 9d 3d
       -0.09366028 0.0022310705 -0.08178665 0.07688332
0003e0 84 42 b8 3c 00 40 97 3b bd 35 ed 3c 63 20 99 3d
       0.022492655 0.0046157837 0.028956288 0.074768804
0003f0 50 7d 59 ba 23 e3 7b bb 5e f4 db bb c4 6d 44 bd
       -0.0008296566 -0.0038434945 -0.0067124804 -0.047956243

bias f4 [90]
000000 dc d6 90 bd 06 6d cf bd 0c 95 58 bc de 5e 9e 3a
       -0.07072231 -0.101282164 -0.013219129 0.0012082716
000010 b6 79 a9 3d 7f b8 b3 3c 7c e1 21 3d e2 66 48 3d
       0.08275168 0.02193856 0.03952168 0.04892624
000020 84 fc 85 3c df fa d7 3d af 45 a4 bd 31 a6 cd 3d
       0.01635576 0.10545897 -0.080211036 0.10041464
000030 81 bf d6 3d 2f b8 43 3d 5a ca b5 bc 44 7b 95 3d
       0.10485745 0.047783073 -0.022191215 0.07298902
000040 79 d3 cb 3d 26 c6 bc 3c 75 68 d2 bd 66 dd be bc
       0.099524446 0.023043703 -0.1027383 -0.02329893
000050 6c bc 02 3e e1 07 10 3d 1a 6b e7 bc 9d 09 9e 3d
       0.1276719 0.035163764 -0.028249312 0.07716677
000060 98 70 93 bd 57 81 bf 3c d6 50 12 bd 54 78 71 3c
       -0.0719921 0.023377104 -0.035721622 0.014738161
000070 25 c3 01 3c 13 8a a5 3c 8c bc 92 bd f1 f4 11 bd
       0.007920061 0.02020744 -0.07164869 -0.035633985
000080 76 d3 9b bd 29 93 9f bd 34 23 14 bd 1c e5 3a bd
       -0.07608692 -0.077917404 -0.036166385 -0.045628652
000090 a7 60 1a 3e c8 65 21 bd c8 2c c5 3c 09 1f 2c bd
       0.15075932 -0.039403707 0.024069205 -0.042021785
0000a0 b4 2d 27 bc cb b4 bc 3d ad 7d 82 bd ed 13 51 bd
       -0.010203768 0.09214171 -0.06371627 -0.051044393
0000b0 1c 09 00 3c 49 3d 23 3b 9c 84 03 3e 5c d2 21 bd
       0.007814672 0.0024908355 0.12843555 -0.039507255
0000c0 d5 f6 f1 3d 54 44 7a bc bf 53 b0 bc f8 20 82 3a
       0.118146576 -0.01527508 -0.021524308 0.0009928038
0000d0 e1 67 19 bd 6e b8 f6 3d 40 d7 85 3d e9 bf 5d bc
       -0.037452582 0.12046896 0.06535196 -0.0135345245
0000e0 01 5d d4 3d f8 c3 ec bc 58 95 08 3e ba 78 62 3c
       0.103693016 -0.028902039 0.1333822 0.013822729
0000f0 45 42 86 b8 61 17 ef bc b0 37 c9 3b 3d fd d1 3d
       -6.4019616e-05 -0.029185953 0.0061406717 0.102533795
000100 b5 22 92 3d 82 eb 92 bc bf 45 cd 3d ad 10 78 3d
       0.07135526 -0.017934565 0.10023069 0.06056278
000110 2d 07 90 3d 86 ca d8 3d a1 1f 0b 3e b0 4f 8c bd
       0.07032619 0.10585503 0.13586284 -0.06851137
000120 69 f6 5c 3d 68 a8 23 bc a3 1f bc 3d 1e 7d 93 bd
       0.053945933 -0.009988882 0.09185722 -0.072015986
000130 4c 27 12 bd e4 c7 b8 3d e3 47 d2 3d 85 49 a6 3d
       -0.035682008 0.09022501 0.102676176 0.081194915
000140 b4 62 fc bd b5 7e e4 3c 01 53 ef 3c e9 8e af bd
       -0.123235136 0.02789245 0.029214384 -0.0857218
000150 ac 93 a0 3d f5 58 61 bc e9 12 74 bd 3d cf c4 3d
       0.07840666 -0.013754119 -0.059588347 0.0960984
000160 c2 5d ff 39 cf 93 40 bd
       0.00048707245 -0.04701596

weight f4 [90, 90, 1, 1]
000000 9a 22 f6 bd c4 e9 85 bd 9d c9 e1 3c 9d 82 55 3d
       -0.120183185 -0.06538728 0.027561957 0.052126516
000010 f8 27 c7 3c 32 ee be 3d f7 b8 0a 3d e1 d7 35 bd
       0.02431105 0.09322776 0.033867802 -0.04439533
000020 cc 5c 81 bd 72 fa b8 bd 92 e7 b9 3d 8c 9f 7d bd
       -0.06316528 -0.09032144 0.09077372 -0.061919734
000030 cd 27 14 bd 1c c9 aa 3d eb 94 bf bd f1 84 ae bc
       -0.03617077 0.0833914 -0.09354576 -0.021303626
000040 26 c8 06 bc 65 c1 96 bd 01 d5 43 bc 91 37 64 bd
       -0.00822643 -0.07361106 -0.01195264 -0.055717055
000050 ba 07 c2 3d 39 84 38 bc 16 e0 76 3d 01 a1 f0 3c
       0.0947413 -0.011261993 0.0602723 0.029373648
000060 50 f4 96 3d b2 64 97 bd d1 98 45 3d cc 44 d9 bd
       0.07370818 -0.07392253 0.04824144 -0.10608825
000070 b2 28 cb bd 96 ec ac bd 03 da 8f 3d 32 2a 95 bd
       -0.099198714 -0.08443563 0.07024004 -0.07283439
000080 14 68 8f bd 94 1e c5 3c e7 19 4d bd 00 89 bb bd
       -0.07002273 0.024062432 -0.05007353 -0.0915699
000090 30 e9 2e bd 27 de fb bb f3 11 b0 3d f3 c9 13 3d
       -0.042702854 -0.0076863947 0.085971735 0.036081266
0000a0 cd ef ac 3d b6 97 3a bd 04 b3 12 3d b1 29 0a bd
       0.08444176 -0.04555484 0.035815254 -0.033731166
0000b0 ad 44 90 bd 97 0a e2 3d 11 fe b1 3d 6c 11 2f 3d
       -0.07044349 0.11037176 0.086910374 0.042741224
0000c0 85 f6 f4 bd 57 6d e9 3b 3f 7a 0f bd 38 88 c0 bd
       -0.11961082 0.00712363 -0.035028692 -0.09400982
0000d0 60 c8 c7 bc 48 ef 37 3d d2 08 07 bd 21 b7 b3 bc
       -0.024387538 0.04490593 -0.032967396 -0.021937909
0000e0 ef 78 17 3d 4d f3 a1 bb d2 8e 8a bd ce 22 e9 3c
       0.036980566 -0.004942334 -0.06765522 0.028458979
0000f0 8a e2 93 3d 73 05 08 3e d8 31 a6 bc 1c 75 b5 3d
       0.07220943 0.13283329 -0.02028744 0.088602275
000100 31 ae dc bd 93 55 09 3e 36 f9 81 bd d4 50 ea 3c
       -0.10775412 0.1341155 -0.06346361 0.028602995
000110 27 68 09 3c aa 1f 64 bd 41 92 67 bd 9d 4f 30 bc
       0.008386648 -0.05569426 -0.056535963 -0.010761169
000120 73 4c 97 bd 41 e9 6a 3d 47 b8 48 3d 70 12 3d bd
       -0.073876284 0.057351355 0.049003866 -0.04616016
000130 c5 0e 4b bd c4 4b 32 3d 8a 51 ce bc 50 2a 3f 3d
       -0.049574632 0.043529287 -0.025185365 0.04667121
000140 55 20 19 bd 54 33 d4 bc ad 1d 97 3d 1a 87 f1 3c
       -0.03738435 -0.025903381 0.07378707 0.029483367
000150 b7 0b 84 3d 14 29 d7 3d 00 9b 17 3d 6c 03 13 bd
       0.06447547 0.10505882 0.037013054 -0.035891935
000160 9e b2 69 3d a2 03 82 3c 96 20 00 3c d3 2a 5c bd
       0.05705511 0.015870873 0.007820269 -0.053751778
000170 6c 60 0f 3d 3d b3 54 3d 47 0d b6 bd c8 ac 3c bd
       0.035004064 0.051928747 -0.08889251 -0.046063215
000180 54 66 c8 bd 5b 0b 58 bc bf de 78 3d 2b df 7b bd
       -0.097851425 -0.013186301 0.060759302 -0.061492126
000190 8e fd 4b bd 77 c6 b7 3d 55 5f 58 bd 1e 30 7c 3d
       -0.049802355 0.08973401 -0.05282529 0.061569326
0001a0 31 33 f6 bc bc 81 72 3c 68 df 3a bd 9c f6 08 bd
       -0.030053707 0.014801439 -0.045623213 -0.03343831
0001b0 b3 22 80 39 65 21 73 bd a9 a2 c4 39 48 04 c8 ba
       0.00024439915 -0.05935802 0.00037505224 -0.0015260065
0001c0 4b 1a 05 3e 4c c5 9c bd 39 73 bf 3d 65 f5 a9 bd
       0.12998311 -0.07654819 0.09348149 -0.082987584
0001d0 7d 51 d3 bd 46 0f 82 bd ad 30 db 3b 0a 72 bd bc
       -0.10318277 -0.063505694 0.006689152 -0.023125667
0001e0 9e b3 b7 bc 71 38 43 bd 6b 3e 3e bd 91 9c 83 3d
       -0.022424515 -0.04766125 -0.046446245 0.06426347
0001f0 5a 31 29 3d be 58 cc bd c9 6c 9b bd e3 ba e2 bc
       0.04130683 -0.09977864 -0.075891085 -0.027677005
000200 ac 1d 81 3d d1 c5 ba 3c c1 ed c3 bd 00 5b d9 3c
       0.063044876 0.022799404 -0.09566832 0.02653265
000210 42 9a e3 3d 57 01 07 bd 07 07 9f bc 83 16 af 3c
       0.11113407 -0.032960262 -0.01941253 0.02137304
000220 e2 fc cc 3b c3 83 f0 bc 72 b7 cb bc c8 90 b0 3c
       0.006255732 -0.029359704 -0.024867747 0.021553412
000230 f8 b6 87 3d 56 7a f1 3d 36 0f 65 bc bf 3f 11 bd
       0.066266954 0.11790912 -0.013980677 -0.035461184
000240 89 8f c6 3c 2d 3f 9e 3d e6 6c 6f 3d 1e eb b0 3d
       0.024238365 0.077268936 0.058453463 0.08638595
000250 ed aa 80 bc df dd 35 3d c3 b5 83 3d 25 20 e6 bd
       -0.015706504 0.044401046 0.06431153 -0.112366
000260 31 00 70 bd 19 a8 d3 bd ca b7 b6 bc 94 10 65 bc
       -0.058593933 -0.103347965 -0.022304434 -0.013981003
000270 c1 33 46 bd 94 c4 cc 3c a3 10 a6 3d 34 73 a7 bd
       -0.0483892 0.02499608 0.08108642 -0.0817627
000280 dc b9 8b bd 0b 47 8e bd 33 0d ff 3c 65 21 91 3b
       -0.06822559 -0.06947144 0.031134224 0.0044290298
000290 88 c5 1d 3c 12 4c 4d 3d 7d b7 a7 bd 7b c8 94 bd
       0.009629615 0.050121374 -0.081892945 -0.07264801
0002a0 3b fd f3 3d 99 3f 13 bd ec 64 0d 3e 97 68 66 3c
       0.11913534 -0.035949323 0.1380803 0.014063022
0002b0 27 b4 ac bc 66 68 b4 bd 5c 19 d5 ba 09 84 9b 3d
       -0.021081997 -0.08808975 -0.0016258168 0.07593543
0002c0 17 29 d9 3c 56 33 ae 3d a7 fb 7c bd 2e 2e f9 3d
       0.026508851 0.08505885 -0.061763432 0.12167011
0002d0 e0 2d 0f be e9 28 ae bd 49 7f 21 3d 22 e2 38 3d
       -0.13982344 -0.08503897 0.03942803 0.045137532
0002e0 32 d7 32 bd 99 b5 77 bd 0d 37 b0 3b 2c 4f b7 3d
       -0.043662257 -0.06047592 0.0053776563 0.08950648
0002f0 cd db b4 bd f1 f1 6a bd b3 39 4e 3d df ce 2f bd
       -0.08830986 -0.05735964 0.050347995 -0.042921897
000300 47 e9 a2 bd f9 92 31 3d fb 6e 7e bb df 49 b8 3d
       -0.0795465 0.043353055 -0.0038823474 0.08998465
000310 5d 82 99 3b d0 18 92 3d 50 34 a0 3d 9d 23 52 3d
       0.00468473 0.07133639 0.07822478 0.051303495
000320 3a 1b 46 3d 77 57 10 3d b1 68 43 3d 19 cf 58 bd
       0.04836581 0.035239663 0.047707263 -0.05293188
000330 62 07 b6 3d ec 45 1d 3d 7b cb b5 3d 36 57 bd 3d
       0.08888127 0.03839676 0.088767014 0.0924515
000340 f5 9c 00 be 52 d8 3a bc d2 e9 5c bc 7b b9 c4 3d
       -0.12559874 -0.011404114 -0.0134834815 0.0960569
000350 78 0b 0e 3d 2f 76 9f 3b 9c 7e 9b bd 5d 2e d0 bd
       0.034678906 0.0048663835 -0.07592508 -0.10165093
000360 30 ba 9a bd aa 45 9c 3a d8 f6 84 3d 6c 25 d9 3d
       -0.07555044 0.0011922617 0.06492394 0.10602841
000370 27 04 de bc 5a 40 b8 3d 8f 4e ff bb fd 20 df bd
       -0.02710159 0.08996649 -0.0077913473 -0.10894964
000380 de d5 9a bd a9 27 90 3d 02 b6 29 3c b7 85 08 be
       -0.07560323 0.070388146 0.010358335 -0.13332258
000390 96 eb 56 bc 7b 65 ba bd 98 ee 8c 3c e3 d6 6b 3d
       -0.0131176915 -0.09101387 0.017203614 0.05757798
0003a0 22 eb 1e 3d 8a e0 59 3a 45 ed a8 bc 3e 87 aa bd
       0.03879846 0.0008311352 -0.020620951 -0.08326577
0003b0 dd 0d 39 3d 00 af d4 3c a5 a5 91 3d 72 fb 9b bc
       0.045179237 0.025962353 0.07111672 -0.019040797
0003c0 7c 04 c4 bc 59 18 93 3d d0 11 25 3d a1 2b 2b 3d
       -0.02392792 0.07182378 0.04030019 0.041789655
0003d0 4d 84 55 3c 72 7b 57 bc ad 27 87 3d dc 1e 84 bd
       0.013032031 -0.01315199 0.065993644 -0.064511985
0003e0 25 02 87 bd a7 9b 31 bc d6 6b c3 3d 8a bc 93 bd
       -0.06592206 -0.010840333 0.095420524 -0.07213695
0003f0 ed c9 7a 3d 5b 92 a9 bd a9 0c 7c 3c 14 bd 0b 3d
       0.061227728 -0.08279868 0.015383878 0.034115866

bias f4 [90]
000000 9a 9d 5d bd ab f7 96 3c e1 40 8f bd 5e b9 9c 3d
       -0.05410538 0.018428644 -0.069947965 0.076525435
000010 5b 73 89 bd b8 eb 00 3d f2 a3 79 bd e3 8a 8e 3d
       -0.067114554 0.0314748 -0.060947366 0.06960084
000020 cd bf 92 3d 5b e1 00 bd f4 3d 52 bd 29 39 4c bd
       0.07165489 -0.031464916 -0.051328614 -0.0498592
000030 71 3b 5e bc 18 d5 3c 3d 44 c6 a8 3d 24 1b 2c 3d
       -0.013563977 0.04610166 0.08240941 0.04201807
000040 d4 c4 d1 bd 09 72 63 bc 91 f7 94 bc 9c a4 d2 bd
       -0.1024262 -0.013882169 -0.018184455 -0.10285303
000050 e1 38 2a 3d 7c 73 ae 3c d7 7c 02 bd 22 39 28 bc
       0.04155815 0.021295302 -0.031857338 -0.010267528
000060 f1 10 80 bd 0f 44 c2 3d e6 e0 bc bc 41 09 08 be
       -0.06253231 0.094856374 -0.023056459 -0.1328478
000070 29 ba 37 bc 54 ee 98 3d 64 08 b1 3c 31 c6 d2 bb
       -0.011213818 0.074673325 0.021610446 -0.0064323177
000080 4a a7 e5 3c ad ec 43 bb c9 d7 c2 3d c7 ce b2 3b
       0.028033871 -0.0029895708 0.09513814 0.0054567787
000090 a8 32 bd bc 5b 4b 3b 3d 13 ad b9 3d ca 9d 11 bd
       -0.023095444 0.04572616 0.090662144 -0.03555087
0000a0 cd 51 14 bd 08 82 a9 3d dc 4a f1 3c 9c 89 97 bd
       -0.036210824 0.082767546 0.029454641 -0.07399294
0000b0 b2 be cd 3d 2c b8 8f bd 58 43 50 3d 13 9d 11 3c
       0.10046138 -0.0701755 0.050845474 0.008887547
0000c0 5e 63 ad 3d 91 3a 23 3b a1 90 50 3d 32 12 05 bd
       0.084662184 0.0024906734 0.05091918 -0.032488056
0000d0 7c 46 6e bd e9 8d b9 bd c9 6e bd bc 86 5f c9 3c
       -0.058172688 -0.0906027 -0.023124116 0.024581682
0000e0 97 9c 17 bd 4d 8e d4 3d 3f 3d 24 bd b7 c2 7c bd
       -0.03701457 0.10378704 -0.04009747 -0.061709132
0000f0 a8 18 8e bc b8 fd a0 3d 42 03 79 3d 72 9e 99 bd
       -0.017345741 0.07860893 0.060794123 -0.07500924
000100 c1 3a 36 ba e4 92 e4 3c 8d 64 3a bd 72 4e 39 bd
       -0.0006951504 0.027902074 -0.04550605 -0.045240827
000110 e7 5f ba bd b3 8f 8f 3b b3 2c 5f bd c6 e7 bc 3d
       -0.09100323 0.004381144 -0.054485988 0.09223895
000120 45 be c2 3c be fd de 3b c6 93 a0 3d 66 1e ef bd
       0.023772368 0.006805151 0.078406855 -0.1167572
000130 a8 98 37 3d a3 1b 24 3d b4 27 b9 3c 53 9c 5f ba
       0.04482332 0.04006542 0.02260194 -0.0008530069
000140 54 03 9b bd 74 cb f6 bc 0b a6 a8 3d bf ea a6 3d
       -0.07568994 -0.03012631 0.08234795 0.08150243
000150 13 51 92 3d f2 dd a0 bd 21 75 1c bd d0 15 8f 3d
       0.0714437 -0.07854833 -0.03819764 0.06986582
000160 6c 11 eb 3c 60 2e a7 bc
       0.02869483 -0.020407856

weight f4 [9, 90, 1, 1]
000000 1b 4d fb 3b ba 30 b1 3c e4 48 d7 3c 23 90 b5 bc
       0.007669104 0.02162968 0.026279874 -0.022163456
000010 1e 2a 90 b9 44 b6 d1 3b 6b 06 8e bb b7 ca 1f bc
       -0.000274972 0.0063999016 -0.004334261 -0.009752921
000020 df 01 6d 3c ce d0 3a bc 2c a9 52 3c d7 31 e2 bc
       0.014465778 -0.011402322 0.0128577165 -0.027611656
000030 ef 21 21 bd 10 e8 33 bc b9 ef 03 3d 3a 3e 54 bb
       -0.039339002 -0.010980621 0.03221104 -0.0032385723
000040 bd 43 31 bb e1 44 83 bd 8d e0 57 bc 40 2e a0 bc
       -0.0027048432 -0.06409622 -0.013176096 -0.019553304
000050 db 4a fb 3c 46 87 84 bc d4 79 56 3c 92 f6 5b bc
       0.030675342 -0.016177785 0.0130905695 -0.013425486
000060 65 cc c3 3c a8 c0 94 bc b7 ce 9a 3a fe 4d 94 3c
       0.023901174 -0.018158272 0.0011810873 0.018103596
000070 f1 36 99 3a 48 a6 5e 3d 7d bd 79 bc fa 23 4e bc
       0.0011689347 0.054357797 -0.015242931 -0.01258182
000080 c7 0f 34 3c e6 9b cf bc af 78 02 3d 1c 17 c7 bc
       0.01099009 -0.025342893 0.031853374 -0.024303012
000090 6a 44 00 bd 76 60 20 bc a9 81 8c bb 54 2e 02 bd
       -0.031315245 -0.009788623 -0.0042879176 -0.031782463
0000a0 ec df a7 bc 93 59 20 3d e5 6c ea 3a 84 22 d3 bc
       -0.020492516 0.039147925 0.0017885236 -0.025773294
0000b0 c3 00 9b 3c 36 90 37 bc 6a 6d 2a bb 92 b3 dd 3a
       0.018921262 -0.011203816 -0.0026005157 0.0016914478
0000c0 c7 c2 94 3c 8d ea d0 3c 2b 4a a1 bb a9 3c 02 3b
       0.018159283 0.025502468 -0.0049221716 0.0019872582
0000d0 ec ee d1 bc 1e 4b aa bb 33 25 da 3c 2d b8 62 3c
       -0.025626622 -0.005196943 0.026629066 0.013837856
0000e0 4f cd 5a bc e7 03 a4 bc c4 86 69 ba 75 c2 c5 3c
       -0.013354613 -0.020021392 -0.0008908326 0.024140576
0000f0 8b af fc bc ff ea ee 3b 72 29 68 3b cd 66 3a 3d
       -0.030845424 0.0072911973 0.0035425094 0.045508195
000100 09 86 3e bc 7f 45 88 bc 2a e1 b5 3c 7b 6c 9a 3c
       -0.011628636 -0.0166347 0.022202093 0.018850556
000110 bf 34 ed 3c bd 87 2d bd cc fb d8 3c 1e da 3b 3d
       0.028955815 -0.04236578 0.026487254 0.04586231
000120 d4 23 b3 bc 16 bc e8 bb 31 d4 93 3c 34 16 a2 bc
       -0.02186767 -0.0071024997 0.018045517 -0.019785978
000130 2d 52 98 bc 6f 74 db 3c 9a 6d fe 3b 03 ca 50 3c
       -0.018593872 0.026788918 0.0077645304 0.012743476
000140 f2 a5 18 3c bd d4 86 bc eb 13 12 bc 58 ec 69 bb
       0.009316908 -0.016458863 -0.008915882 -0.003569385
000150 e3 3e 83 bc c5 8a 8d 3b e3 fd 49 3c 0b 04 20 3d
       -0.016021198 0.004319521 0.012328598 0.039066356
000160 99 d7 a2 3b 92 37 f2 ba af 05 8f 3c 46 23 64 3b
       0.004969549 -0.0018479696 0.017458765 0.0034811064
000170 4c 11 51 3d 47 95 10 bc 30 78 a9 ba 65 0f 81 3c
       0.051041886 -0.008824653 -0.0012929495 0.015754411
000180 70 b4 7d 3b 1e 93 6c 3c fe e1 bc 3b 25 e8 ab 3c
       0.0038712285 0.014439372 0.005764245 0.020984719
000190 20 4c a7 3c bf 92 8e 3b 79 a0 ff bc b3 3e 97 bc
       0.020422041 0.0043509896 -0.031204449 -0.018462515
0001a0 1a ed d0 bb 97 41 d9 3c ee 86 61 bc b9 82 26 bd
       -0.006375921 0.026520533 -0.01376508 -0.04065201
0001b0 02 14 50 3c 24 ba 1d bc 2f ca 13 3c bc f0 87 bc
       0.012700083 -0.009626899 0.009020372 -0.016594283
0001c0 26 b7 14 3c 17 22 cd ba a8 b1 52 bb 72 92 88 bc
       0.009076869 -0.0015650418 -0.0032149348 -0.016671393
0001d0 e9 74 04 3c d4 60 4a 3c aa b5 8c bc fe d9 f2 3c
       0.008084514 0.012352187 -0.017176468 0.029644962
0001e0 fa 2e a9 bc d3 4e 38 bd 5b ab ba bc 5a be d0 ba
       -0.020652283 -0.044997048 -0.022786787 -0.001592587
0001f0 56 a0 b2 ba e0 ca db bc 4c 0f cf 3b c0 92 9a bc
       -0.0013628106 -0.026830137 0.006318962 -0.018868804
000200 3f ec ad 3c 9e fa 5e bd ad 3e 8f 3c a3 9e 1c bc
       0.021230815 -0.054438226 0.01748594 -0.009559306
000210 16 17 84 bb 47 02 86 bc 27 06 a7 3c c0 60 0d bd
       -0.0040310724 -0.016358508 0.020388676 -0.034516096
000220 31 a9 ea 3b 35 d1 99 bb ff 41 3f 3c 55 74 e2 3c
       0.0071612825 -0.004694129 0.01167345 0.027643362
000230 19 e6 95 3c 63 78 97 3c 97 69 83 3b b6 d8 19 bd
       0.018298196 0.018490022 0.00401039 -0.037560187
000240 45 13 73 3c 82 0d b3 bc ba 97 43 3c 5b 8d 7a bc
       0.014836137 -0.021857027 0.01193803 -0.015292491
000250 35 10 4b 3b 26 75 7f 3c b0 f6 c5 3c ce 75 d8 ba
       0.0030985002 0.015591895 0.024165481 -0.0016514601
000260 0e de 18 3c 18 54 cd 3c ca 63 02 3b 2a 3d 17 3d
       0.009330286 0.025064513 0.0019895905 0.036923565
000270 e0 f5 26 bd 89 ee ff 3c ce e6 f4 3a d0 f1 f8 3c
       -0.04076183 0.031241672 0.0018684508 0.030388743
000280 28 b2 6a 3d c9 ba 46 3c 46 9b bc 3b 10 29 ca 3c
       0.05729881 0.012129494 0.0057558147 0.024677783
000290 6a 6f a3 bb 19 e3 bd bc 0f 84 fd 3b 36 66 bc 3c
       -0.004987647 -0.023179578 0.00773669 0.022997957
0002a0 44 b1 de bb 90 8d 83 3c cd 5d e4 3c ee d1 26 3d
       -0.006796034 0.016058713 0.027876759 0.04072755
0002b0 7a 31 34 3d 83 c0 08 3c 05 60 46 bc 08 d4 f5 3b
       0.043992497 0.00834668 -0.012107854 0.0075020827
0002c0 bc a1 1e bc af 57 fb 3c fe c6 c8 bc 21 0d 8a bb
       -0.009682115 0.03068146 -0.02450895 -0.004212991
0002d0 47 d8 a1 3c 29 b6 aa bc bb 24 9d 3c 62 74 00 bc
       0.01975645 -0.020838814 0.019182554 -0.007840248
0002e0 71 38 00 3d de 41 c2 3b 92 89 3a bd 3d 46 11 bc
       0.031303827 0.005928262 -0.045541354 -0.008866844
0002f0 f2 ce 1f bc 9e 1e 9b 3c f7 3d 81 3c 82 70 cd bc
       -0.009753929 0.018935498 0.015776617 -0.025078062
000300 18 3f b9 bc 67 f1 94 3b 73 58 fa b9 a9 29 89 bc
       -0.022613093 0.004545379 -0.00047749616 -0.016743498
000310 68 de 3b bd 33 16 43 bd c0 be dd 3c b3 2a b4 3b
       -0.0458664 -0.047628593 0.027068496 0.005498254
000320 28 28 3d bb e9 2f 15 3b 09 12 00 bd 77 25 41 bc
       -0.0028863046 0.0022764152 -0.0312672 -0.0117887175
000330 57 86 b8 bc 6e 9d 0f bb 25 47 55 3c 0a 2f 47 3c
       -0.022524996 -0.0021913904 0.01301745 0.012157211
000340 9f a5 9b bc 06 c6 58 3d 84 42 02 3d 40 f2 04 bc
       -0.018999873 0.052923225 0.031801715 -0.0081143975
000350 e5 59 02 3d de e8 f3 3b f9 64 e2 bc a0 6d 13 bc
       0.03182401 0.0074435314 -0.027636038 -0.008998305
000360 79 bc f0 3c 9a 03 22 bd b9 f3 1b bc 65 d3 64 bd
       0.029386746 -0.039554216 -0.009518557 -0.055865664
000370 ff 46 c3 bb ef 73 98 bb cc dd 59 3c 71 46 30 3c
       -0.005959391 -0.0046524922 0.013297509 0.010758982
000380 27 14 16 3d 31 c4 8d 3a 72 5e 5e 3c 11 e2 e0 bb
       0.036640313 0.0010815916 0.013572322 -0.0068628867
000390 8f 0d e8 3a 7c 94 4f 3a 45 87 da 3c d9 f9 2d 3d
       0.0017704236 0.0007918549 0.02667583 0.0424746
0003a0 fd 5a d7 3c 9a 0e 5b bd 33 ee 15 3d 22 fe 60 3c
       0.026288504 -0.053480722 0.036604118 0.013732465
0003b0 62 6c b6 3c 14 79 d9 bc 01 ed 76 3b c7 70 49 bd
       0.022268478 -0.026546992 0.0037677886 -0.04917982
0003c0 6e 46 15 3b 16 ed cd bc fa 24 76 bc df d9 9c 3c
       0.0022777575 -0.025137465 -0.015023464 0.019146858
0003d0 df 3f 9e 3c b9 93 1d 3c 4c 16 a2 bc a2 cf f5 3a
       0.019317565 0.009617739 -0.019786023 0.0018753896
0003e0 3c 3d 9d 3c ec c8 f0 bb b9 6a 1a 3d 9b 10 fd bc
       0.019194238 -0.0073481705 0.037699435 -0.030891707
0003f0 0b 90 c9 3c 16 5d 42 3d 77 5f 9c bc e4 14 43 bc
       0.024604818 0.047452055 -0.01908849 -0.011906836
