NCA Parameters/A pencil sketch.pt (torch, 65115 bytes, 5 tensors)

weight f4 [90, 72, 1, 1]
00000000: 29a5 e6bc 315f 20bc a076 d4bd 3a90 9c3d
00000010: 9b91 98bd fa94 ab3c 3d16 9dbd 10f3 33bc
00000020: d578 12bb c068 a43d 1051 c1be ede4 163d
00000030: a342 99bd 1ac0 633d ab2a 8abd 3267 5fbd
00000040: 7ebd 343e acc4 d23b d02c bdbd 918b a03d
00000050: 5229 bc3d e95a d03c 9a6d 94bc 8b93 82bb
00000060: 9e3b 0c3c acc6 3dbd f01e 09be 6b16 613d
00000070: 62a8 d5bc 73ad 223c 5da6 d3bc 2b78 e93b
00000080: 4648 233d 6079 c53d 2c93 03bc 5d5d 083d
00000090: e60f 4fbd 1b2e 443c 1537 1f3c e7fc f7bc
000000a0: eb95 2b3d a258 07bd 4871 303d a9a0 54ba
000000b0: 485b 44bc 33c8 24bd 4b30 c2bd df35 80bd
000000c0: a2dd 633d 1473 1e3d bffd 1d3e a237 a5bc
000000d0: 039b 2dbc bf3e 5f3c 3a28 833d 1fb9 133b
000000e0: 3af9 813d c477 803b 7337 08be f2b7 36bc
000000f0: 85ea 76bd 8e61 573d 88a9 f63d 8b4d a6bd
00000100: a566 4bbd 3196 b63d 1303 733b db64 073d
00000110: c37b 0bbe fb7a 1bbd 8a6c 843d 0156 943d
00000120: 5d75 4a3d 3745 94bd 75db 12be fe15 77bb
00000130: 132f 583d 91dc 173d 71b2 c1bd 3c72 69bd
00000140: f968 f1bc b816 3dbe 9edb c83d e1f2 a5bd
00000150: 199b aabd bd7c e43d 1226 0dbe a02e 97bd
00000160: 1855 24bd 1009 623e 4bf4 3e3c 847b 95bd
00000170: ab99 ff3d 670e dfbc 8238 5ebd 5a6a 7dbd
00000180: 9b74 31bd 5af9 0b3d c2b9 21bc 5443 8bbd
00000190: d48b 80bd a494 68bc a0eb 00be a366 e43d
000001a0: 08a0 5f3c b494 3cbc 46ae cf3d 3c52 b93c
000001b0: 1f85 09bd 7032 f03d a648 18bd 48e5 873c
000001c0: fbbf 623d e14c b7bc 33fa f9bc 0a2c 08bd
000001d0: 4c4f 33bd 5640 95bd 5d43 46bd 3ca9 883d
000001e0: 6472 8dbd 0953 e4bd 37e3 05be 4220 bfbc
000001f0: 038c 0f3d 0a9f cfbc 82ed 4dbe b4bb 903d
00000200: c9b5 0a3d 7779 ffbb b2c8 bb3d e870 98bd
00000210: 45c9 be3c 23bd 1cbd d951 e13d efc1 cc3d
00000220: dbde 8fbd 4639 e43d c0f4 213d 5a06 bf3d
00000230: 4504 11bd 14f8 f7bc f5e3 97ba d79a 1dbe
00000240: c500 023d e5f4 a03d 66d0 073e 739d 923d
00000250: ec12 fa3a 9dbd 853d 0b9a bb3c 43e8 c53d
00000260: ccf7 0a3d d3e6 dd3d 7103 65be 5111 14be
00000270: b666 8d3b 22da 70bc 993e a93d 701f 483b
00000280: bef6 9e3d 2b85 c43d 433b af3d 9064 10bd
00000290: dac2 e6bc 5870 abbd a277 88bc 25f9 cbbc
000002a0: 359a 393d 8e89 fb3c b448 f1bd 23bf 013c
000002b0: 3251 71bd 3f72 0b3d 3d0c 903d ce9d ad3d
000002c0: 95ef 2a3d 113d 49bc 59d6 af3d a5e3 d3b9
000002d0: aa08 df3c 44a0 54bc 81e9 ecbc 0e2c d03d
000002e0: efab 7bbd ec63 66bd 80b0 ed3b 14ff 9c3b
000002f0: e35e c23c e17f 473d d77b 15bc 8212 16be
00000300: 2b9e 0fbd 5948 7bbd d79a 363d a556 99bd
00000310: 985b 6c3d b0cb 003e 8c10 cebd 9f2a 5c3d
00000320: 0f3b 2c3d f0ba 09bd 04e6 8bbd 11df 64bd
00000330: 4c56 1e3d 0746 4f3d 1ed8 18bb 8a39 823d
00000340: fa33 0dbd 872f 66bc e74f c43d 6521 80bc
00000350: 8e1f b2bc 0c84 b73a 63e7 433d 5afb 223d
00000360: 484d 99bc e1e9 dcbd 5048 cdbd 9cf9 dfbd
00000370: 1e0b fdbd e89e 073e 51c2 92bd 0ee4 323d
00000380: 0243 25bd 8f0c 3d3e 7d18 1fbd 4d11 09be
00000390: bb2d fa3c 62e7 79bd 6231 85bd 78b6 03be
000003a0: da58 673e 2586 8dbd 074b 693d c564 12bd
000003b0: c1e3 233e 594f c53d a6aa ef3c 61bb 7b3d
000003c0: 716c 1ebe 07e3 d63d 04bd ab3d a2d6 82bd
000003d0: e643 8d3b e2f5 1cbd 787f 663b eb14 143e
000003e0: 14eb 78bd bfed d13d a961 d9bc e8c2 19bd
000003f0: a123 61bc 84fc 55bb 57e3 54bc 9067 ecbd
-0.028154926 -0.00978832 -0.103741884 0.076446965 -0.07449647 0.020945061 -0.07670257 -0.010983244
-0.0022349854 0.08027792 -0.37757158 0.036839414 -0.07483413 0.055603124 -0.067464195 -0.054541774
0.1765041 0.0064321365 -0.09237063 0.0783912 0.09187569 0.025433974 -0.018118668 -0.0039848736
0.008559136 -0.046332046 -0.13390708 0.05495302 -0.026081268 0.009929049 -0.025836164 0.007124921
0.039863847 0.09642291 -0.008030694 0.033292163 -0.05055227 0.011973883 0.009717722 -0.03027196
0.04189102 -0.03304351 0.043076783 -0.00081110984 -0.011984654 -0.040229987 -0.094818674 -0.06260275
0.055631287 0.038683966 0.15428828 -0.02016813 -0.01059604 0.0136258 0.06404157 0.002254076
0.06346364 0.003920527 -0.13302402 -0.011152254 -0.06028225 0.05258327 0.12044054 -0.08120259
-0.049658436 0.089153655 0.003708069 0.033055168 -0.1362143 -0.03795908 0.06466015 0.072429664
0.049428333 -0.07239764 -0.14341529 -0.0037702317 0.05277927 0.037075583 -0.09457863 -0.056993708
-0.029469 -0.18465698 0.09807514 -0.08102966 -0.08330364 0.111566044 -0.13784054 -0.0738194
-0.040120214 0.2207377 0.011654924 -0.07298949 0.12480482 -0.027228547 -0.05425311 -0.061869003
-0.043324094 0.034173347 -0.009870948 -0.06799951 -0.0627667 -0.014195595 -0.12589884 0.11152389
0.013648994 -0.011510063 0.10140662 0.02262222 -0.03357422 0.1172837 -0.037178658 0.016588822
0.055358868 -0.022375526 -0.030514812 -0.033245124 -0.043776795 -0.07287662 -0.048404086 0.06672904
-0.06906584 -0.1114865 -0.13074957 -0.023330811 0.035045635 -0.02534439 -0.20110133 0.070670515
0.03386477 -0.007796462 0.09169139 -0.0744341 0.023289332 -0.038266312 0.11001939 0.099979274
-0.07024928 0.111437365 0.039540052 0.09327383 -0.035404462 -0.03026966 -0.0011588322 -0.15391098
0.031739015 0.0785921 0.13263091 0.07158937 0.0019079125 0.065303065 0.022900602 0.09663441
0.033927724 0.10835042 -0.22364594 -0.1445973 0.0043152226 -0.014700444 0.08263893 0.0030536316
0.07761906 0.09595712 0.08556225 -0.035252154 -0.028169084 -0.08371037 -0.016658608 -0.024899075
0.04531308 0.03070524 -0.11781445 0.007919106 -0.058915325 0.0340445 0.07033584 0.084773645
0.04173239 -0.012282626 0.085858054 -0.00040414665 0.027225811 -0.012977663 -0.028919937 0.10164653
-0.061443266 -0.056247637 0.0072537065 0.00479115 0.023726886 0.04870594 -0.009123764 -0.14655498
-0.03506295 -0.061348293 0.04458126 -0.07487229 0.057704538 0.125777 -0.1006175 0.053751584
0.04204851 -0.033625543 -0.068309814 -0.055876795 0.038656518 0.050603893 -0.0023322175 0.06358631
-0.034473397 -0.014049417 0.09585553 -0.015640924 -0.021743562 0.0014001145 0.04782809 0.03979049
-0.018713608 -0.10786796 -0.10023558 -0.10936281 -0.12355636 0.13244212 -0.07165969 0.04367452
-0.040347107 0.18461822 -0.038841713 -0.13385506 0.030539384 -0.06101168 -0.0650356 -0.12862575
0.22592488 -0.06910352 0.056956317 -0.035740633 0.1600485 0.09634275 0.029256176 0.061457995
-0.15471055 0.10492521 0.08385661 -0.06388594 0.0043110726 -0.03832043 0.0035171192 0.14461105
-0.060771063 0.102504246 -0.026535826 -0.037539393 -0.013741405 -0.0032651732 -0.012993655 -0.115431905

bias f4 [90]
00000000: 0526 ab3d c8cb 7cbd cbc7 13bd adc0 69bd
00000010: 0957 ff3d cc60 aabc 9811 163d ded6 5f3d
00000020: 1e03 fdbc 451e b8bd 9d65 51bd fffe 3c3d
00000030: 0ce8 7cbd c261 9bbd 16c3 db3d fa73 9a3d
00000040: a522 b03d ad1d 313d 0216 013e ba3b 05be
00000050: 13c6 4e3c 5ec2 72bd cf00 d93d 7030 01bc
00000060: 2610 e53d 2888 133e 136e d43d 9d41 4cbc
00000070: a320 28bd f62d 743c ee7a bdbd f227 923c
00000080: bc71 b53d 902a cc3d c68c cfbd 8caa 523d
00000090: 0b7d 91bd 3630 9d3c 7e1d 163e efad 8d3c
000000a0: 9cf8 96bd 27e5 04bd d716 bd3d 8367 123e
000000b0: 659c 1f3d 4711 8fbd f042 9f3d 20f7 433c
000000c0: 7271 3e3e b7fa ccbc e082 66bd 1e2c d03d
000000d0: 4552 ebbd ce1c f93d 43da 6ebd 0ba8 f9bd
000000e0: 82b0 7cbc 253b 0b3d a516 093d a45c 64bd
000000f0: e40f efbc d608 9abd 4d5c 73bd 8bda abbd
00000100: c93f a8bd aa8c 92bd 7aef 5dbd ef61 fa3d
00000110: 0c83 023e c2e2 deba d511 dbbd d6be aebc
00000120: 82d0 2a3d 9c0a 13bd 3e65 5b3d f3c5 05be
00000130: 1015 573d ecea 263b bf25 9e3d 5515 763c
00000140: b9ad a83d 8fbb fc3c 27a7 483d 1eef af3d
00000150: 90c9 96bd 4171 62bc d093 0cbd 9597 733d
00000160: 94e1 0f3e e28f ccbd
0.08356861 -0.06171778 -0.03607921 -0.057068516 0.124677725 -0.02079811 0.036637872 0.054648273
-0.030885275 -0.089901485 -0.051122297 0.04614162 -0.061744735 -0.07587005 0.10730569 0.07541652
0.08600358 0.04324119 0.12606052 -0.13011065 0.012620467 -0.059267394 0.10595857 -0.007885084
0.11184721 0.14407408 0.103725575 -0.012466815 -0.04104675 0.014903536 -0.092519626 0.017841313
0.08859584 0.09969056 -0.10134272 0.051432177 -0.07103928 0.019188028 0.14659688 0.017294852
-0.07371637 -0.0324451 0.09232872 0.14297299 0.03896751 -0.06985717 0.07776439 0.011960775
0.18597963 -0.025021894 -0.056277156 0.10164665 -0.11490301 0.12163697 -0.05831362 -0.12190255
-0.015422942 0.03399195 0.03346886 -0.05575241 -0.029182382 -0.075212166 -0.059414197 -0.08391293
-0.08215291 -0.07155736 -0.05418346 0.122257106 0.12745303 -0.0017004835 -0.106967606 -0.021331232
0.041702755 -0.03589879 0.05356335 -0.13063793 0.05251032 0.0025469614 0.07722043 0.015019734
0.0823626 0.030851154 0.048987534 0.0859053 -0.07362664 -0.013820947 -0.034320652 0.05947073
0.14050895 -0.09988381

weight f4 [90, 90, 1, 1]
00000000: ed72 f8bc 5788 bcbd e16e 483d d3bf c1bb
00000010: 3c67 813d f2a0 a4bd caf2 bbbd c023 253d
00000020: dd15 f0bb 2856 043c 7bf5 093d 184b 52bd
00000030: f492 87bc 8eeb e9bd dbb5 923c ac68 81bd
00000040: 3beb 653c 133e cfbc fef1 dcbd 40bb edbd
00000050: ebb7 b5bb e7ac 0ebd ad10 583c 0af0 22bd
00000060: 58a6 ab3d 76a7 9f3d e3ca 053d cf45 3cbd
00000070: 69c1 333d 22f9 483d 1d00 d13c 13f6 65bc
00000080: bbdc 5cbd 4a2f b2bd 13d9 363c a4a0 613d
00000090: ae5c 50bc 9eee 233d 1cf5 5d3d 43a9 58bd
000000a0: b899 793d a03c 4c3d bd5d 8ebd b60e 59bc
000000b0: db09 523d 917f f9bd 950e 8e3b 1a00 823d
000000c0: 863f 803d 3406 aebc 6b4c 203d 9e0a 5bbd
000000d0: 4be6 bdbd 5d2d 893d 1cb6 21bd 1fde e2bd
000000e0: 3a39 f73d c369 c0bd 572e b63d 5e1e 74bd
000000f0: 5abd 56bc aa59 6bbd 1031 583d 50e2 28bd
00000100: 7a7f 5ebd afc7 8cbc d444 bfbd c99f ec3c
00000110: f4f0 40bd b1bb abbd 03a4 82bc b796 bfbd
00000120: c3fe 6ebd 1b04 0b3d 5197 eebc 4b9c f5bd
00000130: 11ca 80bd b535 0a3c 1849 87bd 97cc 3a3d
00000140: 6d98 5cbd c69e 92bd 4ab8 1bbd d44e c3bd
00000150: 6ad7 b33c f208 d3bc 354e df3b 4bc0 06be
00000160: 7a30 753d 4eda d5bc 4764 2bbc f127 97bd
00000170: c825 5bbc 03de 9dbd 8151 28bd 53f4 54bd
00000180: b6f1 49bd 1b25 ab3d 0e69 51bd 98a8 08bd
00000190: 252f a83d f5fc 493d 4db9 37bc 21dc 293d
000001a0: eb95 8abd ea25 b93d 59f1 8abd bf72 1b3d
000001b0: efc9 c23d 3e11 cbbb 4a72 093c 52c3 50bd
000001c0: 9977 0c3d 5768 e23b fb18 99bd 4bfe 6f3d
000001d0: 7c32 cf3d c612 b1bc 5eae cd3d 2fdb e3bb
000001e0: 595a cfbc af97 a2bd d1cb adbb 6369 543d
000001f0: a217 8abd 980f bebd 86c3 59bd a034 a3bd
00000200: 10c0 0cbd c613 323c 49a3 ce3d 55e1 8f3d
00000210: 1143 b23d 546d e63b a833 323d cea0 0aba
00000220: fbdb 5f3d 9320 ddbc d320 58bc e823 2c3d
00000230: 4e4b 66bd 13f3 10bd c655 cd3d 8f67 aa3d
00000240: e213 123d 28a1 09bd df3e 4dbd 2931 db3d
00000250: b866 d33d 56c3 6a3d fff1 dfbd b007 0f3d
00000260: ff4e 57bd 7bd2 e2bd acdb e8bd d30f 6f3d
00000270: e994 3c3d 405c a4bd b6d8 edba 7e6b 6ebd
00000280: 916a 34bd 1246 14bd 5f21 f9bb 7115 5e3d
00000290: 6cc9 0b3e 1d36 bbbc 2822 363d fbd4 91bd
000002a0: 04fb cfbc 4019 c0bc 09ab 003d 7db8 cc3d
000002b0: ff45 d23d 37b4 2c3d d003 06bc 7fd2 92bd
000002c0: 7d76 24bc 15a6 60bd ab06 e4bc 3990 94bd
000002d0: b925 26bd 1a2e 243d ac1f 353d 7fdc 1fbe
000002e0: ffb5 86bc 0277 aa3d 1a10 81bd 0340 90bc
000002f0: 7235 a83a 6522 d0bd cfa8 5d3d 9d4d afbd
00000300: 836f 033e 31ee ecbc 65a5 4d3d 7e1d d2bd
00000310: d824 9bbd ed51 a5bd 9fe9 813d d13e 8b3c
00000320: 64cb 493d 0b77 843d 6bc8 af3d 79bc 6cbd
00000330: 1048 0bbd bf91 493d 6ad7 9d3d 209e 773d
00000340: 1fe8 d3bc eb59 dbbd 3e0d 2abd 38a4 31bd
00000350: ad5c 263d f543 c03d a984 eabb 5c1b bc3c
00000360: 2544 88bd ebcf 98bd 7dda 8b3d 3479 113d
00000370: 80b1 85bc 813e 80bd 265c 433d 30b3 dabd
00000380: a762 54bd 3ea3 363d ccfd 14be 7c01 b33d
00000390: 109b d63d 6d68 29bd bee6 433c 4de3 d0ba
000003a0: a3aa 0b3d f8a8 8bbc 6da5 3ebd 0bf4 c53c
000003b0: 4e99 903c e65b c33a b087 54bd a643 b6bd
000003c0: 882e 263d a7d8 29bd 497a 9b3b bea5 e03c
000003d0: 669e ffbd e66d c23d 4813 1cbe 875d cd3d
000003e0: c2ab c23b d786 29bd e2c6 b6bd 0285 b33d
000003f0: 1b6d a4bd c008 cebc 1fb1 a03d 394e 853d
-0.030328238 -0.09205692 0.048933867 -0.00591276 0.063185185 -0.080385104 -0.09177168 0.040317297
-0.007326825 0.008077182 0.033681374 -0.051341146 -0.016549565 -0.114218816 0.017908981 -0.06318793
0.014033134 -0.025298154 -0.10788344 -0.11607981 -0.0055456064 -0.03483286 0.01318757 -0.0397797
0.08381337 0.077956125 0.03266419 -0.045965012 0.043885622 0.049065717 0.02551275 -0.014035719
-0.053921442 -0.08700426 0.011160153 0.05508484 -0.012717409 0.040022485 0.054188833 -0.052895796
0.060937613 0.049862504 -0.06951473 -0.013248136 0.05127893 -0.121825345 0.0043352344 0.063476756
0.06262116 -0.021243192 0.039135378 -0.053476922 -0.092724405 0.066981055 -0.039480314 -0.110775225
0.12071462 -0.093951724 0.088955574 -0.059599273 -0.013106668 -0.057458557 0.052781165 -0.041231453
-0.05432079 -0.01718506 -0.093393 0.028884785 -0.04710479 -0.08385409 -0.015947348 -0.093549185
-0.05834843 0.033939462 -0.029124888 -0.11992701 -0.06288541 0.008435656 -0.066057384 0.04560527
-0.053856302 -0.0715919 -0.03801755 -0.0953652 0.021953303 -0.025761101 0.006814743 -0.13159291
0.059860684 -0.026105072 -0.01046092 -0.07380665 -0.013375707 -0.07708361 -0.041093353 -0.05199082
-0.04930278 0.08356687 -0.05112558 -0.03336391 0.08212117 0.049313504 -0.011213613 0.041469697
-0.06766876 0.09040435 -0.06784315 0.037951227 0.09511172 -0.006197124 0.008389065 -0.050967522
0.034293745 0.006909411 -0.07475468 0.058592122 0.10117051 -0.021615397 0.100430235 -0.006953619
-0.025311636 -0.079390876 -0.005303838 0.051858317 -0.06742789 -0.09280318 -0.05316498 -0.07969022
-0.034362853 0.010868972 0.10089738 0.070254005 0.08704198 0.007032076 0.043506294 -0.0005288244
0.05465315 -0.026993072 -0.01319142 0.04202643 -0.05622416 -0.035388064 0.100261256 0.083205335
0.035663493 -0.033600956 -0.050108787 0.10702736 0.103223264 0.057315193 -0.10934829 0.03491944
-0.05256557 -0.11075302 -0.11370024 0.0583647 0.04604045 -0.08025408 -0.001814625 -0.05820798
-0.044046942 -0.036199637 -0.007602855 0.054219667 0.13651055 -0.022852952 0.044466168 -0.07120701
-0.025388248 -0.02344954 0.03141311 0.09996126 0.10267257 0.042164054 -0.00817962 -0.07169055
-0.010038015 -0.05484589 -0.02783521 -0.07254071 -0.04056332 0.04008303 0.044219658 -0.15611456
-0.016444204 0.0832348 -0.06301899 -0.017608648 0.0012833311 -0.1016281 0.054116067 -0.085597254
0.12835507 -0.028922172 0.05020656 -0.102595314 -0.07575387 -0.08072267 0.06343388 0.016997727
0.049266234 0.06468018 0.085831486 -0.05779693 -0.03400427 0.04921126 0.077071026 0.060453534
-0.02586752 -0.1071051 -0.041516535 -0.0433695 0.040615726 0.09387962 -0.0071569276 0.022962265
-0.066536225 -0.07461532 0.06828783 0.03551598 -0.01631999 -0.06261922 0.0476953 -0.106787086
-0.051851895 0.044589274 -0.14549941 0.087405175 0.104787946 -0.041359354 0.011956869 -0.0015936882
0.03409828 -0.017048344 -0.04654448 0.02416422 0.017651226 0.0014904707 -0.051887214 -0.08899622
0.04057172 -0.04146638 0.004744802 0.027422782 -0.12481384 0.09493618 -0.1524173 0.100276046
0.0059408853 -0.04138836 -0.08924653 0.087656036 -0.08028623 -0.025150657 0.07846283 0.065090604

bias f4 [90]
00000000: 9280 fe3d 7a94 8abd 73c0 d23d b38a a1bd
00000010: a776 3e3d ba56 0e3d ea8b 87bd 3e7a 673d
00000020: 845c 993d b24d a5bd 4892 2db9 5901 8fbc
00000030: 3a31 693d 9b29 83bd da6b 92bb 9d9f 343d
00000040: 7552 293d c473 aa3d 9a28 1fbd 3ee0 40bc
00000050: c598 5b3d c379 0dbd a6bf d73d ea9f 28bc
00000060: 2443 a3bb 4ee1 383d d69e 733c 2e02 823d
00000070: 0214 533d 4d8b 973d b8a9 2a3c 1b03 9ebd
00000080: b44b 89bd a844 e5bd 2bd8 04be b010 4e3d
00000090: 7c30 dcba c6d0 c33c d794 ebbd 76fc 103e
000000a0: 6261 cfbd 9650 6e3b 8d51 4abc a91a 8dbd
000000b0: d04c e0bd afdc dd3d b092 303d 6a24 8ebd
000000c0: 00d0 97bc 1123 c0bd 0f63 8d3d 8a9a 23bd
000000d0: 5ae4 5e3c bd7c 943d 7a0e 9cbd 913e 433d
000000e0: 7cae 4a3d 602a 3d3d b839 1cbd f36f bd3d
000000f0: ed8d 51bc 0dae acbc 7b88 b4bb cfca 2bbd
00000100: 6dcd 893d 0399 31bd 5b2d 61bd 8b72 833c
00000110: 3a9b 913d dd41 dd3c 083b b93d 1895 dcbd
00000120: a160 123d 3d15 a03c fc94 0fbd c795 bdbc
00000130: f3fa bebd c04f 95bc 4864 9a3d 90e9 b5bd
00000140: 51dd b9bd c253 18bd 77a3 9abd 2d06 c8bd
00000150: 6f46 df3c 56d4 9ebc 476d b4bd 920d 93bd
00000160: 6829 6d3d 8b6b 20bd
0.124268666 -0.06766601 0.10290613 -0.07887783 0.046499874 0.034750678 -0.06618483 0.056513064
0.07488349 -0.0807146 -0.0001655306 -0.017456697 0.05693171 -0.0640442 -0.0044684233 0.04409753
0.041338403 0.08322862 -0.03885708 -0.0117722135 0.05361249 -0.03453995 0.10534601 -0.010292033
-0.004982369 0.045136742 0.014869412 0.06348072 0.051532753 0.073996164 0.010416441 -0.07715436
-0.06703892 -0.11194736 -0.12973087 0.050308883 -0.0016799117 0.023903262 -0.11502998 0.14158806
-0.10125996 0.003636395 -0.012348545 -0.06889851 -0.10952151 0.10833108 0.043108642 -0.06940539
-0.0185318 -0.093816884 0.069036596 -0.0399423 0.013604248 0.072503544 -0.07619949 0.04766709
0.049482808 0.04618299 -0.038140982 0.09249868 -0.012790185 -0.021079088 -0.005509434 -0.04194146
0.06728635 -0.043358814 -0.054974895 0.01604583 0.07109685 0.027008945 0.090444624 -0.10770625
0.035736684 0.019541377 -0.035054192 -0.023142708 -0.093252085 -0.018226504 0.075386584 -0.08882439
-0.09075416 -0.037189253 -0.0755071 -0.09766803 0.027255265 -0.019388359 -0.088099055 -0.07180323
0.057900816 -0.03916506

weight f4 [9, 90, 1, 1]
00000000: 034d f93c b6a3 c03c 14db cc3c b697 8e3b
00000010: 04c1 153d 54b6 1b3d e640 9c3a 47eb bdbc
00000020: e8dd aa3c 6fe2 8bbc 5220 0a3c cfde cdbc
00000030: 16bc 8bba d0ad 75bc 54e8 b83c 6fac da3c
00000040: c938 123c 7250 043d df65 7cbc 526a dabc
00000050: b827 2bbc ef45 9e3c ea1c 653c 05b1 a9bc
00000060: b215 07bd e1e6 ccbc 9d96 c73c 2138 ec3a
00000070: d7fb 8c3b a3f3 0a3c 59c7 1f3d 3a6f 56b9
00000080: ef68 ccbc 81ce 5e3b 995d 7abd 8d71 1fbc
00000090: 0e14 0a3d d4a8 afbc 1710 dabb 1d87 d43c
000000a0: 2d43 45b8 63aa 983c 7d2a 43bd ada5 b7bc
000000b0: 51fe 193c a7ce d53c c9d2 11bd 143c e43c
000000c0: 4169 1e3c 2816 bebb 5984 c6bc bea5 1bbd
000000d0: 854c ea3b c520 843b 1dfa 323c 3cfa 9abc
000000e0: f8a7 fa3c 78bf 4cbc 13c8 96bc 9880 c4bb
000000f0: db02 123c 480f 58bc d51c 673a 3db6 8d3b
00000100: 44cf 92bb 7ee8 c63c 8e8a ac3b a7bf afbb
00000110: 8d33 59bd b4e5 223d 07b5 b2bc 0668 4f3c
00000120: 8349 d03c 6e6d 983c 5e1d d0b8 1478 843b
00000130: 02dc 4f3c 36a5 34bc 895c 193c 6e27 84bc
00000140: 08ae 833c 979b 8a3c 9bbf 41bc 56ca 08bc
00000150: d28c 8f3c 6793 8ebc 2741 a53c 2adf 37bc
00000160: 406c 133c 8d56 803c a8db 57bb 6422 fe3b
00000170: a1e0 a93c b045 9bba 1ee0 db3c a980 883c
00000180: 657e 45bc 777a ecba c5e2 f5ba 15f0 0f3b
00000190: fb37 1f3d 84e4 5e3c 3e39 023c 4501 91bc
000001a0: cf2e fc3c 1580 df3c 1688 5ebc 9383 07bd
000001b0: c156 2cbc 623e bbbb f975 993b 36f1 1c3c
000001c0: 8a6d b93c 421f cfbc a631 883c cdf0 19bd
000001d0: 9e98 4c3c a01c d639 a0dd ca3b 8434 063d
000001e0: d440 1c3d 1b12 78bc 0ccd bbbc 549b 0e3d
000001f0: aa40 81bd 01ac ee3c 6368 2aba e883 8c3c
00000200: 5b24 e9bb 3eae 8b3c 3a17 06ba be46 18bc
00000210: 535a 3a3a cb4b 57bb 9d8b bc3c fdee bb3c
00000220: d698 c8ba c66e 0ebd 332f 9abc dc91 953c
00000230: 562c 3e3b 6b20 5ebb 6a21 10bc d3c0 01bd
00000240: 6313 19bc 73aa 7fbb 5138 49bc 2a30 e03c
00000250: e34e a83c 725d d13c 8f8a b3bc c849 e9bb
00000260: c3ab 26bd 6f52 163c 92ce e2bc 38ea 58bb
00000270: d8ba 713c 55dd 97bb 6962 173d c2c4 b93c
00000280: c080 07bd 01f5 223d 47f5 a5bc 93a9 a3bc
00000290: 44b6 a33c fab0 f73c b5cd 25bc 34d8 12bd
000002a0: 7822 78bb c196 43bd b61b 6fbb 0838 a6bc
000002b0: 758a dfbb c7ac 4a3c 257e c1bb 93b9 90bc
000002c0: 85a0 9b3c 3d8c fdbc f2eb 04bb 5438 33bc
000002d0: b03f ee3c 4a46 033c cad0 b73c ebfc d7bc
000002e0: a14c 223b dcc1 8539 58af cebc 09fe 15bc
000002f0: 903c 983b 88be 913c f2d7 71bb ce57 ae3c
00000300: 4162 bc3c 5238 3fbb 00a4 e03c 0575 d83a
00000310: 2683 3f3b 53cf 50bc 6f42 b43c 5daf 03bd
00000320: 9d0c 723d f28a b63b dcac b5bd 45e1 71bc
00000330: f43a f7bc f3ab 583d c170 8a3d 3b05 4f3c
00000340: 01cc 2abd 2024 a2bb 9b9c 35bb a7ed 89bb
00000350: 929f e73b 1179 9bbc 8bc1 b7bc 66f5 e0bc
00000360: 4d82 0cbc 53c6 493c 0550 963b 736e b5bb
00000370: 2496 20bd e23b 8ebc 5fee 6f3c 6afd 49bc
00000380: 4217 073c 9ffc 31bb 30e8 b6bc c716 a4bc
00000390: d2b8 3abc 8437 e9bc 94c8 203c 53c4 a53a
000003a0: f7c6 e3bc c90c 93bc d20d 47bc 8976 59bc
000003b0: 1040 b63a 280a db3b a767 bc3c 70cd 80bb
000003c0: 6392 e93c a059 253d 8538 6c3c da5e 78bc
000003d0: c73e 653c 972e bc3b 3078 8abc f961 823c
000003e0: 6095 a4bc 6a4a babc 5570 24bd 8bd4 963c
000003f0: 5aa6 9f3c e404 d53a c78e 0b3d 88d6 ac3a
0.03043223 0.023515563 0.025006808 0.0043515814 0.036561027 0.03801568 0.0011921197 -0.023183478
0.020857766 -0.017075745 0.008430557 -0.025130657 -0.0010660912 -0.014995053 0.02257172 0.02669355
0.008924671 0.03230328 -0.015405147 -0.026662026 -0.010446481 0.019320456 0.013983944 -0.020714292
-0.032979675 -0.025012435 0.02436381 0.0018022099 0.0043024826 0.008480939 0.039008472 -0.00020450065
-0.02495238 0.0033997598 -0.061124418 -0.009731662 0.033710532 -0.021442808 -0.00665475 0.025943333
-4.7031022e-05 0.018635934 -0.04764794 -0.022417868 0.009399013 0.026099516 -0.03560141 0.027860679
0.009668649 -0.005800981 -0.02423303 -0.03799986 0.007150235 0.0040322267 0.010923889 -0.01891815
0.030597672 -0.012496822 -0.01840595 -0.005996775 0.008911814 -0.013187237 0.0008816247 0.004324703
-0.0044802744 0.024280783 0.0052655404 -0.005363423 -0.05302768 0.039769843 -0.021814836 0.012659078
0.025425678 0.018606868 -9.923683e-05 0.0040426347 0.012686731 -0.0110257175 0.009360441 -0.016132083
0.016074196 0.016919894 -0.011825467 -0.008349022 0.017523203 -0.017404271 0.020172669 -0.01122264
0.008997977 0.01566627 -0.0032937322 0.0077555645 0.020736994 -0.001184633 0.026840266 0.016662912
-0.012054061 -0.0018041868 -0.0018759599 0.0021963168 0.038871747 0.013604287 0.007948218 -0.0177008
0.030784039 0.027282754 -0.01358225 -0.033084463 -0.010518731 -0.0057142237 0.004683253 0.009578994
0.02263524 -0.02528346 0.016625237 -0.03758316 0.012487559 0.00040838588 0.0061909705 0.032764927
0.038147762 -0.015141035 -0.022924922 0.0348161 -0.06311162 0.029134752 -0.000650054 0.017152742
-0.0071149296 0.017050859 -0.00051151554 -0.00929421 0.0007108796 -0.0032851573 0.023015792 0.022941107
-0.0015304338 -0.03477361 -0.018821334 0.018258028 0.0029018125 -0.0033893834 -0.008797029 -0.031678032
-0.009343001 -0.0039011508 -0.012281493 0.027366716 0.020545429 0.025557254 -0.021916656 -0.007119391
-0.04069115 0.009174927 -0.027686391 -0.003309859 0.01475402 -0.004634539 0.036959086 0.02267683
-0.03308177 0.039784435 -0.020258559 -0.01997832 0.019984372 0.030235756 -0.010119845 -0.03585072
-0.0037862342 -0.047751192 -0.0036485023 -0.02029039 -0.0068219253 0.012370295 -0.00590493 -0.017666614
0.01899744 -0.03095066 -0.0020282236 -0.010938723 0.029083103 0.008012364 0.022438426 -0.026365718
0.0024764913 0.00025512173 -0.025230095 -0.009154805 0.0046458915 0.017791048 -0.0036902395 0.021282103
0.02299607 -0.0029177857 0.027421951 0.0016514367 0.0029222458 -0.012744742 0.022004334 -0.03214966
0.05909406 0.005570763 -0.08870861 -0.014763181 -0.030179478 0.05289836 0.06759787 0.012635524
-0.04169846 -0.004948154 -0.0027711752 -0.0042092386 0.007068583 -0.018978627 -0.022431156 -0.027460765
-0.008575988 0.012315351 0.004587176 -0.005536848 -0.039205685 -0.017362539 0.014644234 -0.012328485
0.008245291 -0.002715863 -0.022327513 -0.020030392 -0.011396604 -0.028468855 0.009813447 0.001264701
-0.027804835 -0.017950432 -0.012149291 -0.01327289 0.001390459 0.0066845603 0.022998644 -0.00393074
0.028512185 0.040368676 0.014417772 -0.015159333 0.013992018 0.0057428586 -0.016903013 0.015915858
-0.020090759 -0.022740562 -0.04014619 0.018411895 0.019488502 0.0016252068 0.03407171 0.0013186494
