NCA Parameters/A watercolor painting.pt (torch, 65115 bytes, 5 tensors)

weight f4 [90, 72, 1, 1]
0	0xbc84d931	-0.016216846
1	0xbd9c2b2a	-0.076254204
2	0x3cde2b19	0.02712016
3	0x3d6f671c	0.058447942
4	0xbc1270b6	-0.008938005
5	0xbd633272	-0.05546803
6	0xbd4d65b9	-0.05014584
7	0xbd985c22	-0.07439448
8	0x3bde6fa6	0.006788212
9	0x3e2a713e	0.16644761
10	0x3e646ade	0.22306392
11	0xbd36e955	-0.044656117
12	0xbd55114d	-0.052018452
13	0x3dd93b78	0.10607046
14	0xbd21aff4	-0.039474443
15	0x3dba5491	0.09098161
16	0x3e0ba04b	0.13635366
17	0x3d9cbae9	0.07652838
18	0x3d074938	0.03302881
19	0xbd1568cc	-0.036476895
20	0x3c2d6b41	0.010584653
21	0xbd9df186	-0.077120826
22	0x3d2bbbaf	0.041927036
23	0x3c7501f0	0.014954075
24	0x3cad158b	0.021128437
25	0xbdbfe48a	-0.09369762
26	0x3d161972	0.03664536
27	0x3c9c1e87	0.019057525
28	0xbd8f12ef	-0.06986033
29	0x3b84465c	0.004036708
30	0x3d23b031	0.03996295
31	0xbd87f326	-0.06638174
32	0x3b47774d	0.00304361
33	0xbcde2fd7	-0.027122421
34	0xbc8d3c7b	-0.017240753
35	0xbcc213d8	-0.023691103
36	0xbb6337dc	-0.0034670746
37	0x3d8712e6	0.065954015
38	0x3ce1154a	0.027475972
39	0xbd8a6961	-0.06758381
40	0xbd3aaf71	-0.04557747
41	0x3d0dcfdb	0.034622055
42	0xbd8e5cf7	-0.069513254
43	0xbd0e2165	-0.034699816
44	0xbbc3aa36	-0.0059712185
45	0x3cac90fb	0.021065226
46	0xbc342e60	-0.010997385
47	0x3cf19978	0.029492125
48	0x3b82f10f	0.0039960216
49	0x3b0945d9	0.0020946173
50	0xbe480ce0	-0.19536161
51	0x3c5a7059	0.01333245
52	0xbdbabd46	-0.09118132
53	0x3db61be8	0.088920414
54	0xbdbcbc82	-0.092156425
55	0xbcc30c02	-0.023809437
56	0xbdee39a5	-0.116320886
57	0xbccbf9f6	-0.024899464
58	0xbde93213	-0.11386504
59	0xbd6615c4	-0.0561731
60	0x3c1ff119	0.009762072
61	0x3bce02b5	0.006286944
62	0x3c4ab61d	0.012372521
63	0x3dc87f86	0.09789948
64	0x3d0134f8	0.031544656
65	0xbd4b8644	-0.049688593
66	0x3d07b49c	0.033131227
67	0x3d840113	0.064455174
68	0xbc8eeadd	-0.017445976
69	0x3ca35207	0.019936575
70	0x3d687a42	0.05675722
71	0x3e1947bd	0.14968772
72	0x3e57922e	0.21051857
73	0x3d4adf3b	0.049529295
74	0x3d75f2c1	0.06004596
75	0x3dce99c7	0.100879245
76	0x3dc0d86b	0.094162785
77	0x3d8310a9	0.06399662
78	0xbd62b22e	-0.055345707
79	0x3cacaf21	0.021079602
80	0x3dc9f145	0.09860472
81	0xbe37b278	-0.17939174
82	0x3d8be87e	0.06831454
83	0xbdfff64b	-0.124981485
84	0xbe35e74e	-0.17764017
85	0xbc38173e	-0.01123601
86	0x3d3757c5	0.044761438
87	0xbd358044	-0.044311777
88	0x3c2def0a	0.010616073
89	0x3e42470c	0.18972415
90	0x3e0bb40a	0.13642898
91	0xbd6925cf	-0.056920823
92	0xbc47e1c3	-0.012199822
93	0xbd8ce664	-0.06879881
94	0xbd01fe7f	-0.031736847
95	0xbdf9dcdb	-0.12200328
96	0xbd678f8c	-0.05653338
97	0xbd231349	-0.039813314
98	0x3d893b00	0.067007065
99	0x3da33047	0.079681925
100	0xbc91a7fe	-0.0177803
101	0xbd81d120	-0.063387156
102	0xbd92620e	-0.07147609
103	0xbd95c94c	-0.07313785
104	0xbdb970cb	-0.09054717
105	0xbd1305fa	-0.03589437
106	0xbc72f849	-0.014829704
107	0x3d0a6631	0.033788864
108	0xbd0ba123	-0.03408922
109	0x3cb43164	0.021996208
110	0x3cd237f5	0.025661448
111	0xbd37a06b	-0.04483072
112	0x3d839113	0.06424155
113	0x3cd0c4c1	0.025484445
114	0x3d7bce5f	0.061476108
115	0xbd91163d	-0.0708432
116	0x3cd4b660	0.02596587
117	0xbdb246fa	-0.08704944
118	0x3c9587b7	0.01825319
119	0x3dce81f1	0.10083378
120	0x3c43fb14	0.011961717
121	0x3ced02f1	0.028932067
122	0x3d8a4856	0.06752078
123	0xbc91711f	-0.017754136
124	0x3de1cf1d	0.11025832
125	0xbd99f847	-0.07518058
126	0xbb547259	-0.003241679
127	0xbd5f99b9	-0.05458996
128	0xbdbb6fef	-0.09152209
129	0xbe168910	-0.14700723
130	0x3dbbf6ba	0.09177919
131	0x3d911c2e	0.07085453
132	0x3d90057d	0.07032297
133	0x3c831275	0.016000012
134	0xbc227d17	-0.009917519
135	0x3d8800ef	0.06640803
136	0xbd9e33de	-0.07724737
137	0x3df1d292	0.11807741
138	0xbb8a126a	-0.004213621
139	0xbcf4a8cf	-0.02986565
140	0xbe11736c	-0.14204186
141	0x3e14a751	0.14516951
142	0xbd894d0c	-0.06704149
143	0xbc3092ce	-0.010777188
144	0xbd546209	-0.051851306
145	0xbd03a560	-0.032140136
146	0x3dc45bc0	0.095878124
147	0xbc406595	-0.011742969
148	0x3af32910	0.0018551666
149	0x3ce5a9c3	0.02803505
150	0xbd79b0f6	-0.06095978
151	0xbbf51f95	-0.0074805715
152	0x3cace9b8	0.02110754
153	0x3e38e823	0.18057303
154	0x3dab9f27	0.08379965
155	0xbd9dff8b	-0.077147566
156	0x3d827342	0.0636964
157	0x3d3ec748	0.04657677
158	0xbd211aad	-0.03933208
159	0x3d8da36b	0.06915935
160	0xbb324a73	-0.002720502
161	0xbd8db271	-0.069188006
162	0xbd3cac3f	-0.046062704
163	0xbe030302	-0.12794116
164	0x3c99f704	0.018794544
165	0x3d32f0ab	0.04368655
166	0x3df06d56	0.11739604
167	0x3d219c3e	0.039455645
168	0x3dab8371	0.0837468
169	0x3ce25289	0.027627246
170	0xbde9d819	-0.114181705
171	0xbd5cc5f2	-0.053899713
172	0x3d482772	0.048865743
173	0xbd58520e	-0.05281263
174	0xbd45bd79	-0.0482764
175	0x3d5470fb	0.05186556
176	0xbd4111d2	-0.047136135
177	0xbd0892b1	-0.03334302
178	0xbdcec618	-0.10096377
179	0xb9fdb4f0	-0.0004839073
180	0x3de209b9	0.11037011
181	0x3cae0364	0.021241851
182	0x3c858110	0.016296893
183	0x3cae5308	0.021279827
184	0xbd1eb97d	-0.038751114
185	0x3cf1f59c	0.029536061
186	0xbd054d71	-0.032544557
187	0xbcacd6f9	-0.0210986
188	0xbc3c3b1b	-0.011488701
189	0xbd1be470	-0.03805965
190	0x3e034ba1	0.12821819
191	0xbe2e9f87	-0.17053042
192	0xbdce21f2	-0.10065068
193	0x3c96576e	0.018352237
194	0xbe597a65	-0.21238096
195	0xbde7cfee	-0.11318956
196	0xbdb688c9	-0.089128084
197	0xbc4c99d6	-0.012487849
198	0xbe13b6b3	-0.14425163
199	0xbd596c37	-0.053081717
200	0xbe153789	-0.14571966
201	0xbbdcf1a5	-0.0067426735
202	0xbdeb0e1f	-0.11477303
203	0xbd07e1a8	-0.033174187
204	0x3c081b21	0.008307249
205	0xbd908520	-0.070566416
206	0x3d50a9f6	0.050943337
207	0xbd9f9469	-0.07791979
208	0xbdb39244	-0.08768132
209	0x3cc8ebc0	0.024526477
210	0x3d8a1747	0.06742721
211	0xbe0d2f17	-0.13787495
212	0xbdc58ef4	-0.09646407
213	0x3c106b42	0.008814635
214	0xbc859638	-0.016306981
215	0xbd8d7eae	-0.06908928
216	0xbd6b20b6	-0.057404242
217	0x3b880c1d	0.0041518346
218	0x3d4836d5	0.048880417
219	0x3c5ec6f1	0.013597236
220	0xbd4fdfca	-0.05075053
221	0xbded57ec	-0.115890354
222	0xbd82a4a5	-0.0637906
223	0xbba13387	-0.0049194726
224	0x3d03c916	0.032174192
225	0xbd8e8b0b	-0.06960114
226	0xbdc9adc8	-0.09847599
227	0xbe750366	-0.23927078
228	0x3d7824c5	0.06058194
229	0x3bbc213e	0.0057412675
230	0x3d133933	0.03594322
231	0xbd10e4a9	-0.035374317
232	0xbd2f5851	-0.042808834
233	0xbd1b2ff4	-0.03788753
234	0xbc4fd35c	-0.012684669
235	0xbcc91253	-0.02454487
236	0xbcb88b9c	-0.022527508
237	0xbdb85a89	-0.09001643
238	0x3ca54e1f	0.020178853
239	0xbe0c23c1	-0.13685514
240	0x3d66a807	0.056312587
241	0xbc6a40e0	-0.014297694
242	0xbe0e7e71	-0.13915421
243	0x3d1cdea2	0.038298257
244	0xbd22ab4b	-0.03971414
245	0x3d434bbb	0.047679644
246	0xbd042ac5	-0.03226735
247	0xbca34473	-0.0199301
248	0x3d2c7eae	0.042113
249	0xbd01be48	-0.031675607
250	0x3db29c1a	0.0872118
251	0x3dbff19b	0.093722545
252	0xbcf4aa51	-0.02986637
253	0x3d0c0760	0.03418672
254	0x3ce87180	0.028374434
255	0x3c081ee6	0.008308148

bias f4 [90]
0	0x3d2dd099	0.042435262
1	0xbd255edb	-0.040373664
2	0xbc166994	-0.009180445
3	0xbd901482	-0.070351616
4	0xbd3a84ec	-0.04553692
5	0xbd488f95	-0.048965055
6	0x3dee93d3	0.11649289
7	0x3d34a726	0.044104718
8	0x3e1d81f3	0.15381603
9	0xbda72f77	-0.0816335
10	0x3d544708	0.051825553
11	0xbdf24665	-0.11829833
12	0x3d4af4a4	0.049549714
13	0x3e0e148a	0.13875023
14	0xbd79fe84	-0.06103374
15	0xbcf98023	-0.030456608
16	0x3db15d10	0.086603284
17	0x3c8a963e	0.016917344
18	0xbd4a4332	-0.04938049
19	0xbc940053	-0.01806656
20	0xbd71b8ed	-0.05901425
21	0x3e0e6c66	0.13908538
22	0x3d575458	0.05257067
23	0xbb895c8a	-0.0041919397
24	0xbdfa5d9f	-0.12224888
25	0x3d58ed56	0.052960716
26	0x3d93879c	0.072036
27	0xbcad9cb9	-0.021192895
28	0x3c58c74a	0.013231108
29	0xbbdbfef7	-0.006713744
30	0xbba5a5d8	-0.0050551705
31	0xbd6b8620	-0.05750096
32	0x3d77ac53	0.060467076
33	0xbb6c9af0	-0.0036103092
34	0x3dcdad79	0.10042853
35	0x3cf83613	0.030299222
36	0xbce7399a	-0.028225709
37	0xbd916cb7	-0.07100814
38	0xbd9197ed	-0.07109056
39	0x3bbe8057	0.005813639
40	0x3e554fa4	0.20831162
41	0x3dedce5b	0.11611625
42	0xbdcb6381	-0.09931088
43	0x3d8b4f33	0.068022154
44	0x3ccd90c7	0.02509345
45	0x3e1f8c1c	0.15580791
46	0xbcc7805c	-0.024353199
47	0xbdfe1f0d	-0.12408266
48	0x3e091838	0.13388145
49	0xbc2791c3	-0.010227623
50	0x3db3e54b	0.087839685
51	0x3dae3d59	0.08507795
52	0xbd29d97a	-0.041467167
53	0xbd722d26	-0.05912509
54	0xbc673f54	-0.01411422
55	0xbd5f4757	-0.054511394
56	0x3e1b14a1	0.15144588
57	0xbcef8d07	-0.029242052
58	0x3ccafb70	0.024778098
59	0xbcd19991	-0.025585921
60	0x3e0333a8	0.12812674
61	0xbe3c6e9f	-0.18401574
62	0x3d94376e	0.07237135
63	0x3d948ac3	0.07253029
64	0xbc391509	-0.011296519
65	0x3c9fe205	0.019516954
66	0xbdd483f3	-0.1037673
67	0x3dff3eb0	0.124631286
68	0x3dc926d8	0.09821862
69	0x3d5cbfd3	0.053893875
70	0x3dc39b3d	0.09551094
71	0x3d0ce1da	0.034395076
72	0x3d7cef37	0.06175157
73	0x3dc21dab	0.09478315
74	0x3c6aa8ed	0.014322502
75	0x3daad0de	0.083406195
76	0xbd629b8e	-0.05532413
77	0xbce65c84	-0.028120287
78	0xbd95efa8	-0.073211014
79	0x3d66cd10	0.056347907
80	0xbd97722f	-0.07394826
81	0x3d9ed776	0.0775594
82	0x3d99cea0	0.07510114
83	0x3da9369d	0.0826237
84	0x3cfefc2f	0.03112611
85	0xbd3504b5	-0.044193942
86	0x3dfa0284	0.12207511
87	0xbc657a36	-0.014006188
88	0x3d8c2fdf	0.06845068
89	0xbd7ee488	-0.062229663

weight f4 [90, 90, 1, 1]
0	0x3d125757	0.035727825
1	0xbdce36ad	-0.10069022
2	0x3e09cc53	0.1345685
3	0xbc2514e7	-0.010075784
4	0xbb060558	-0.0020449962
5	0xbbad37f0	-0.0052862093
6	0xbcc86a90	-0.024464875
7	0xbd97ad16	-0.074060604
8	0x3de61c88	0.11235911
9	0x3d4f43f6	0.050601922
10	0x3d802a41	0.06258059
11	0x3d821693	0.06351962
12	0xbcfdbcfb	-0.030973902
13	0x3c72c76f	0.0148180565
14	0xbd263004	-0.040573135
15	0xbd85a931	-0.06526411
16	0xbd1c4d4e	-0.03815966
17	0xbcada081	-0.021194698
18	0x3dadaf84	0.084807426
19	0x3d36a349	0.044589315
20	0xbcafb814	-0.02145008
21	0xbd278b48	-0.040904313
22	0x3d6b6f26	0.057479046
23	0xbd99b777	-0.07505696
24	0x3de43d96	0.11144559
25	0x3d47a2a1	0.04873908
26	0xbd002b89	-0.03129152
27	0x3d8ac1cc	0.06775245
28	0x3dce55c3	0.100749515
29	0xbcb8ee65	-0.022574613
30	0xbdc48243	-0.09595158
31	0xbd74b7ba	-0.059745528
32	0x3b1eec3b	0.002424969
33	0x3d32952c	0.043599293
34	0xbd1f69ba	-0.038919188
35	0x3d454836	0.04816457
36	0xbdfaeac5	-0.1225181
37	0xbbe0edf4	-0.0068643037
38	0x3dd3fb27	0.10350638
39	0x3e05a69f	0.13051842
40	0xbd6b8439	-0.057499144
41	0x3dd469c1	0.103717335
42	0xbd898c78	-0.067162454
43	0x3c644979	0.013933533
44	0x3d03abbb	0.032146197
45	0xbdd00288	-0.10156733
46	0x3d897dee	0.06713472
47	0xbd6f4ee0	-0.05842483
48	0xbde805d8	-0.113292396
49	0x3c1d72c9	0.009609886
50	0x3d7ae832	0.061256595
51	0xbd12249b	-0.03567944
52	0xbcd3a0f4	-0.025833584
53	0xbce73da4	-0.028227635
54	0xbd481b00	-0.048853874
55	0xbb0da34a	-0.002161222
56	0xbe09c1a6	-0.13452777
57	0x3bad1c77	0.0052829343
58	0xbd116864	-0.035499945
59	0x3d9679e1	0.07347465
60	0xbd8e6e45	-0.06954626
61	0xbce8f69b	-0.028437903
62	0x3dd12f79	0.10214133
63	0x3caa7f91	0.020812782
64	0x3c143cb3	0.009047675
65	0x3c1884ba	0.009308988
66	0x3db99c9a	0.090630725
67	0xbd493ce0	-0.04913032
68	0xbd613eaa	-0.0549914
69	0xbda53225	-0.08066205
70	0x3c5e739d	0.013577369
71	0x3ce9afa3	0.028526133
72	0xbcfe1b48	-0.031018868
73	0xbda53178	-0.08066076
74	0x3d3dcad6	0.046336018
75	0x3c8a44ae	0.016878452
76	0x3d2aa69d	0.0416628
77	0xbbe4e968	-0.006985832
78	0xbc12fa80	-0.008970857
79	0x3d9a37b1	0.075301535
80	0xbd7ebc7a	-0.062191464
81	0x3dcd9799	0.100386806
82	0xbdc66fa2	-0.09689261
83	0x3d72603c	0.059173808
84	0xbd2671ad	-0.040635753
85	0x3d2eedf8	0.042707413
86	0x3dd383a4	0.10327843
87	0x3dcdacfb	0.10042759
88	0x3dde01fd	0.10840223
89	0x3cdf2fb2	0.027244423
90	0x3c988450	0.018617779
91	0x3d5b048e	0.05347114
92	0x3d02438d	0.031802703
93	0x3d7d8588	0.061894923
94	0xbd3dd7fa	-0.04634855
95	0x3c9c4254	0.019074596
96	0xbd14207d	-0.036163796
97	0x3ddc11c0	0.10745573
98	0x3e0c8059	0.13720836
99	0xbcdf1058	-0.027229473
100	0xbd89b2fc	-0.06723592
101	0x3d959742	0.07304241
102	0xbd0fd5a9	-0.03511587
103	0xbcc07899	-0.023495005
104	0xbcf090d0	-0.029365927
105	0x3d8f4476	0.0699548
106	0x3aa96ec2	0.0012926685
107	0x3b913416	0.004431258
108	0xbd811252	-0.063023224
109	0xbdef24d2	-0.11676945
110	0x3d90437a	0.0704412
111	0xbd47590a	-0.0486689
112	0xbd9502ea	-0.072759464
113	0xbd9884ab	-0.074471794
114	0x3dabd339	0.08389897
115	0xbb9f0a46	-0.0048535196
116	0xbc7babc7	-0.015360779
117	0x3d2cdee5	0.042204756
118	0x3d9b4cfb	0.07583042
119	0x3d7bef46	0.061507486
120	0xbd373ce7	-0.044735815
121	0xbc9d6bb6	-0.0192164
122	0x3df9c45f	0.12195658
123	0x3e1c858c	0.15285319
124	0x3d7b5d18	0.061368078
125	0xbd099887	-0.033592727
126	0x3d7e1eb7	0.06204101
127	0x3dcaa38f	0.098944776
128	0x3c95c8b5	0.018284181
129	0xbb2e5723	-0.002660223
130	0xb9199856	-0.00014647967
131	0x3b9a34fe	0.004706024
132	0x3da64fcc	0.08120689
133	0x3dcee3a7	0.10102015
134	0xbd49f083	-0.049301635
135	0xbd3f6c13	-0.046733927
136	0xbd856010	-0.06512463
137	0x3dd9af34	0.106291205
138	0xbc51e70c	-0.0128114335
139	0x3de493af	0.11160981
140	0xbd2efae2	-0.04271973
141	0xbd9de238	-0.077091634
142	0x3b9993eb	0.0046868226
143	0x3b1d987b	0.0024047184
144	0xbca0ddd5	-0.019637028
145	0xbd37f559	-0.044911716
146	0xbe01da02	-0.1268082
147	0xbdb0c56e	-0.08631407
148	0x3d94204d	0.072327234
149	0x3cb64bc7	0.02225293
150	0x3cbcc984	0.023045309
151	0xbd46f943	-0.04857756
152	0x3d354f04	0.04426481
153	0x3cd787bb	0.026309839
154	0xbdb98707	-0.090589575
155	0x3dee3699	0.116315074
156	0x3d920cd0	0.0713135
157	0xbdf8b9d2	-0.121448174
158	0x3ce1182a	0.027477343
159	0xbe06c495	-0.13160928
160	0xbd1c53da	-0.038165905
161	0x3db2422d	0.08704028
162	0x3dd1efe5	0.102508344
163	0x3d21a4e8	0.039463907
164	0xbd4eca2e	-0.050485782
165	0xbd656c47	-0.056011464
166	0xbbbace48	-0.00570086
167	0x3d38fb3e	0.04516148
168	0x3d031194	0.031999186
169	0x3db65905	0.08903698
170	0xbd2fde64	-0.042936698
171	0xbb80cfed	-0.0039310367
172	0x3d84b404	0.06479648
173	0xbd8c09ea	-0.068378285
174	0x3a961198	0.0011449335
175	0xbd942cbb	-0.07235094
176	0x3cac4900	0.021030903
177	0x3cc70f02	0.024299148
178	0x3daee4b7	0.08539718
179	0x3cc12f6a	0.02358218
180	0x3cc7986f	0.024364678
181	0x3cc4176d	0.023936952
182	0x3daf1ac5	0.08550028
183	0xbcf9f04b	-0.030510088
184	0x3c9a747b	0.01885437
185	0x3d08e199	0.03341827
186	0x3a9b69ee	0.0011857131
187	0xbd754f2c	-0.059889957
188	0xbd663051	-0.056198422
189	0x3dd18aaf	0.1023153
190	0x3d019925	0.03164019
191	0x3d6d1b20	0.057887197
192	0x3bba9bba	0.0056948336
193	0xbc584e1a	-0.013202215
194	0xbd53c95b	-0.0517057
195	0x3e08c44c	0.13356131
196	0xbd1a3fe9	-0.037658606
197	0x3d87a059	0.06622381
198	0xbdd24569	-0.10267145
199	0xbd1e88b6	-0.038704596
200	0xbd249997	-0.040185537
201	0xbc766be4	-0.015040372
202	0x3d09975c	0.033591613
203	0xbd0c1b21	-0.03420556
204	0x3d4dd38a	0.050250567
205	0xbd894b81	-0.06703854
206	0xbda160bd	-0.078797795
207	0xbd42e233	-0.047579
208	0xbc9ce9c5	-0.019154439
209	0x3cc40801	0.023929598
210	0x3c9fecbc	0.019522063
211	0xbde1de48	-0.11028725
212	0xbbb4ca65	-0.0055172914
213	0x3cdb5c05	0.026777277
214	0xbd7a22f1	-0.06106848
215	0x3de19c50	0.11016142
216	0x3ce0c6b6	0.027438503
217	0xbbbf808d	-0.005844182
218	0x3dd67033	0.10470619
219	0xbcdf3e0c	-0.027251266
220	0xbcead4c4	-0.028665908
221	0xbd9c2440	-0.07624102
222	0x3d913644	0.070904285
223	0xbc6ccf14	-0.014453668
224	0xbc30fc10	-0.010802284
225	0x3d5a186e	0.053245954
226	0x3d719811	0.058982912
227	0x3de36c4c	0.1110464
228	0x3d84fcbc	0.06493518
229	0x3c59426f	0.013260468
230	0xbe3bf3f9	-0.18354787
231	0x3cb7eaf7	0.022450907
232	0x3e0673e9	0.13130154
233	0xbd8de7d6	-0.06928985
234	0x3bba8c2c	0.0056929793
235	0xbe2056cd	-0.15658112
236	0xbe04449f	-0.12916802
237	0x39a5ca0d	0.00031621792
238	0x3da5d77d	0.08097742
239	0x3aa554ca	0.001261377
240	0xbb83e93d	-0.004025607
241	0x3d2f36ec	0.042776987
242	0x3ccd552a	0.025065023
243	0xbc9b884c	-0.01898589
244	0xbdecb6aa	-0.11558278
245	0x3e02b497	0.12764202
246	0xbd81b358	-0.06333035
247	0x3d8d4172	0.06897248
248	0x3dd51003	0.104034446
249	0x3d7853c2	0.060626753
250	0xbdb15f32	-0.08660735
251	0x3bb6e303	0.005581261
252	0xbdd50e5d	-0.1040313
253	0x3d55b0c5	0.052170534
254	0xbdd677b4	-0.1047205
255	0x3d357043	0.044296514

bias f4 [90]
0	0xbd9752a6	-0.07388811
1	0xbddcae12	-0.10775389
2	0x3cb2b911	0.021816762
3	0xbb72ee13	-0.0037068173
4	0xbdaf4976	-0.085589334
5	0x3be175d2	0.0068805004
6	0xbd31f459	-0.04344592
7	0x3d98c346	0.074591205
8	0xbd1c2f7f	-0.038131233
9	0xba9d9940	-0.0012023821
10	0xbd46eed2	-0.0485676
11	0x3e19f568	0.15035021
12	0xbe052a21	-0.13004352
13	0xbd0873fd	-0.03331374
14	0xbcad0a7c	-0.021123163
15	0xbdb3eeec	-0.08785805
16	0xbd66cb42	-0.056346186
17	0xbd2a8cc6	-0.04163816
18	0xbd7b5dfd	-0.06136893
19	0xbd16fb8b	-0.036860984
20	0xbd7b0588	-0.061284572
21	0xbd028822	-0.031868108
22	0xbb114dd8	-0.0022171643
23	0xbd010a34	-0.03150387
24	0x3d0732ab	0.033007305
25	0xbdbd9847	-0.0925756
26	0x3d0a09a0	0.033700585
27	0x3d9e10ec	0.07718071
28	0xbe1318cf	-0.14364932
29	0x3e0512a6	0.12995395
30	0xbb8f0721	-0.0043648635
31	0x3cb3301e	0.02187353
32	0xbc06a386	-0.008217698
33	0x3de7647e	0.11298464
34	0x3db5b1b9	0.088717885
35	0x3d43108c	0.047623202
36	0xbdfc1d99	-0.12310333
37	0xbd12f14a	-0.035874642
38	0x3c79dec0	0.015250862
39	0xbce78290	-0.0282605
40	0x3c911b07	0.017713083
41	0x3d52fdea	0.051511683
42	0x3b4b23ef	0.003099676
43	0xbcc04ada	-0.023473192
44	0xbce8c535	-0.028414348
45	0x3d96bfe4	0.07360819
46	0xbe0358b1	-0.12826802
47	0xbddb138b	-0.10697087
48	0x3d1f3782	0.038871296
49	0xbdcbfc4e	-0.09960233
50	0x3d36226b	0.044466417
51	0xbcb0052c	-0.021486841
52	0xbdab0554	-0.08350626
53	0xbdb68da3	-0.08913734
54	0x3da22bae	0.079184875
55	0x3e053f02	0.13012317
56	0xbd0984c0	-0.033573866
57	0xbcce3bba	-0.025174964
58	0x3d92f254	0.07175127
59	0x3d556447	0.052097585
60	0xbe09379d	-0.13400121
61	0x3d58b9b0	0.05291146
62	0x3d64a052	0.055816956
63	0x3d180d10	0.037121832
64	0x3d5ef6e2	0.054434665
65	0xbd902628	-0.07038528
66	0xbe0365d8	-0.12831819
67	0xbdca1b7a	-0.09868522
68	0xbd38add5	-0.045087654
69	0x3d86e2c6	0.06586222
70	0x3daa97a9	0.08329708
71	0x3bdb843d	0.0066991136
72	0xbdebc6bd	-0.11512516
73	0xbd28e80e	-0.04123693
74	0x3d2f87c6	0.042854093
75	0x3db0b480	0.08628178
76	0xbd9b6010	-0.07586682
77	0x3ce1b59c	0.027552418
78	0x3d6c2352	0.05765087
79	0x3c9c317e	0.019066568
80	0x3d3a53aa	0.045489945
81	0x3daba3a9	0.08380825
82	0xbdba14f5	-0.090860285
83	0xbae16a70	-0.0017197859
84	0xbd8409dc	-0.06447193
85	0x3bef09de	0.0072948774
86	0x3cf6b312	0.030114684
87	0x3cc3c9ab	0.023899874
88	0xbe043ddf	-0.12914227
89	0x3d87017f	0.06592082

weight f4 [9, 90, 1, 1]
0	0xbc86ba44	-0.01644624
1	0x3c635b73	0.013876784
2	0x3c9c5c42	0.01908696
3	0xbc9cf050	-0.019157559
4	0xbcbfe17b	-0.023422947
5	0x3d63dfe8	0.055633456
6	0x3d1a2c5c	0.03763996
7	0x3c7f6dc0	0.015590131
8	0xbb430fed	-0.0029764131
9	0x3d1cb729	0.038260613
10	0xbbff4f94	-0.007791469
11	0xbcf50cbc	-0.029913299
12	0xbc380860	-0.0112324655
13	0x3d3c6693	0.04599626
14	0xbdd9af3a	-0.10629125
15	0x3c5b6f4c	0.013393234
16	0xbcbc756c	-0.02300521
17	0xbcba373e	-0.02273142
18	0x3c926def	0.017874686
19	0xbc9c174d	-0.01905408
20	0x3be0977a	0.006853995
21	0xbd0b40ba	-0.033997275
22	0x3c507818	0.012723945
23	0xbbd55bfc	-0.0065112095
24	0x3d1b8653	0.0379699
25	0xbca877fe	-0.02056503
26	0x3c9cb21e	0.019127902
27	0xbc988156	-0.01861636
28	0xbd16739d	-0.03673135
29	0xbd099ac8	-0.033594877
30	0x3c751e9f	0.014960914
31	0xbcf01174	-0.029305197
32	0xbb33d126	-0.0027437895
33	0x3c85a5af	0.016314356
34	0x3c3f89fa	0.011690611
35	0x3c6fe2ab	0.014641444
36	0x3c0f5d37	0.0087502515
37	0xbc42e30b	-0.011894952
38	0xbcad2205	-0.021134386
39	0x3db8ef32	0.09029998
40	0xbc3d0318	-0.011536382
41	0x3be75f84	0.007060947
42	0xbd82709d	-0.063691355
43	0x3c1333fa	0.00898456
44	0x3b46d6f4	0.0030340524
45	0x3cac603e	0.021041986
46	0xbd3d8c12	-0.04627616
47	0x3cfeb5d6	0.031092566
48	0xbd11ebad	-0.03562515
49	0x3d07b78d	0.033134032
50	0x3d1d653f	0.038426634
51	0x3cb27feb	0.021789512
52	0xbd5dc4f5	-0.05414291
53	0x3c588ae7	0.013216711
54	0xbd2bd23a	-0.041948535
55	0xbd0ff720	-0.035147786
56	0xbd3db242	-0.046312578
57	0x3c61a8a2	0.013773115
58	0xbb8f8ec0	-0.004381031
59	0x3cff39c3	0.031155473
60	0xbd71e06d	-0.05905192
61	0xbca50163	-0.020142263
62	0x3b82a3c7	0.003986809
63	0x3c8130b5	0.015770296
64	0x3a256c32	0.0006310373
65	0x3c626336	0.013817599
66	0x3c7f2424	0.015572581
67	0x3c4c40e7	0.012466646
68	0xbd205c44	-0.03915049
69	0xbc6cba9d	-0.014448789
70	0xbcc19fd6	-0.023635786
71	0x3b7951e5	0.0038043198
72	0xbcf698cd	-0.030102158
73	0xbd00d2f7	-0.03145119
74	0x3be816d9	0.007082802
75	0x3d6a9e1e	0.0572797
76	0xbcee3766	-0.02907915
77	0xbabae5bc	-0.001425914
78	0x3ce50c5f	0.02796
79	0x3a82e0cb	0.0009985206
80	0xbd1f7b85	-0.038936157
81	0xbbd05533	-0.006357813
82	0x3c882676	0.016619902
83	0x3cc7b073	0.02437613
84	0xbc8a8cb9	-0.016912805
85	0xbc74c17b	-0.014938707
86	0xbdc4c06e	-0.096070156
87	0xbc27e231	-0.010246799
88	0x3c58a2bb	0.013222392
89	0xbcd9c989	-0.026585357
90	0x3abdf902	0.0014493766
91	0x3cd63156	0.026146572
92	0xbcaabd82	-0.020842317
93	0xbcf3ee11	-0.029776605
94	0xbd2cc4eb	-0.042179983
95	0x3752b45d	1.25589695e-05
96	0xbbbfe07b	-0.0058556176
97	0x3d329062	0.043594725
98	0x3cd79dec	0.02632042
99	0xbc9cf4aa	-0.019159634
100	0x3b018f5e	0.0019769291
101	0x3c672e49	0.014110156
102	0x3c65483e	0.013994275
103	0x3d865fd1	0.06561244
104	0xbc91fd59	-0.017821
105	0x3ce47b2a	0.02789076
106	0x3c7aa35f	0.01529774
107	0x3c009e99	0.007850313
108	0x382d7109	4.1351686e-05
109	0xbc93f8d9	-0.018062996
110	0x3c0d8fb3	0.008640218
111	0xbce47bad	-0.027891004
112	0xbc6ef640	-0.014585078
113	0xb921979e	-0.00015410638
114	0x3cb480da	0.022034097
115	0xbc477318	-0.012173437
116	0xbcefaaaa	-0.029256184
117	0x3ad9d417	0.0016618994
118	0x3d335c5e	0.04378926
119	0xbd9a310a	-0.07528885
120	0xbc40863f	-0.011750757
121	0x3d218ce7	0.039441016
122	0x3cc8a6f3	0.02449367
123	0x3cc3458e	0.023836877
124	0x3bad610e	0.005291111
125	0xbc8c922d	-0.017159546
126	0x3c6bbbf0	0.0143880695
127	0x3c10a6a5	0.008828794
128	0xbd924c75	-0.07143489
129	0xbd7dc8b7	-0.061958995
130	0xbc568db5	-0.013095309
131	0x3ceb15eb	0.028696975
132	0x3b6dc4f8	0.0036280733
133	0xbce4d4cc	-0.0279335
134	0x3c01271d	0.0078828605
135	0xbd6a1bab	-0.057155292
136	0xbcac863f	-0.021060107
137	0x3c47be5d	0.012191382
138	0xbcb96a77	-0.022633774
139	0x3ca62a32	0.020283792
140	0x3d5a5f62	0.05331362
141	0xbd0e834a	-0.034793176
142	0xbc3bd686	-0.011464721
143	0xbbef5c00	-0.0073046684
144	0x3c9b7a49	0.018979209
145	0xbd10e38b	-0.035373252
146	0x3d163b1a	0.036677457
147	0xbcc82175	-0.024430016
148	0xbd6bc5dd	-0.057561744
149	0x3c7a2804	0.0152683295
150	0x3c908c2f	0.01764497
151	0x3beb740d	0.007185465
152	0xbc94237e	-0.01808333
153	0x3c524e71	0.012836085
154	0xbccdd5d8	-0.025126383
155	0xbd1bd2aa	-0.0380427
156	0xbd19d1f9	-0.03755376
157	0x3d480622	0.048833974
158	0xbd596bcf	-0.05308133
159	0xbb053ac4	-0.0020329216
160	0xb98b7a27	-0.00026603157
161	0x3c23054e	0.009949995
162	0xbbd8ed40	-0.0066200793
163	0xbd202758	-0.03910002
164	0x3d78bfca	0.06072978
165	0xbc4024a4	-0.011727486
166	0xb9adb979	-0.0003313532
167	0x3bc9b373	0.006155425
168	0x3d5d53f9	0.05403516
169	0xbb96d573	-0.004603082
170	0xbd83dfc5	-0.06439165
171	0x3d115f8d	0.035491515
172	0x3d0c7cc1	0.034298662
173	0x3cbda77b	0.02315115
174	0xbc820e68	-0.01587601
175	0xbd4fb7da	-0.050712444
176	0xbd4dbca5	-0.050228734
177	0x3cbdacc2	0.023153666
178	0xbcb56f46	-0.022147786
179	0xbc7efad2	-0.01556273
180	0xbd2f4093	-0.042786192
181	0xbc77bb75	-0.015120377
182	0xba41193b	-0.00073661254
183	0x3cb6f593	0.022333896
184	0x3be1caeb	0.006890645
185	0x3c83f352	0.016107235
186	0x39a7f60b	0.00032036038
187	0xbb481ffa	-0.0030536638
188	0x3d7619ec	0.060083315
189	0xbc2e77b2	-0.010648655
190	0xbb5afa9c	-0.0033413535
191	0x3c6cb244	0.014446799
192	0x3d0ea597	0.034825888
193	0x3d712479	0.058872674
194	0x3c1150df	0.008869379
195	0x3bb30dd9	0.0054642973
196	0x3b374f87	0.0027970986
197	0x3c98fba9	0.018674688
198	0xbd269115	-0.040665705
199	0x3cfc9ffb	0.030838003
200	0x3ca920cc	0.020645522
201	0xbd08d912	-0.03341014
202	0x3bbde12a	0.005794664
203	0x3d0a7072	0.033798642
204	0x3bad8ced	0.0052963407
205	0xbcc30519	-0.023806142
206	0xbc2bd0ca	-0.010486791
207	0x3c330ca8	0.01092831
208	0xbd09579e	-0.033530824
209	0xbc30d6bd	-0.010793385
210	0x3c443b5b	0.011977042
211	0xbb9d37ac	-0.0047978964
212	0x3d129bb0	0.035793006
213	0xbd278141	-0.04089475
214	0x39874a9a	0.0002580479
215	0xbc56c888	-0.013109334
216	0xbd31edef	-0.0434398
217	0xbd2045e7	-0.039129164
218	0xbc7a7eaf	-0.015288993
219	0xbdaa99cd	-0.083301164
220	0xbcbfcac9	-0.023412125
221	0x3bea3f61	0.0071486686
222	0x3d311096	0.04322871
223	0x3cd18bab	0.025579294
224	0x3c8bfc21	0.017087998
225	0x3c3965a7	0.01131574
226	0xbcea408b	-0.02859523
227	0xbd06c3b0	-0.032901466
228	0x394ec2c6	0.0001971825
229	0xbd43f9e1	-0.047845725
230	0x3cfff19c	0.031243138
231	0xbb18ea58	-0.002333304
232	0x3c8bdf23	0.017074173
233	0x3bd4eb40	0.0064977705
234	0xbcadd377	-0.021218998
235	0xbcea0e3f	-0.028571246
236	0xbc923638	-0.01784812
237	0x3b21f5b3	0.0024713099
238	0x3bc941a6	0.006141859
239	0x3c058de2	0.008151503
240	0x395eb184	0.000212377
241	0x3bc9f5c0	0.006163329
242	0xbc9ab3d1	-0.018884571
243	0xbd51d82d	-0.051231552
244	0x3bea5bb2	0.007152044
245	0x3b8d17e5	0.004305827
246	0xbbdfa8ec	-0.006825557
247	0xbc8b8bf9	-0.017034518
248	0xbcb5b490	-0.022180825
249	0x3d1242cc	0.035708234
250	0x3c7b2777	0.015329233
251	0xbd5758d6	-0.052574955
252	0x3cb966c5	0.022632012
253	0xbcc0a444	-0.023515828
254	0x3d03d44d	0.032184888
255	0x3cb49fe8	0.022048905
